models/final_best_model.pth (torch, 751345 bytes, 32 tensors)

input_layer.0.weight f4 [320, 16]
000000 47 e8 75 bc b5 e4 c7 bd 75 75 1e be 14 db 87 3c
       -0.0150089925 -0.09760419 -0.15474494 0.016583957
000010 2a b0 12 be 6d 90 2c be 7c 17 0a 3e 66 22 67 3d
       -0.14325014 -0.16851969 0.13485521 0.05642929
000020 56 6f 32 3e 6a 73 31 3e dc 85 49 3c 89 a5 c7 3c
       0.17425284 0.17329183 0.012299981 0.024370926
000030 0e 1a 4e be 0a b0 3b bf 64 d0 0d bd 1b 80 16 3e
       -0.20127127 -0.7331549 -0.034622565 0.14697306
000040 40 01 94 3c 14 f5 ef 3d d3 38 09 3e 3c 5f 54 3e
       0.018067002 0.11716667 0.13400583 0.20739454
000050 f9 7a 3f be 8f fd 28 be 89 48 20 3e 1e 6f 56 3e
       -0.18699254 -0.16502975 0.1565267 0.20940825
000060 72 5c 60 3e c8 be c7 3c af 8f c6 3e 3a 73 07 bd
       0.21910265 0.024382964 0.38781497 -0.033068873
000070 58 4d 35 bd 85 e7 2b 3e 87 c7 b2 be ca e8 ac 3c
       -0.044263214 0.16787536 -0.34917852 0.021107096
000080 14 b8 79 3e a2 c5 80 3e 7c d5 45 3d eb 20 8b be
       0.24386626 0.25150782 0.048299298 -0.27173552
000090 64 8c 63 3e 89 55 14 be 15 8e 8e be 93 69 06 3e
       0.22221524 -0.14485754 -0.27842775 0.13126211
0000a0 58 5a d7 bd 9b 28 63 3e 39 8b 4d 3d 07 33 ca 3d
       -0.105152786 0.22183459 0.0501816 0.09873014
0000b0 4e b1 3b be 80 48 3e be 9e d9 18 bd 25 75 0a be
       -0.18329355 -0.18582344 -0.03731691 -0.1352125
0000c0 90 e4 0e be 52 42 98 3e c8 83 2d bb 9a 1f 3b bd
       -0.13954377 0.29738098 -0.0026476253 -0.045684434
0000d0 04 5c 40 be 62 08 b9 3d 78 1d a8 be d7 dc 26 3e
       -0.18785101 0.09034802 -0.32834983 0.16295181
0000e0 88 3e 24 3d 63 dd 89 3a f9 71 f1 bd 4c ae e4 bc
       0.040098697 0.0010518249 -0.11789317 -0.027915142
0000f0 98 a4 9f 3d 15 ce 16 3e 5b e7 10 3e a3 43 65 bc
       0.07795066 0.14727052 0.14150755 -0.013993177
000100 be c4 41 3e 32 b7 98 3e b8 54 0c 3e c6 c1 bb 3d
       0.18922707 0.29827267 0.13704193 0.09167819
000110 dc 89 cb 3d 1d 57 12 be 7d 2b ad be 6d 33 a3 3d
       0.09938404 -0.14291044 -0.3382224 0.07968793
000120 c2 0c 40 be 5a 5e be bc 9f 0b 39 bb 95 47 dc bc
       -0.18754867 -0.02323835 -0.0028235686 -0.026889602
000130 a8 f3 d5 bd a6 e8 63 be 47 d5 0f 3c 3b 93 91 be
       -0.10446864 -0.22256717 0.008778877 -0.2843264
000140 ec 34 8b 3d 0e 8a 85 3e 0d 94 4c 3e ae ae 67 be
       0.067972034 0.2608189 0.19978352 -0.22625229
000150 b5 46 8b 3e c1 17 a8 be d4 11 83 3e 28 4b b4 bd
       0.27202383 -0.32830623 0.2559954 -0.088033974
000160 c0 a0 7c be 4f 0f 84 3a ae 1a cf 3c e9 6d 04 bd
       -0.24670696 0.0010075363 0.025281277 -0.03233138
000170 30 7b 08 3d 29 95 e1 bd 84 25 59 be 98 98 0c be
       0.033320606 -0.11014778 -0.21205717 -0.13730085
000180 58 6b 6e bd 60 1a b6 3d 15 35 02 3e cb 93 5b 3e
       -0.05820784 0.088917494 0.12715562 0.21443097
000190 64 9b 6c bd 70 44 81 3e fe 2b 99 3d a3 15 b0 bd
       -0.05776538 0.25247526 0.07479094 -0.08597877
0001a0 e0 6e ef bc 27 c8 ca 3d 7a 7e 9c 3d ac 60 ee bd
       -0.029227674 0.09901457 0.07641311 -0.116395324
0001b0 80 64 39 bd c5 f2 78 be 6c 87 a3 be d7 43 17 3e
       -0.04526186 -0.24311359 -0.31939256 0.14771973
0001c0 20 ad 12 be 72 09 ba bd 9a 31 12 3d 89 30 47 be
       -0.14323854 -0.09083833 0.035691835 -0.19452108
0001d0 6d d3 f3 bc 1b 24 c5 bd 6f 92 97 3d c2 a6 18 3d
       -0.029763902 -0.09626027 0.07400977 0.037268408
0001e0 d8 4a 2b be bd 42 aa 3e 50 a5 9f 3e d9 05 a6 bc
       -0.1672777 0.33254042 0.3118081 -0.02026646
0001f0 42 ab 7c 3e 93 a7 dd 3e b1 b0 88 be f3 8c 11 3d
       0.24674705 0.4329191 -0.26697305 0.03553481
000200 60 73 e5 3d 6f 16 88 bb 07 30 62 be 79 98 51 3a
       0.11203647 -0.004153065 -0.22088633 0.00079954375
000210 3c b1 87 be 58 4f 83 3e 9a 2b 02 3e e4 96 62 3d
       -0.26502407 0.25646472 0.12711945 0.05531968
000220 50 ec 2a bc ed be 9d be a1 a9 d8 3d 11 61 43 bb
       -0.010432318 -0.30809727 0.10579229 -0.0029812495
000230 f7 08 62 3e 62 d7 bd bd 7d 0c d2 3e cb d5 d0 bb
       0.22073732 -0.09269597 0.41025153 -0.0063731424
000240 98 46 1c be e3 54 d7 bd 22 fd 94 3c 9e 3f 6d be
       -0.15261304 -0.10514238 0.01818711 -0.231688
000250 38 0c 5b be c5 fb 6f 3e 03 4f 93 be 6b b5 d9 bb
       -0.2139138 0.23435886 -0.2877122 -0.006643941
000260 2e 3c 02 be a6 9a 89 bb ec a7 0a be 2d 15 fe 3d
       -0.12718269 -0.0041993437 -0.1354062 0.12406383
000270 b4 65 0c be d6 0b cb be 6c 8b f6 bd 36 8e ae 3e
       -0.13710672 -0.39657468 -0.12038311 0.34092873
000280 36 34 7b be 61 cc 01 be 02 7c bc 3d c6 c6 5b be
       -0.24531636 -0.1267562 0.0920334 -0.21462545
000290 2e 21 26 be 68 72 0c 3e 7d df c4 bd 2c 9b 56 be
       -0.16223595 0.13715518 -0.096129395 -0.20957631
0002a0 50 1d ae bc d9 a8 cd 3e 4b 10 77 bb 4f 44 04 be
       -0.021254212 0.40167883 -0.003769892 -0.12916683
0002b0 c8 51 cd bd 6f e5 2f 3d d4 f0 6e 3d ba 6a 98 be
       -0.10025364 0.042943414 0.05833514 -0.29768926
0002c0 20 58 89 bb c1 e8 96 3e a7 89 6d bd 76 54 e0 be
       -0.0041914135 0.29474452 -0.057992604 -0.4381444
0002d0 bc de 0b 3e 7c b4 9a 3e 6f ab 02 be 47 1f 97 bd
       0.13659185 0.30215824 -0.12760709 -0.073790126
0002e0 e0 28 fa 3b 83 ff 8d bd 04 d1 2a 3d 1d 1c 15 3e
       0.007634267 -0.069335006 0.04170324 0.14561506
0002f0 50 fc 9e bd 24 94 43 be 65 51 76 bb 02 97 05 3e
       -0.077629685 -0.1909948 -0.0037585136 0.13045886
000300 f8 25 7a bd 79 a5 7a be c2 96 ae 3e c5 ae ce be
       -0.061071366 -0.24477185 0.34099394 -0.40367714
000310 ba cc 03 3e 44 f3 a1 3e b2 ab bc 3d 39 ca 13 be
       0.12871066 0.3163091 0.09212436 -0.1443261
000320 6e 43 01 be e2 34 f1 3d ea 2c 4c 3d 1f 02 83 3d
       -0.12623379 0.11777665 0.04984752 0.06396889
000330 42 4c 34 3e 3a 3d da 3d b9 e8 52 be 51 f1 bc 3c
       0.17607215 0.10656209 -0.20596589 0.023064287
000340 cc b8 c6 bd 53 32 70 3d ce 84 b1 bd 1e 4f 09 be
       -0.09703216 0.058641743 -0.086679086 -0.13409087
000350 4f cf 26 be 4b 70 90 3b 00 4f 98 3e 25 ad 92 3c
       -0.1629002 0.0044079176 0.29747772 0.017904827
000360 c8 9e 12 be 8f 0a 53 be d8 c2 e5 3c 36 2f 03 bf
       -0.14318383 -0.20609497 0.02804701 -0.51243913
000370 70 bb 73 3d 0c c6 d8 3d 3a 18 9c bd fe 20 97 bc
       0.059504926 0.105846494 -0.07621808 -0.01844835
000380 90 a2 02 bc 07 d3 9b 3e 0a a1 1d 3e a5 4a 0b be
       -0.007973328 0.3043444 0.15393463 -0.13602693
000390 9c 5a b7 3c 65 d1 37 be 3d 10 ea be 9c 5c e3 bd
       0.022382073 -0.17950971 -0.45715514 -0.11101648
0003a0 28 06 50 be 6e c0 32 bd 13 c4 ff bd 27 63 6f 3c
       -0.20314848 -0.043640547 -0.1248857 0.014611042
0003b0 0c 6f 85 bd 02 3e 55 be b4 dc ef bd b7 75 cc be
       -0.06515321 -0.20824435 -0.11712018 -0.3993356
0003c0 ea 25 7b 3e 09 07 20 3e b7 6f 0f be b6 ae 46 be
       0.24526182 0.15627684 -0.1400746 -0.19402584
0003d0 c7 6b 6b be 9d a7 62 be 70 60 c7 3d c5 c2 5d 3d
       -0.22990333 -0.22134252 0.09735191 0.054140825
0003e0 e6 86 72 be d2 9a 05 be 97 dc 91 3d f4 49 20 bf
       -0.23684272 -0.1304734 0.07122152 -0.62612844
0003f0 4c 99 f5 bd 86 46 94 bd 95 5c e8 3c fd 04 db 3d
       -0.1199213 -0.07240014 0.028364459 0.10694311

input_layer.0.bias f4 [320]
000000 cb 58 89 3d 37 4d ec bc cd 6a 33 be 40 06 d5 bc
       0.06706389 -0.028845413 -0.1752121 -0.026003957
000010 26 32 f4 bc f9 b6 83 be 0f c3 a9 3d 72 b9 a7 bc
       -0.029809069 -0.25725535 0.082891576 -0.02047417
000020 ba b8 2a 3e 34 be 83 3d aa 9e 6c 3e 24 97 74 be
       0.1667203 0.06432763 0.231074 -0.2388578
000030 47 1e 39 3e 4e d6 8e 3b 31 3f b7 bd 6b 23 c1 bc
       0.18077956 0.004359043 -0.089476 -0.023576459
000040 03 87 d9 bc c3 27 87 3b 56 1a 82 3e 8e 6f 37 3e
       -0.026553636 0.004124613 0.25410718 0.17913648
000050 ac 2b ee 3d f2 50 48 3e cf f3 75 bc 2f 01 fd 3c
       0.116294235 0.19562128 -0.015011742 0.030884353
000060 3c 8f 82 bd ba 0a 00 be 52 34 6d be 1b 5c d8 3d
       -0.06374976 -0.12504092 -0.2316449 0.10564443
000070 76 ba 73 bd e7 e6 6a 3e 76 43 05 be ca c7 69 be
       -0.059503995 0.22939645 -0.13014016 -0.2283012
000080 5c 24 3f bc 24 2d ad 3d 66 97 78 be b9 d4 62 3e
       -0.011666384 0.084558755 -0.24276504 0.2215146
000090 20 6e be 3c a7 bb e3 3d 37 39 d9 bd 97 0b 2a 3e
       0.023245871 0.11119776 -0.10606616 0.16605984
0000a0 ee 90 36 bd b7 a4 0b bd 51 da c2 bd 25 4c e9 3d
       -0.04457181 -0.03409263 -0.09514297 0.113914765
0000b0 cd 26 60 be 21 44 46 3e 8b 98 83 bd 47 34 93 3b
       -0.21889801 0.19361927 -0.0642558 0.004492316
0000c0 5a a9 c7 3c 21 46 62 be ea 30 87 3d 21 b9 01 be
       0.024372745 -0.22097065 0.066011265 -0.12668277
0000d0 1a 9c 39 bb 3c d1 e8 3d d9 19 75 3e ea a4 3b 3d
       -0.0028321804 0.11368033 0.23935641 0.04581157
0000e0 8d 2c 0e bd 85 48 1d be 38 48 e1 3d cf 62 c2 3c
       -0.034710456 -0.15359695 0.11000103 0.023728756
0000f0 6f 2d 65 be 86 40 25 be 5d 5d ea bc 0e c5 13 be
       -0.22380613 -0.16137895 -0.028608972 -0.14430639
000100 6b f0 41 be 53 2f a7 bd 1d 8d bf bc c0 f3 0b 3e
       -0.18939368 -0.08163323 -0.023382718 0.13667202
000110 4f 4d 55 3e 9e b9 57 be df 78 72 be 8c 02 37 bd
       0.20830272 -0.21066901 -0.23678921 -0.044680163
000120 a1 70 5e be 63 65 7a be bf 33 16 3e 73 c3 5b be
       -0.21722652 -0.24452738 0.14668177 -0.21461277
000130 1c 9b 2e be 07 bd 43 be 3b b3 1d 3e 5e a3 66 3e
       -0.17051357 -0.19115077 0.15400402 0.22523257
000140 c7 e5 a7 3c 75 e7 68 be cb ae 62 3e b7 5f 09 3e
       0.020495309 -0.22744544 0.2213699 0.13415419
000150 04 34 27 3e 70 f9 da bd ae 30 20 be 7c d1 71 3d
       0.16328436 -0.10692108 -0.1564357 0.05903767
000160 fe 59 0f be 27 6c 42 bc ac d1 32 bd 6f 9f e0 3d
       -0.13999173 -0.011866606 -0.04365699 0.109679095
000170 72 85 60 ba 06 23 54 3e d5 7b fb bc 33 ea 30 3c
       -0.0008564807 0.20716485 -0.030698696 0.010798025
000180 61 3e 2a 3e 9e b1 e0 bd fc 5c 25 bd 82 a7 a2 3c
       0.16625358 -0.10971378 -0.04037188 0.019855265
000190 9e e1 5f be 93 80 b8 3d 6c c8 6f be 05 38 52 3e
       -0.2186341 0.090088986 -0.23416299 0.20529182
0001a0 c6 4a 3f 3e f5 a2 27 be 70 1f a2 3d 70 a4 3f 3d
       0.18680868 -0.16370757 0.079161525 0.04678768
0001b0 ba a8 09 3e ce 4a 40 3d 42 bf 80 be 70 9c 58 3e
       0.1344327 0.04694634 -0.25145918 0.21153426
0001c0 de 51 58 3c 03 15 c9 3d db e9 b8 3d 61 fe 70 3e
       0.013203112 0.09818461 0.090289794 0.23534538
0001d0 48 44 89 bd 9c 1a 62 3d f9 8f 1d be 4b e9 b2 3d
       -0.06702477 0.055201158 -0.15386952 0.08735903
0001e0 a9 75 86 be b3 f9 17 3e ee 58 e1 bd 66 ee 3e 3e
       -0.26261643 0.14841346 -0.1100329 0.1864563
0001f0 ca ed 15 3e fb a9 5e bd b9 e7 d7 bd 7c aa 81 bd
       0.1464149 -0.054361325 -0.105422445 -0.063313454
000200 85 0a 76 3e 9b 50 99 3d df f5 8a bd c5 a1 a9 bd
       0.2402745 0.074860774 -0.067851774 -0.08282808
000210 08 ad ad 3d 08 95 f9 3d 6f bc fa 3d 61 d7 a1 bd
       0.08480269 0.121866286 0.12242972 -0.079024084
000220 0d c3 e7 bd 9a b3 0c 3d 13 c9 85 bd 6d fa 4c bd
       -0.113165 0.03435097 -0.065324925 -0.050043512
000230 2c fe 39 3e f4 5b 3e be b4 2e 54 bb 8d ef 15 3d
       0.18163365 -0.18589765 -0.003237647 0.036605407
000240 ab d9 f2 bd 32 f1 dd 3d ef bc 88 3d 59 1d 3f 3e
       -0.11857923 0.1083702 0.06676661 0.18663539
000250 33 7d 18 be 46 30 1a bd 40 0a 26 3e 9f 01 6d 3e
       -0.1489151 -0.037643693 0.16214848 0.2314515
000260 3a f9 53 be 79 40 a0 3d 2b f4 0a be 02 5a 43 3e
       -0.20700541 0.07824797 -0.13569705 0.19077304
000270 ed ec 05 be fd 56 22 be 97 4c a6 bd 6d c6 c3 bd
       -0.13078661 -0.15853496 -0.08120077 -0.09559331
000280 7f 2e 9f bc 5e fc c4 bc 6d 1b 08 be 88 86 d5 3d
       -0.01943135 -0.02404612 -0.13291712 0.104260504
000290 84 4f c6 3b f7 cd 3d 3c 4e d6 b9 3d 7e 4c 00 3e
       0.0060519595 0.01158475 0.090740785 0.1252918
0002a0 3d c1 59 bd 6a 0d be bb cd 58 a3 bc 3b 85 07 bd
       -0.053162802 -0.005799939 -0.019939804 -0.033086043
0002b0 f1 6a 5d 3e 92 9f 38 3e d5 dd 5e be 05 17 16 bd
       0.21622826 0.18029621 -0.2176431 -0.036643047
0002c0 15 c1 0f 3d 8f 57 cb bc 23 5a d0 bd 5e b9 c9 3c
       0.035096247 -0.024822025 -0.10173442 0.024624523
0002d0 6b 75 c5 bc c0 a6 b2 bd a9 2d ba 3d 82 0a 77 3e
       -0.02410384 -0.08723211 0.0909074 0.24125102
0002e0 46 c0 73 3e 12 da 65 3e a2 55 b0 bd 9c e5 31 38
       0.23803815 0.22446468 -0.08610083 4.241393e-05
0002f0 f9 67 e3 bd c2 8d 4b 3c 64 61 34 3d 4d 3f 0a 3e
       -0.111038156 0.012423934 0.04403819 0.1350071
000300 e0 cc bd 3d d4 67 cb 3c 9c 83 c2 3c 51 e1 fe bd
       0.092675924 0.024829783 0.023744397 -0.124453194
000310 40 f5 2b 3e 9a d2 22 bd 91 d3 35 3e ba 9e 3d 3e
       0.16792774 -0.039751627 0.17756487 0.1851758
000320 57 90 42 be ed 85 26 be 2a 64 6d 3e 6b b4 3b 3e
       -0.19000374 -0.16262026 0.23182741 0.18330543
000330 71 75 02 be 86 d6 25 3e db 53 55 be 6c 89 7e 3d
       -0.12740113 0.16195115 -0.2083277 0.062142774
000340 09 0a 48 be b6 e7 e8 bd c8 83 bd bd 40 9c 2b 3e
       -0.19535078 -0.1137232 -0.09253651 0.16758823
000350 34 87 8b 3d 82 0c 66 be 48 b5 38 3d cb f0 ed bd
       0.06812897 -0.22465709 0.04509476 -0.11618193
000360 a9 4e 9b 3c df 3d 27 bd 29 ad 27 3e bb 5a b9 bd
       0.018958407 -0.04083049 0.16374649 -0.090505086
000370 6a 9d 6a 3e 7f ff 8a 3d 67 c5 c8 bd 6a fd be bd
       0.22911611 0.06787013 -0.098032765 -0.09325679
000380 63 b1 c9 39 48 c4 4c bd 74 27 21 be e2 84 81 bd
       0.0003846987 -0.049991876 -0.15737706 -0.063241735
000390 41 97 b1 3d 7e 69 73 3e 63 15 11 be b7 d5 2f be
       0.086714275 0.23770711 -0.14168315 -0.1717137
0003a0 fe 6b 6d 3e 27 e1 e6 bd a4 b6 57 be fe 1f a5 bd
       0.23185727 -0.11273413 -0.21065766 -0.08062743
0003b0 3a c1 1a 3e 51 fa 26 3e 6c c8 bd 3d b2 d9 28 3e
       0.15112773 0.16306426 0.09266743 0.16489294
0003c0 ea 1e 41 be 78 ac 81 3e 17 de 3a 3e 1e e3 ea bc
       -0.18859449 0.25326896 0.18248783 -0.028672751
0003d0 c3 68 5d be 45 02 ca bd 73 81 20 be b5 43 78 be
       -0.21621995 -0.09863714 -0.15674381 -0.24244578
0003e0 28 05 71 3d 73 cf b9 3d 5e d9 4f 3e b4 7d 1f 3e
       0.058842808 0.09072771 0.20297763 0.15575296
0003f0 a6 02 16 3d 42 45 76 bd ca 06 ad bc 9d f0 08 3e
       0.03662362 -0.060124643 -0.021121401 0.13373037

input_layer.1.weight f4 [320]
000000 05 5f 13 3f d5 63 51 3f d0 37 55 3f 4f 5a 87 3f
       0.57566863 0.81792957 0.8328829 1.0574435
000010 4e 76 47 3f c5 17 72 3f a9 44 31 3f 1e 3e 71 3f
       0.77914894 0.9456752 0.6924539 0.9423541
000020 5c ae 62 3f 65 cc 48 3f 82 dc 69 3f 4a 23 74 3f
       0.885473 0.7843688 0.91352093 0.95366347
000030 75 94 80 3f 38 01 72 3f b3 b2 1d 3f 8e 65 5b 3f
       1.0045305 0.9453311 0.616008 0.85701835
000040 a6 e9 58 3f 07 71 73 3f 16 4f 7f 3f ee 47 4d 3f
       0.8473152 0.9509434 0.9973005 0.8018788
000050 5d c7 3d 3f 43 0e 71 3f 49 f1 7b 3f 61 41 63 3f
       0.7413233 0.94162387 0.98415047 0.88771635
000060 99 0b 34 3f 96 d1 47 3f e9 fa 76 3f 7e 0e 58 3f
       0.70330197 0.7805418 0.9647661 0.84397113
000070 9b 71 66 3f 0a 54 21 3f d1 f6 49 3f 8f c5 4d 3f
       0.900171 0.6301886 0.78892237 0.80379575
000080 2f f1 5e 3f 86 f2 7f 3f de 2b 4a 3f 82 1e 5c 3f
       0.87086767 0.99979436 0.78973186 0.8598405
000090 5a 5c 6e 3f 58 b8 52 3f 52 4a 43 3f f8 ee 39 3f
       0.9310967 0.82312536 0.7628528 0.7263026
0000a0 27 f3 77 3f ef f4 46 3f 3c ec 4e 3f 99 e0 4c 3f
       0.96855396 0.7771749 0.80829215 0.8003021
0000b0 a0 ee 6d 3f 22 16 55 3f 03 e5 69 3f 95 f0 3f 3f
       0.9294224 0.83236897 0.9136507 0.74976474
0000c0 2e 6f 6b 3f 0e b7 38 3f ef ae 38 3f 51 07 1a 3f
       0.9196652 0.7215432 0.7214193 0.60167414
0000d0 f0 84 73 3f f5 78 5f 3f a9 21 44 3f d7 70 54 3f
       0.9512472 0.8729394 0.7661386 0.8298468
0000e0 1c d7 61 3f 00 b9 73 3f 91 a2 50 3f 17 49 5d 3f
       0.88218856 0.9520416 0.81498057 0.8643965
0000f0 f3 38 29 3f 2a d5 53 3f f3 87 78 3f 10 d2 50 3f
       0.6610252 0.8274714 0.9708244 0.8157053
000100 9d ac 92 3f aa 0f 4b 3f 0f c9 6e 3f e7 33 76 3f
       1.1458927 0.79320776 0.9327554 0.96172947
000110 51 05 4a 3f ec 09 36 3f 91 80 1a 3f fa 95 41 3f
       0.7891436 0.7110889 0.60352427 0.7561947
000120 04 a4 5b 3f ca 04 3c 3f 9e 5a 51 3f ad 31 62 3f
       0.85797143 0.7344481 0.81778896 0.8835705
000130 14 ba 57 3f a2 47 65 3f 6f 8a 48 3f a8 61 80 3f
       0.8426831 0.8956243 0.7833623 1.0029802
000140 6e 23 72 3f 33 f6 62 3f d0 13 66 3f 5d a7 3e 3f
       0.9458531 0.8865692 0.8987398 0.74474126
000150 ce 1b 25 3f 43 64 47 3f 03 d3 7b 3f 2b e8 52 3f
       0.6449555 0.7788736 0.98368853 0.8238551
000160 d3 df 53 3f 6b 2e 57 3f 69 f1 2e 3f b5 bc 42 3f
       0.82763404 0.84055203 0.6833711 0.76069194
000170 2f c3 68 3f 38 f5 45 3f e2 a4 33 3f 1e c9 81 3f
       0.90922827 0.773273 0.70173466 1.0139501
000180 5f db 1a 3f 08 cb 54 3f 3e 67 7a 3f 2d f0 55 3f
       0.60490984 0.831223 0.97813785 0.83569604
000190 d7 91 4b 3f 91 96 60 3f 1b 76 3e 3f b3 10 30 3f
       0.7951941 0.87729746 0.74398965 0.6877548
0001a0 e7 66 71 3f 90 30 5a 3f 58 cd 4b 3f 57 3d 2d 3f
       0.9429764 0.8523035 0.79610205 0.6767172
0001b0 a0 d2 61 3f 67 a4 4c 3f 55 ca 49 3f 14 c8 6a 3f
       0.88212013 0.7993836 0.7882436 0.91711545
0001c0 5a a3 74 3f e9 2f 49 3f 67 f2 49 3f e0 da 76 3f
       0.95561755 0.7858873 0.788855 0.96427727
0001d0 a5 2f 3a 3f ff 74 2b 3f bd 7a 95 3f 16 0a 70 3f
       0.7272895 0.66975397 1.1678082 0.9376539
0001e0 c7 1d 60 3f 4a 15 30 3f bf 0b 68 3f d4 5d 62 3f
       0.87545437 0.68782485 0.90642923 0.8842442
0001f0 25 df 49 3f b9 c2 20 3f 5e 15 63 3f 3d e7 76 3f
       0.78856117 0.62797123 0.8870448 0.9644659
000200 86 5d 39 3f 0a c9 25 3f ad d0 50 3f 1e 24 4f 3f
       0.7240833 0.64759886 0.81568414 0.80914485
000210 6b 59 5d 3f 3d 66 7a 3f ee 17 22 3f 83 42 0b 3f
       0.86464566 0.97812253 0.63317764 0.54398364
000220 66 84 87 3f b1 3c 62 3f 54 0c 4d 3f 90 d8 79 3f
       1.058728 0.8837386 0.80096936 0.97596073
000230 97 d1 4f 3f 0c 26 64 3f fe 13 3d 3f 66 1f 83 3f
       0.81179184 0.89120555 0.7385863 1.0243957
000240 6e cf 17 3f a8 03 5d 3f 95 40 68 3f 92 96 1f 3f
       0.5930089 0.86333704 0.90723544 0.6233913
000250 f3 78 50 3f 5a d7 7f 3f 1b 3d 43 3f e9 41 66 3f
       0.81434554 0.99937975 0.76265115 0.8994432
000260 b4 0c 69 3f 65 a5 6c 3f 46 b2 4f 3f fc e8 1d 3f
       0.9103501 0.9243987 0.811314 0.6168363
000270 13 b7 39 3f 6a 56 41 3f 12 45 5d 3f 55 61 31 3f
       0.72544974 0.7552248 0.8643352 0.6928914
000280 3d 48 3b 3f f4 f7 28 3f 6b d9 53 3f d5 d6 45 3f
       0.731571 0.66003346 0.8275363 0.7728093
000290 6d e1 68 3f 03 8e 95 3f 5e d4 31 3f 40 1d 65 3f
       0.9096897 1.1683964 0.6946467 0.89497757
0002a0 ea a6 67 3f 4b ea 82 3f 63 0c 83 3f e9 4f 3e 3f
       0.90489066 1.022775 1.0238155 0.74340683
0002b0 9e 5c 49 3f b9 29 43 3f 47 fd 49 3f 0c 90 3d 3f
       0.7865695 0.7623554 0.78902096 0.74047923
0002c0 8b 64 41 3f ad 4d 31 3f cc 09 4e 3f 19 87 34 3f
       0.7554404 0.6925915 0.804837 0.7051864
0002d0 f1 2d 4f 3f 51 6f 5d 3f b4 c0 8b 3f e7 7a 65 3f
       0.80929476 0.8649798 1.0918183 0.8964066
0002e0 c1 3e 5c 3f aa 41 4d 3f 81 f4 6a 3f bc 1a 68 3f
       0.86033255 0.8017832 0.91779333 0.90665793
0002f0 68 6c 58 3f 1e 1a 34 3f 27 e0 4e 3f c7 28 69 3f
       0.84540415 0.7035235 0.8081078 0.91077846
000300 ca 78 78 3f 1c 6d 47 3f 7e 05 2b 3f 8c 92 42 3f
       0.9705931 0.7790086 0.66805255 0.7600486
000310 ff 17 48 3f 27 b8 50 3f 4a 3e 4d 3f 93 df 7d 3f
       0.78161615 0.81530994 0.8017317 0.9916927
000320 dc 9e 45 3f 0e a0 4a 3f 0e 7d 76 3f 0d 23 48 3f
       0.77195525 0.79150474 0.9628457 0.78178483
000330 08 89 3b 3f 0b fc 4c 3f c7 ea 5a 3f 23 bd 44 3f
       0.7325597 0.8007209 0.8551449 0.768511
000340 2f 68 36 3f 1f 23 36 3f 45 a6 6e 3f 13 ae 4d 3f
       0.7125272 0.7114734 0.9322246 0.8034374
000350 f1 d4 89 3f 73 7f 63 3f 7b cf 6b 3f 8d 1c 48 3f
       1.076811 0.8886635 0.92113465 0.78168565
000360 97 4e 36 3f 77 0a 5f 3f 90 32 55 3f e0 05 6a 3f
       0.7121367 0.87125343 0.8328028 0.91415215
000370 d2 e7 51 3f 6c ed 62 3f 9f 9c 94 3f cb eb 2f 3f
       0.81994355 0.8864353 1.1610297 0.68719167
000380 fc ef 36 3f 91 22 79 3f 73 ab 50 3f b8 82 4f 3f
       0.7145994 0.9731837 0.8151161 0.81058836
000390 8c 77 55 3f 4c ac 71 3f d9 da 78 3f 41 b7 38 3f
       0.8338554 0.9440353 0.97208935 0.72154623
0003a0 6e f3 5b 3f 8d b8 75 3f bf b9 39 3f bb 6b 38 3f
       0.8591832 0.9598473 0.7254905 0.72039384
0003b0 db 19 55 3f 8a 39 7c 3f 3d 12 63 3f 78 48 78 3f
       0.8324258 0.985253 0.88699704 0.9698558
0003c0 8b 7b 65 3f 1c d4 5c 3f 4d 98 7a 3f b4 d3 68 3f
       0.89641637 0.86261153 0.9788864 0.90948033
0003d0 9f ec 60 3f 48 a2 2f 3f 67 88 4a 3f 81 cf 5e 3f
       0.87861055 0.68606997 0.79114383 0.87035376
0003e0 5b 06 63 3f a7 23 89 3f 03 67 61 3f 26 45 74 3f
       0.8868157 1.0714005 0.8804781 0.9541801
0003f0 c6 8f 42 3f 91 53 56 3f d9 72 15 3f 8f 72 63 3f
       0.7600063 0.8372126 0.5837837 0.8884668

input_layer.1.bias f4 [320]
000000 eb 5a 65 be e0 24 72 be 56 50 49 be 39 9c 72 be
       -0.22397964 -0.23646879 -0.19659552 -0.23692407
000010 ad e1 ba be 98 27 cf be 77 c8 5f be e1 57 b1 be
       -0.36500302 -0.40459895 -0.21853815 -0.3463736
000020 54 f0 a2 bd b6 3b 9b be f7 3a bd be b9 56 95 be
       -0.07955995 -0.30318993 -0.3695905 -0.29167727
000030 ad ac 81 be 83 03 a7 be 77 d7 b1 be 41 ac 9b be
       -0.25327054 -0.32619867 -0.347347 -0.30404857
000040 03 48 9e be 4e 3e 88 be 55 53 66 be 44 ef d4 be
       -0.30914316 -0.26610035 -0.22492726 -0.41588795
000050 1e dd e7 be f2 ea ba be 2d e7 8a be 6d 17 b3 be
       -0.45285887 -0.36507374 -0.27129498 -0.3497881
000060 20 81 a3 be 08 64 8e be 86 86 ae be 5e 54 99 be
       -0.31934452 -0.27810693 -0.34087008 -0.2994718
000070 8e 2c 9a be 35 f7 3d be a7 bc 88 be 72 16 af be
       -0.30112118 -0.18551333 -0.2670643 -0.34196812
000080 81 38 84 be eb 6d 04 bf f9 b0 87 be bd af 9e be
       -0.2582436 -0.5173022 -0.26502207 -0.30993453
000090 3d 1e 8e be 0c 84 e1 be d3 5d 32 be 04 59 85 be
       -0.27757445 -0.44046056 -0.17418604 -0.26044476
0000a0 10 ca 91 be 40 df 93 be 4f 32 9e be 21 5b ab be
       -0.28474474 -0.28881264 -0.30897757 -0.33467963
0000b0 c1 76 35 be cd 5e 9c be 7c dd ef be a6 3b e9 bd
       -0.17721082 -0.30541077 -0.46848667 -0.1138833
0000c0 e3 43 ea be 4e f5 b9 be 30 8d 96 be 82 70 ba be
       -0.45754918 -0.36319965 -0.29404593 -0.36413962
0000d0 a6 06 85 be 9c c9 5e be fc f3 07 be d9 9d 05 bf
       -0.25981635 -0.21756595 -0.13276666 -0.5219398
0000e0 f6 b9 b4 be 64 2c ad be df 9c 83 be 7b 47 a5 be
       -0.35298127 -0.3382293 -0.2570562 -0.32281098
0000f0 9d f6 8a be 36 ee 6f be 84 8d 81 be 4c cb a7 be
       -0.27141276 -0.23430714 -0.2530328 -0.3277229
000100 b3 c6 c3 be 1d 1c 77 be 35 9a c6 be 86 30 9f be
       -0.38237533 -0.24131818 -0.38789526 -0.31091708
000110 8e 1c 95 be 5c d3 71 be fb 4b 5e be 46 a4 a5 be
       -0.29123348 -0.23615783 -0.21708672 -0.32351893
000120 08 02 ed be d8 12 90 be b5 ae 9c be ae c3 8f be
       -0.46290612 -0.28139377 -0.3060204 -0.2807898
000130 39 2b 77 be f2 35 ad be 8e b0 81 be 93 ae a9 be
       -0.24137582 -0.3383022 -0.25330013 -0.33141002
000140 5a a1 cc be ac 1c b1 be d7 b7 21 bd b4 2d 58 be
       -0.3996685 -0.34592187 -0.039481964 -0.21111184
000150 89 3b 80 be e0 27 c9 be 11 88 46 be 84 31 8e be
       -0.25045422 -0.39288235 -0.19387843 -0.27772152
000160 03 1b a5 be 1f 90 a1 be 2b 46 9a be dd 84 bc be
       -0.3224717 -0.31555268 -0.3013166 -0.36820117
000170 1f 01 38 be ef 7e ab be c0 42 ba be 1d 81 92 be
       -0.17969178 -0.3349528 -0.3637905 -0.2861413
000180 62 3b b5 be c9 b1 da be 95 48 01 be bf af ba be
       -0.35396868 -0.42713764 -0.12625344 -0.3646221
000190 79 38 6a be 80 c9 1c be 09 6a 66 be 41 54 fd bd
       -0.22873105 -0.15311241 -0.22501387 -0.12369586
0001a0 54 ef 66 be 3e f6 ab be b5 b9 c3 be fb 58 c8 be
       -0.22552234 -0.33586305 -0.3822762 -0.39130387
0001b0 9d 51 d0 be c5 df 3f be 78 53 6d be 0a 97 64 be
       -0.40687266 -0.18737705 -0.23176372 -0.22323242
0001c0 2d 32 8b be 4a 43 a5 be 45 d3 94 be 22 f0 a9 be
       -0.2718672 -0.322779 -0.29067436 -0.3319102
0001d0 cb 1d a1 be 26 2c bf be e9 0b b3 be bb e0 25 be
       -0.31468043 -0.3733837 -0.34970024 -0.16199009
0001e0 a2 79 7c be 62 43 73 be e1 c2 74 be aa 75 9e be
       -0.24655774 -0.23756173 -0.23902465 -0.30949146
0001f0 47 0d b2 be a6 55 be be 66 1e c0 be 7c e8 d0 be
       -0.34775755 -0.3717472 -0.37523192 -0.40802372
000200 b4 02 75 be e7 0a 40 be e6 6c a5 be 19 86 39 be
       -0.23926812 -0.18754159 -0.32309645 -0.1811756
000210 d3 9c 12 be b5 bf 8b be 49 be 5b be 3d d7 4e be
       -0.14317636 -0.27294698 -0.21459307 -0.20199294
000220 50 4e a6 be 02 5f 7e be 5c 7e c1 be 69 00 a6 be
       -0.32481623 -0.2484093 -0.37791717 -0.32422188
000230 cf 86 a6 be 37 0d b8 be 6b 7d a1 be 35 c8 b3 be
       -0.32524726 -0.35947582 -0.31541 -0.35113683
000240 66 df 66 be cf 36 b3 be 1a 05 df be 96 4d 7b be
       -0.22546157 -0.35002753 -0.4355858 -0.24541315
000250 03 44 69 be 89 bc d0 be c4 a2 5e be be 1c 9b be
       -0.2277985 -0.4076884 -0.21741778 -0.30295366
000260 99 61 d0 be 8b dd a6 be 66 06 bf be 95 98 ed bd
       -0.4069946 -0.325909 -0.3730957 -0.11601368
000270 c7 1d 37 be ee 18 b5 be 77 a4 97 be ae c4 95 be
       -0.17882453 -0.35370582 -0.29617664 -0.29251617
000280 44 ed 25 be b2 2e 9d be e3 67 af be d6 83 e9 be
       -0.16203791 -0.30699688 -0.34258947 -0.45608395
000290 29 2b e7 bd 57 00 cd be 69 a8 88 be 84 e4 90 be
       -0.11287529 -0.40039322 -0.26690987 -0.28299344
0002a0 0a d2 76 be 09 4b a1 be 99 ec dc be 14 13 a8 be
       -0.24103561 -0.3150256 -0.4314926 -0.32827055
0002b0 cb f4 cd bd 09 aa 57 be 16 1a a3 be 06 07 a8 be
       -0.10056456 -0.21060957 -0.3185584 -0.32817858
0002c0 de 36 73 be f9 11 26 be 20 17 c2 be 44 3f 6c be
       -0.23751399 -0.16217794 -0.37908268 -0.23071009
0002d0 d7 28 ac be b2 04 41 be d4 ba 86 be 00 ed 9f be
       -0.33624908 -0.18849447 -0.26314414 -0.31235504
0002e0 be bb cb be e0 7c 8c be f2 a3 54 be 0d 0a 96 be
       -0.39791673 -0.27439022 -0.20765665 -0.29304543
0002f0 2c cc 82 be 69 5d a8 be 23 ae f8 be a6 ca 96 be
       -0.25546396 -0.32883766 -0.48570356 -0.29451483
000300 0a 35 90 be cd 0e 98 be e2 45 c7 be 59 e4 7f be
       -0.28165466 -0.29698792 -0.38920504 -0.24989451
000310 7b f6 6e be 71 42 1f be 4d f3 6c be d8 95 ae be
       -0.23336212 -0.15552689 -0.23139687 -0.34098697
000320 0e 3c f6 bd d4 91 54 be 4d 10 b6 be 73 a1 b9 be
       -0.12023173 -0.20758754 -0.35559312 -0.36255988
000330 22 2a 46 be 54 84 ab be 6f bd 80 be 4e 4c ad be
       -0.1935201 -0.33499396 -0.25144526 -0.33847278
000340 60 2a 97 be d0 56 b6 be f4 b7 80 be 5d 06 df bc
       -0.29524517 -0.35613108 -0.25140345 -0.027224714
000350 cc 9d 9a be 99 7f 96 be 0d 95 be bd b2 b0 75 be
       -0.30198514 -0.29394224 -0.09305773 -0.23993185
000360 b7 18 6c be 0e 82 d8 be e4 81 d4 be b4 48 82 be
       -0.23056303 -0.42286724 -0.4150535 -0.25446093
000370 96 bb 84 be 02 05 8e be da 07 93 be 03 2e 83 be
       -0.25924367 -0.27738196 -0.28716928 -0.25621042
000380 f8 95 0c be eb f5 ad be 33 f7 40 be a7 98 c0 be
       -0.13729084 -0.33976683 -0.18844299 -0.37616464
000390 9c 09 de be 9d 0f 7a be ee 3e 9b be aa 6c bd be
       -0.43366706 -0.24420018 -0.3032145 -0.36996967
0003a0 b0 4e 55 be 2f 0a 68 be 63 93 7f be 4b 9b 23 be
       -0.20830798 -0.22660135 -0.24958567 -0.15977208
0003b0 61 2b 80 be 0f d8 c8 be d9 27 b6 be de ec 93 be
       -0.25033095 -0.3922734 -0.35577276 -0.28891653
0003c0 3d 54 a9 be 36 f6 d2 be cb d1 ca be 12 d8 a7 be
       -0.3307208 -0.4120347 -0.39613184 -0.32782036
0003d0 dc 7c e3 be 7f b3 7b be dd c9 b8 be 01 2e 7c be
       -0.44431198 -0.24580191 -0.3609151 -0.24626924
0003e0 c3 ff 88 be 04 6b a2 be ad 0a c2 be 85 9e a2 be
       -0.2675763 -0.3172227 -0.3789877 -0.31761566
0003f0 19 f8 b8 be f5 cb a2 be 92 1e 30 be 64 51 af be
       -0.36126783 -0.31796232 -0.17199162 -0.34241784

input_layer.1.running_mean f4 [320]
000000 06 93 d8 3d ae 53 5b bc 0e 9e 3b be 73 3b 0f bd
       0.105749175 -0.01338665 -0.18322012 -0.034968805
000010 4f 82 b6 bc 84 67 8f be 55 14 ec 3d 77 67 0b bd
       -0.022278933 -0.28008664 0.115273155 -0.03403422
000020 45 db 25 3e 30 65 c8 3d d7 e8 6c 3e 2d fc 80 be
       0.16196926 0.09784925 0.23135696 -0.25192395
000030 a9 69 31 3e de 3c 66 bc 9a e7 9c bd ac f3 4c bd
       0.17325462 -0.014052598 -0.07661362 -0.05003707
000040 2c fa 02 bd 96 f9 10 bd 04 76 82 3e e9 c9 31 3e
       -0.031976864 -0.035394274 0.25480664 0.17362179
000050 dd ee cd 3d be e9 49 3e dd 4b 7e bc aa 2f b4 3c
       0.10055325 0.19718072 -0.015521017 0.021995384
000060 87 37 9b bd 35 16 0e be aa cd 80 be 2a 04 e1 3d
       -0.075789504 -0.13875659 -0.2515691 0.10987122
000070 5d de a3 bd 78 72 6d 3e 3d de 0b be 9a e2 41 be
       -0.08001397 0.23188198 -0.13658996 -0.18934098
000080 80 5d b8 b8 dc 1e b0 3d ad 60 6d be 7c 4c 56 3e
       -8.7912194e-05 0.08599636 -0.2318141 0.20927614
000090 56 f3 f9 bb 83 d1 11 3e 3f 1e ce bd d9 01 22 3e
       -0.007627885 0.14240079 -0.10064363 0.15821017
0000a0 92 f8 9c bd 62 10 ce bc 70 f2 a1 bd a6 98 cf 3d
       -0.076645985 -0.025154296 -0.079075694 0.10136537
0000b0 8d a7 5e be d6 0d 32 3e 41 66 7e bd 12 96 49 bb
       -0.21743603 0.1738809 -0.062109236 -0.0030759615
0000c0 14 1f f6 3c ea 45 60 be 27 1a 86 3d fc 8a 02 be
       0.030044116 -0.2190167 0.06547957 -0.12748331
0000d0 cb 9f 92 bc 93 90 b9 3d 3c 17 6d 3e b3 95 eb 3c
       -0.01789846 0.090607785 0.23153394 0.028757906
0000e0 fe 10 92 bd 58 6e 23 be 76 d3 e2 3d 4c 21 28 3d
       -0.07132147 -0.15960062 0.11075489 0.04104738
0000f0 ee 31 6e be d3 76 2d be f4 dc 00 bd 59 8c 0d be
       -0.23261234 -0.16939859 -0.031460717 -0.1382307
000100 93 2a 47 be 08 d5 a5 bd 0a 70 47 bd 5b 9e e4 3d
       -0.19449835 -0.08097273 -0.048690833 0.111630164
000110 27 7c 3f 3e ac 6e 60 be f8 67 74 be 81 67 94 bd
       0.18699704 -0.21917218 -0.23867786 -0.07246304
000120 9a db 6d be 4f ac 5e be 26 03 09 3e 12 1c 61 be
       -0.23228303 -0.21745418 0.13380107 -0.21983364
000130 7f 56 23 be de 39 41 be b5 11 d2 3d 96 52 66 3e
       -0.15950964 -0.18869731 0.102572836 0.22492442
000140 77 b7 eb 3c 9c 8c 81 be 8c ef 42 3e e5 da eb 3d
       0.028774006 -0.2530259 0.19036692 0.1151636
000150 55 89 23 3e 2f e4 db bd c6 b7 17 be 87 24 3f 3d
       0.15970357 -0.10736882 -0.14816198 0.046665695
000160 d3 8b 01 be 0c 8d fc bc 70 c5 12 bd c4 a6 c4 3d
       -0.12650995 -0.030828975 -0.035832822 0.096021205
000170 90 54 9e b9 7d 58 6b 3e ee 7a ae bc 25 57 65 bc
       -0.00030199112 0.22982974 -0.021298852 -0.013997828
000180 0d 59 50 3e fc 31 0a be 5f a6 29 bd cf 51 da 3c
       0.2034647 -0.1349563 -0.04141843 0.026650338
000190 e1 3b 6d be a4 7c 95 3d 2f 88 82 be ad 5a 3a 3e
       -0.23167373 0.07299164 -0.25494525 0.18198653
0001a0 ab ee 16 3e d7 c2 f5 bd 4d 61 a0 3d f1 a0 b8 3d
       0.14739482 -0.120000534 0.07831059 0.09015072
0001b0 34 bd fb 3d 52 0c 09 3c 0b e8 88 be f7 1c 35 3e
       0.12291947 0.008364754 -0.26739535 0.1768683
0001c0 b9 5d 72 3c 36 d5 e0 3d 08 86 b9 3d 20 f9 68 3e
       0.014792853 0.10978167 0.090587676 0.22751284
0001d0 7c d3 75 bd ea ef ad 3d e5 5d 3e be eb 64 d0 3d
       -0.06001614 0.084930256 -0.18590505 0.101754986
0001e0 00 ae 83 be 92 fd 25 3e 20 c4 01 be 07 40 2c 3e
       -0.2571869 0.1621001 -0.12672472 0.168213
0001f0 fc f6 40 3e 46 f4 50 bd 52 b3 ea bd 8f 50 d5 bd
       0.18844217 -0.051014207 -0.11459984 -0.10415756
000200 76 8b 55 3e 03 d9 83 3d e5 5b 9d bd 33 46 df bd
       0.20853981 0.06437876 -0.07683543 -0.10902061
000210 a5 a4 c0 3d c5 46 f3 3d 9d e8 0e 3e d2 4f bc bd
       0.094064035 0.118787326 0.13955922 -0.09194912
000220 9e 9e 0b be bd d1 e5 3c 21 92 82 bd 78 fd a7 bd
       -0.13634726 0.028054113 -0.06375528 -0.08202642
000230 6e 98 10 3e 7a 96 53 be f0 82 d4 3b d7 7c e7 3c
       0.14120647 -0.20662871 0.0064853355 0.02825777
000240 05 57 f2 bd b1 95 a2 3d 62 36 b0 3d 18 4f 39 3e
       -0.11833004 0.079387076 0.08604123 0.18096578
000250 55 28 10 be ea 52 7e bd 15 3b e5 3d 14 7c 75 3e
       -0.14077885 -0.06209079 0.1119291 0.23973113
000260 0c ac 6c be 73 77 4a 3d 99 b4 27 be c2 17 42 3e
       -0.23112506 0.049430322 -0.16377486 0.18954375
000270 de db 20 be d9 17 00 be 16 3e b5 bd d5 9b cb bd
       -0.15708873 -0.12509097 -0.088497326 -0.09941832
000280 be 44 8d bb be 63 40 bc 3a a8 0f be 8c 96 a9 3d
       -0.004311173 -0.01174253 -0.14029017 0.08280668
000290 92 40 15 3c 32 c4 a8 bc 16 ed b3 3d e4 e4 c9 3d
       0.009109633 -0.020601366 0.08785455 0.098581105
0002a0 b8 18 91 bd 02 45 bf bc b7 bc a8 bc 46 f0 77 bd
       -0.07084793 -0.023348335 -0.020597799 -0.060531877
0002b0 93 8f 60 3e 16 e7 30 3e b0 98 70 be d2 73 03 bd
       0.21929769 0.17275652 -0.23495746 -0.032092877
0002c0 74 3b 31 bb dc 82 55 bc 9f 0f 6f bd e8 6d 6a 3d
       -0.0027043493 -0.013031688 -0.058364507 0.05723372
0002d0 49 ed 62 bd 35 4c c3 bd fc 6f 2e 3d 51 b8 6f 3e
       -0.055402074 -0.0953602 0.042587265 0.23410155
0002e0 03 e7 71 3e a3 a9 8b 3e b0 b0 b0 bd e9 36 d8 bc
       0.2362328 0.2727786 -0.086274505 -0.02639337
0002f0 a2 db bf bd 5d 95 0b 3d 86 f3 a9 3c 08 6f e7 3d
       -0.093680635 0.03407799 0.020746004 0.113004744
000300 de 00 8e 3d fd 7f e1 3c 31 fe fb 3c db bb d5 bd
       0.06933759 0.02752685 0.030760856 -0.10436221
000310 d5 dc 2c 3e 39 ce 2a bd f4 e3 40 3e 95 00 42 3e
       0.16881116 -0.041700576 0.18836957 0.18945535
000320 c4 d8 5a be df f0 2f be df ce 71 3e 2f 38 21 3e
       -0.21371752 -0.17181729 0.23614071 0.15744089
000330 c6 24 11 be 72 3e 13 3e aa 44 52 be ce ad c4 3c
       -0.14174184 0.1437929 -0.20534006 0.024008658
000340 38 0c 2e be 0c 4e f3 bd 00 61 f3 bd d5 28 31 3e
       -0.16996849 -0.11880121 -0.11883736 0.17300732
000350 b8 65 64 3d c6 98 69 be eb 88 34 3d 33 e2 01 be
       0.05576107 -0.22812185 0.044075888 -0.12683944
000360 d3 05 99 3c a3 46 ee bc 1e 87 fe 3d f9 7a e6 bd
       0.018679535 -0.029086417 0.12428115 -0.11253924
000370 1b d5 50 3e ad 3e 69 3d 1b aa d5 bd 28 b7 84 bd
       0.20393793 0.056944538 -0.10432836 -0.06480247
000380 68 7e 3d bb 81 73 53 bd a3 1f 1e be 63 55 8f bd
       -0.0028914455 -0.051623825 -0.15441756 -0.06998708
000390 64 0d bb 3d ea 95 71 3e a2 dd 0f be 2e d7 2f be
       0.091334134 0.23592344 -0.1404939 -0.17171928
0003a0 19 15 6e 3e d3 33 22 be 5c 0b 7c be 5e 1c c1 bd
       0.23250236 -0.15840082 -0.24613708 -0.09429239
0003b0 2a c4 31 3e 49 e6 1c 3e 9f d0 cf 3d 98 b8 11 3e
       0.17359987 0.15322222 0.10147213 0.14230573
0003c0 4a 64 5e be 54 b4 88 3e 75 6b 24 3e ff b8 1a bd
       -0.21717945 0.2670008 0.16056617 -0.037774082
0003d0 66 b9 78 be c6 71 9d bd 40 7c 18 be 68 f8 7f be
       -0.24289474 -0.07687716 -0.14891148 -0.24997103
0003e0 a9 b0 44 3d a5 aa 88 3d ef 83 5a 3e a7 b3 0a 3e
       0.04802004 0.06673173 0.21339391 0.13545094
0003f0 bb 48 85 3d 82 5c 89 bd 4c 78 e4 bc e4 76 d5 3d
       0.06508013 -0.067070976 -0.027889393 0.10423067

input_layer.1.running_var f4 [320]
000000 f2 35 74 3f cf 48 3d 3f 8f c2 9e 3e be ec ef 3d
       0.95394814 0.7393922 0.3100781 0.11715077
000010 58 15 01 3e 42 a9 84 3e 6f 9d 84 3f aa 6f 23 3e
       0.12605798 0.25910383 1.0360545 0.15960565
000020 1a bf 39 3e 74 52 ac 3e 77 c6 1b 3e 01 dc 2c 3f
       0.18139306 0.33656657 0.15212427 0.675232
000030 29 33 cf 3e 7a 26 7d 3e 17 dc e9 3e 97 a6 be 3e
       0.4046872 0.24721709 0.45675728 0.37236473
000040 3a 13 f4 3d 9c e6 bb 3f ee c3 45 3d cf 36 fc 3d
       0.1191773 1.4679751 0.048282556 0.123151414
000050 52 07 8d 3d 03 6c d6 3d 85 69 6c 3d 04 f3 a9 3d
       0.06886162 0.1046982 0.05771782 0.08298305
000060 c9 ca d9 3e 88 ff 01 3f d8 d5 14 3f 78 90 e1 3e
       0.42537525 0.50780535 0.581388 0.44055533
000070 45 19 24 3e 0b d3 a0 3d 97 13 d0 3d c8 b9 57 3f
       0.16025265 0.07852753 0.101599865 0.84267855
000080 fb 77 2a 3f b6 3e 64 3d e2 2e d8 3e 49 3d bd 3e
       0.66589326 0.05572387 0.4222327 0.3696082
000090 66 4e 01 3f f4 fe f7 3e 89 fc 39 3d c2 d7 4b 3e
       0.5051025 0.484367 0.045406852 0.19906524
0000a0 04 ac 2d 3f 97 b2 00 3f 0b 25 14 3e 1b a2 49 3e
       0.678406 0.50272506 0.14467256 0.19690745
0000b0 e8 fe 92 3d 06 8e 84 3e 37 fe 21 3e 9b 0f 8b 3d
       0.07177526 0.25889605 0.15819632 0.06790086
0000c0 eb 3a 37 3d 39 1f 8d 3e b1 1d 23 3e bf 0c 67 3e
       0.044733923 0.27562883 0.15929295 0.22563456
0000d0 93 78 ef 3d af 05 81 3e 3d 26 af 3d 2d 04 7f 3e
       0.116929196 0.2519965 0.08552215 0.24903937
0000e0 ab 1e 64 3f 45 76 18 3e a2 8e da 3d 67 27 9d 3e
       0.89109296 0.14888866 0.10671736 0.30694124
0000f0 02 29 6d 3e 3b 11 03 3e f6 cc b7 3d 1f f6 13 3e
       0.23160174 0.12799542 0.0897464 0.14449356
000100 56 82 bf 3d b7 1c 02 3d d9 42 b9 3e 86 cd 10 3f
       0.093510315 0.031765666 0.36183813 0.56563604
000110 8c 30 86 3e a8 dc 8b 3e d4 65 5b 3e 26 b8 75 3e
       0.26208913 0.27316785 0.21425563 0.23996028
000120 96 ef 90 3e 25 4c 83 3f 9d 96 b4 3e 10 15 82 3e
       0.2830779 1.0257612 0.3527116 0.25406694
000130 26 01 b8 3e af 2b 80 3d 11 65 bd 3f 89 7c a6 3d
       0.35938376 0.06258332 1.4796468 0.08129222
000140 d1 3f 4b 3e 96 94 a8 3e 30 80 46 3e c1 9f 5d 3f
       0.19848563 0.32925862 0.19384837 0.8657189
000150 02 4d cd 3d c9 3f 2f 3e 97 95 84 3d f3 c7 d0 3e
       0.10024454 0.17114176 0.064738445 0.4077755
000160 3a 99 58 3d 3e 3c 98 3e 13 03 14 3e 54 05 2f 3e
       0.052880503 0.2973346 0.14454298 0.17091876
000170 5b f3 d6 3d 99 15 8e 3f d2 67 43 3e 9b 34 1c 3f
       0.10495635 1.1100341 0.19082573 0.6101777
000180 75 ab 0c 3f a6 59 84 3e 60 66 ff 3d 59 aa 37 3e
       0.5494912 0.25849646 0.12470698 0.17936076
000190 b7 cd 0b 3e bc ba 97 3e 99 4f b0 3e 64 da db 3e
       0.13652693 0.29634655 0.34435728 0.42940056
0001a0 a2 39 bf 3f 48 fb 08 40 9e d5 4f 3e 10 66 84 3f
       1.4939463 2.140337 0.20296332 1.0343647
0001b0 33 41 f8 3d 43 83 d8 3e c3 91 7e 3e 26 58 88 3f
       0.12121811 0.42287645 0.24860291 1.0651901
0001c0 b3 75 0d 3e 5a 4d c5 3e 86 5c 17 3e 93 f8 7b 3e
       0.1381443 0.38535577 0.14781389 0.24606542
0001d0 19 c3 20 3e 24 9d 80 3e 2e 0f 04 3f 83 23 5e 3d
       0.15699424 0.2511989 0.5158566 0.054233085
0001e0 04 75 2b 3d 62 93 1b 3e 69 17 41 3e de 61 0f 3f
       0.04185964 0.15192941 0.18856587 0.5600871
0001f0 3a 24 59 3f 94 9f ba 3e cb 9a 76 3e d4 8f 6f 3f
       0.848209 0.36449873 0.24082486 0.9357884
000200 6f e0 2e 3f 38 0e a5 3e 29 58 22 3e e4 ec b6 3e
       0.6831121 0.3223741 0.15853943 0.35727608
000210 ac 81 8e 3d a9 32 7d 3d 22 02 8b 3e ff a7 b3 3f
       0.06958327 0.06181589 0.27150065 1.4035643
000220 16 da 0a 3f a0 41 f8 3d 2d e6 35 3e 44 47 16 3f
       0.5423902 0.12121892 0.17763586 0.5870249
000230 ef e5 61 3f 4d 60 11 3e 6a 7d 9f 3d 78 ec 8a 3d
       0.88241476 0.14196892 0.07787593 0.06783384
000240 50 37 b8 3d 0a 7a df 3e de 3e e7 3e 46 1e eb 3e
       0.08994925 0.43647796 0.4516515 0.45921534
000250 9f ae da 3d 84 e7 5a 3e 3c a3 48 3f a3 ce 00 3e
       0.106778376 0.21377379 0.78374076 0.12578826
000260 67 fd e5 3e e8 2b ef 3e dc 5c 32 3f e0 9b 48 3e
       0.44919893 0.46713185 0.6967294 0.19590712
000270 e1 59 1d 3f 8e a3 1d 3f e8 34 7f 3d fa 5d fd 3d
       0.6146527 0.6157769 0.062306315 0.1237144
000280 3a 22 41 3f be a5 af 3e 13 bc c2 3d 01 51 1e 3e
       0.7544285 0.3430614 0.095085286 0.15460588
000290 0c b3 c8 3d bd 80 0e 3f 7b e3 4d 3e 94 6b ad 3e
       0.097997755 0.5566519 0.20106308 0.33871138
0002a0 01 ad 20 3e fc 0d 37 3f 7b 51 f2 3d a0 43 d3 3e
       0.15690996 0.71505713 0.118319474 0.4126253
0002b0 3d 08 ee 3d 9e 59 9a 3e 70 c8 90 3e 4c c4 93 3d
       0.11622665 0.30146497 0.28277922 0.07215175
0002c0 97 fd df 3e 99 6a 9d 3d 45 5b eb 3f 01 10 86 3f
       0.4374816 0.076863475 1.8387228 1.0473634
0002d0 e8 34 b0 3e 65 53 5a 3d b1 c7 ce 3f 74 f4 aa 3e
       0.34415364 0.053302187 1.6154691 0.33389628
0002e0 94 b0 b4 3d b6 21 9c 3f c6 ae d1 3d d6 a6 ab 3e
       0.08822742 1.2197788 0.102384135 0.33525723
0002f0 31 6c 00 3f 53 a9 00 3e 0e 3e 72 3e d4 24 8a 3e
       0.50165087 0.12564592 0.23656484 0.26981223
000300 6e b0 29 3f f1 d3 cf 3e fe 4b 83 3e 99 c5 c4 3e
       0.66284835 0.40591386 0.25643915 0.38432005
000310 d8 55 83 3d 10 f7 00 3e 2f cd fa 3d cb d7 17 3e
       0.06412858 0.12594247 0.12246167 0.14828412
000320 f1 0d eb 3d 63 03 3f 3e de ae 69 3e 7f e0 a4 3e
       0.114772685 0.18653636 0.22820613 0.32202527
000330 1f ee 2f 3e 10 a7 f0 3e 4c c9 3e 3d 32 3b 13 3f
       0.1718068 0.4700246 0.04657869 0.575122
000340 ab e8 33 3f 9f 34 18 3e bc fd 81 3e 70 cb 96 3d
       0.702769 0.14863823 0.25388896 0.073630214
000350 e4 75 8c 3e 96 63 ce 3d a2 64 b6 3d 95 e1 9d 3e
       0.27433693 0.10077588 0.08905913 0.30836168
000360 e9 0f 29 3e 82 a8 a4 3e b3 7e fc 3e db 9c 82 3f
       0.16509975 0.3215981 0.49315414 1.0204118
000370 d1 52 c8 3e 97 e2 d0 3d 67 be f8 3d 44 1a 4f 3f
       0.39125684 0.101994686 0.12145691 0.80899453
000380 b6 e7 0c 3e e9 38 12 3e fb 59 b6 3d 52 f0 a2 3e
       0.13760266 0.14279522 0.08903881 0.31823975
000390 88 27 38 3e ca 35 f1 3c e3 2a 37 3d 84 06 d1 3e
       0.1798383 0.029444594 0.044718634 0.40825284
0003a0 f4 c1 bd 3d 44 ba a5 3f bc a4 91 3e 93 8c 86 3e
       0.09265509 1.2947469 0.28445995 0.26279125
0003b0 4a 71 7c 3f 70 1a 07 3e 67 78 86 3d 2b ea 7c 3f
       0.98610365 0.13193679 0.06565934 0.9879481
0003c0 08 d4 72 3e 1f 04 92 3d e4 d5 6d 3e 7b c4 d6 3e
       0.23713696 0.07129692 0.23226124 0.41946778
0003d0 c9 ac 30 3e aa 32 d2 3e 7c 63 e8 3d a0 1c 30 3e
       0.17253412 0.4105428 0.113471 0.1719842
0003e0 6b d7 c3 3d 30 b2 81 3e 73 6e 92 3e a4 cd cf 3e
       0.09562572 0.2533126 0.2859989 0.4058658
0003f0 d3 48 6e 3f c2 d1 07 3f 8c fe 32 3f 27 ad 22 3f
       0.9307987 0.5305444 0.6991966 0.6354546

hidden_layers.0.0.weight f4 [192, 320]
000000 cf df f1 bd 2e a8 45 be 83 68 bd 3d 80 69 10 3e
       -0.11810266 -0.19302437 0.0924845 0.14102745
000010 88 f2 a1 3b 5e d0 1c be e0 9c 4f 3d b2 26 b5 bd
       0.004942242 -0.15313861 0.050686717 -0.08845271
000020 66 ac 49 3c e5 5f 6d 3d aa 64 bd bd 87 67 b5 3d
       0.012309169 0.05795278 -0.09247716 0.08857637
000030 f9 e8 30 bd 3d 2a 0d 3e 7b 1f 98 bc 9f 8c e7 3d
       -0.04319093 0.13785644 -0.018569699 0.11306118
000040 e5 dc 45 3c 07 0c 9e bd 6a 75 79 3e 36 a2 db bb
       0.012076591 -0.07717138 0.24361196 -0.0067026867
000050 8a ff 35 3d 57 69 d1 bd 1c ec a1 3a 8e bd 29 be
       0.044433154 -0.1022517 0.0012353691 -0.16576216
000060 14 75 00 3e 5c 68 c0 bc 99 b9 30 3e 6d e6 9e bd
       0.12544662 -0.023487262 0.172583 -0.07758794
000070 e3 6c 26 be 40 1d f3 ba cf 84 a5 3c cf 2b a5 bd
       -0.16252474 -0.0018548146 0.02020493 -0.080649965
000080 b3 a1 bb bc 29 5d 4e bd c3 59 b0 be f9 3c 6b 3d
       -0.022904253 -0.050381813 -0.34443483 0.057431195
000090 a7 d0 bf bd 81 aa 0b 3d 74 84 3a 3d dc 77 04 be
       -0.09365969 0.034098152 0.045536473 -0.12936348
0000a0 84 09 67 bd 4b b2 c7 bd 00 f7 e7 3d ca 77 bb 3d
       -0.05640556 -0.097508036 0.113264084 0.09153707
0000b0 0f 3a e4 3d 52 80 00 3e cb 40 15 3e 07 5c a5 bd
       0.11143886 0.1254895 0.14575498 -0.080741934
0000c0 d2 71 25 3e 69 cd 76 3d d3 62 87 3d 8a 9a 08 be
       0.161567 0.06025449 0.06610646 -0.13340202
0000d0 b3 7b 25 bd 26 0a 32 bb a2 e3 02 bc 7a 19 e0 bd
       -0.040401172 -0.0027166693 -0.007988842 -0.10942359
0000e0 3a ee f1 3c 85 32 b8 be 13 2f 3a bd 52 13 79 bd
       0.02953254 -0.35976043 -0.04545505 -0.06080944
0000f0 d2 9d a0 3d f3 73 36 be 81 c5 93 3d 85 86 c5 bd
       0.07842602 -0.17817669 0.07215405 -0.09644798
000100 2f fb 58 bd c4 98 db bd 47 36 9d 3d eb f7 bf 3d
       -0.052973922 -0.10722497 0.07676368 0.093734585
000110 a3 1e f5 3d d4 8e ce bb 3f de d3 bc 6d a5 c2 3d
       0.11968734 -0.0063036475 -0.025862811 0.09504209
000120 87 e6 d8 3d 96 ac 46 be 00 77 3b bc 1b 30 33 3e
       0.105908446 -0.19401774 -0.011441946 0.1749882
000130 17 8e 62 bd 4f 7f 93 bd de 9d b4 bd c0 d8 3c bd
       -0.05531129 -0.072020166 -0.08819173 -0.046105146
000140 97 62 0e be 9a e6 6a 3d 94 05 2b be 74 e1 71 3d
       -0.13904797 0.057348825 -0.16701347 0.0590529
000150 19 03 cd 3b 56 6a 60 3e 43 f9 19 be 07 01 df 3d
       0.006256473 0.21915564 -0.15036492 0.10888868
000160 ea d0 70 3d bc 9a e3 39 25 81 7a 3d 64 c0 b6 bc
       0.058792986 0.000434121 0.061158318 -0.022308536
000170 e0 d2 5f 3d f3 05 e7 3c df 48 0e be a9 a3 04 3d
       0.054644465 0.028201079 -0.13894986 0.03238264
000180 2e 4a e1 bd 1b 3b cd bd 2e f7 a5 3d be 21 dd bd
       -0.11000477 -0.10021039 0.081037864 -0.107974514
000190 40 1c 67 be ad b5 70 bc f9 85 fc 3d 60 de 38 bc
       -0.2256937 -0.014691752 0.12330241 -0.011283487
0001a0 5c cc 23 3d 76 c8 97 bd ab a5 6e 3d 3f da 6d bd
       0.039989814 -0.07411282 0.058263462 -0.058069464
0001b0 d9 7b ef 3d 87 74 65 3b 8f 9d 6b be ea 3c b7 3c
       0.11693544 0.0035012083 -0.23009323 0.022367913
0001c0 93 5a 49 be b7 5b 4b be bd 55 be bd 0b 11 10 3d
       -0.19663458 -0.19859205 -0.09293697 0.035172503
0001d0 c8 62 fa 3d 77 72 ae 3d cc 0b 16 be 46 5c 8a 3e
       0.12225872 0.08517926 -0.14652938 0.27023524
0001e0 84 8e c9 bd 7a f2 da bc 67 74 3d bd 6a 1c 01 be
       -0.09841636 -0.02672695 -0.046253588 -0.12608495
0001f0 1a 44 52 3d 56 9b a9 3d 93 2e 01 3d 5c 0c a6 3d
       0.051334478 0.08281581 0.031538557 0.08107826
000200 2d f5 97 3d 77 c5 0a 3d 14 7d 36 3e 2b 53 12 3d
       0.074198104 0.033879723 0.17821151 0.035723846
000210 aa ef 04 3e de 2b 39 bd 1e 40 f7 3b c5 84 cd bc
       0.1298205 -0.04520785 0.007545485 -0.025087724
000220 4d 38 98 3c dc ce 01 3e 93 25 de 3d b7 01 21 be
       0.018581534 0.12676567 0.108470105 -0.1572331
000230 e3 14 10 3d 8e 42 d8 3d ad 2e e2 bd 8d 3c 24 3e
       0.03517617 0.10559569 -0.11044059 0.16038723
000240 da 6c 69 3c fd 45 6d 3d 70 54 8e bc b2 eb b5 3d
       0.014247144 0.057928074 -0.017374247 0.08882846
000250 4d 7f 71 3d d9 83 4f 3d 47 69 2b 3d 64 88 23 3d
       0.058959294 0.05066285 0.041848447 0.039924994
000260 2b 02 83 bc 36 cb 05 3c 2c e7 a2 bd 9a 33 0e bd
       -0.015992245 0.008166125 -0.07954249 -0.03471718
000270 c3 e0 ac 3d ef f5 08 3e d7 66 91 bd 2d 8d 4d bd
       0.084413074 0.13375066 -0.07099693 -0.050183464
000280 29 ac 2a bd bd 6c fd 3d 0f ff ce 3d 08 6f ae bc
       -0.04166809 0.12374256 0.10107242 -0.021293178
000290 e7 21 bb 3c 5e 89 9c 3d 6b ea 2e 3e fc 3b f8 3d
       0.022843314 0.07643388 0.17081611 0.12120816
0002a0 a8 6b 2f be ef 9c 9f bd d6 25 cb 3c a0 cb 25 3a
       -0.17130911 -0.077936046 0.024798315 0.0006324593
0002b0 0a 20 8a bd 4e 01 90 bc b6 95 60 3e 4c 26 a0 bc
       -0.06744392 -0.017578747 0.2193211 -0.019549511
0002c0 90 64 aa 3d 48 33 22 3e e7 e3 aa bd 14 c8 41 be
       0.08319962 0.15839875 -0.0834425 -0.1892398
0002d0 ba b6 c2 3d 94 e7 ce 3d 9b 97 29 bd fb 66 56 3d
       0.095075086 0.10102764 -0.041404348 0.052344304
0002e0 25 71 06 be c9 15 30 3d 69 7c 8e bb 1e f6 10 3e
       -0.13129099 0.042989526 -0.004348327 0.14156386
0002f0 cc 68 b9 3c 1f 7c 94 bc 8c 12 65 3d ed 82 84 bc
       0.022632979 -0.018125592 0.05592589 -0.016175712
000300 22 e2 43 3d 20 0b 00 3d 29 6a b2 39 92 f7 e9 3d
       0.04782308 0.03126061 0.000340299 0.114241734
000310 e0 16 3c bb b0 95 70 be 78 a0 b0 3d 8d 0f 48 3e
       -0.0028700158 -0.23494601 0.08624357 0.19537182
000320 53 7f f3 3d 5b 94 dc 3d fc c0 07 3e 3f 4e f5 bd
       0.118895195 0.10770484 0.13257211 -0.11977815
000330 8f 95 eb bd 27 dc 25 3d b5 39 9a bb d7 bd 15 be
       -0.115031354 0.040493157 -0.0047065862 -0.146232
000340 00 19 4b bd 55 5b 0e 3e 8a ba 0a 3e 95 6e 86 bd
       -0.04958439 0.13902028 0.13547722 -0.065640606
000350 6c dd 8d 3e fc 34 8f bc c7 9e db 3d d9 cd ef bd
       0.27707994 -0.01748132 0.10723644 -0.11709184
000360 ad 22 98 bb 16 00 95 3d 25 dd 78 bc 94 c6 a0 bb
       -0.0046428056 0.07275407 -0.015189444 -0.004906485
000370 b1 df 4b 3a 59 ed 58 be 47 3d 26 be 86 ff 65 bd
       0.0007777168 -0.21184291 -0.16234313 -0.05615189
000380 94 a1 cb 3c b9 90 16 3e d6 26 80 bd cd d6 e2 3d
       0.02485732 0.14703645 -0.06257407 0.11076126
000390 5a 7c 4f bd 39 62 3b bd f5 ea 61 bd 52 8c f7 3c
       -0.0506557 -0.04574797 -0.055155713 0.030218277
0003a0 a6 1e 5b 3d 4e c4 99 3d 3d 49 59 3d dd 6e 64 bd
       0.053496026 0.07508145 0.05304836 -0.05576979
0003b0 25 37 ee bd 64 69 49 3d 31 e6 c0 bc a7 d2 8f 3c
       -0.11631612 0.049172774 -0.023547264 0.017556502
0003c0 5c 78 12 bd b3 7d 8b 3e aa f4 83 3d 2d 83 05 3e
       -0.035759315 0.27244338 0.0644315 0.13038321
0003d0 12 d3 20 be b0 cb d4 3c c6 7a 29 3c b3 1a ae bb
       -0.15705517 0.025976032 0.010344213 -0.0053132414
0003e0 e5 2e d2 3b 39 1d 45 be 24 0a 98 3c 04 bc 02 3d
       0.0064142817 -0.19249429 0.018559523 0.031917587
0003f0 00 84 4f be dc 01 d4 3c 0b 7a 1e 3d 26 2a 88 bd
       -0.20265198 0.025879793 0.038690608 -0.06648664
