models/neural_network.pth (torch, 62953 bytes, 20 tensors)

network.0.weight f4 [128, 16]
000000 8c 71 0c 3e ae 8a 36 be d5 94 01 be 25 83 f6 bd
       0.1371519 -0.1782634 -0.12654431 -0.120367326
000010 63 8c 5f 3e 9b fe 16 bd 14 7d e7 3d 54 fc 58 3e
       0.21830897 -0.036863904 0.11303154 0.21190006
000020 77 b6 4f 3e 50 9b 4f be 71 73 37 3d da 1e 98 3d
       0.20284449 -0.20274091 0.044787828 0.074277595
000030 8c 19 a0 ba 34 dd 1e be 43 89 99 3c 55 d3 e8 3c
       -0.0012214645 -0.1551407 0.01874221 0.028421083
000040 15 28 37 3e 47 ab cc bd 9c e5 26 3e 34 32 e9 bd
       0.17886384 -0.09993606 0.16298527 -0.113865286
000050 02 fd 3a 3e 7c 27 35 be f7 b5 a7 3c b7 1c ce bc
       0.18260577 -0.17690843 0.02047251 -0.025160177
000060 51 8c 9d be 29 a4 20 3e 42 99 d9 3d 01 64 22 3e
       -0.30771115 0.15687622 0.10624935 0.15858461
000070 47 50 f9 bd 24 0c 0b be 96 ef 2e 3e b8 08 17 3c
       -0.12173515 -0.1357885 0.17083582 0.009218387
000080 9d ff 45 bc 51 f6 38 3d 79 8a 6d be dc af 07 3d
       -0.012084869 0.04515678 -0.23197354 0.033126697
000090 a7 29 e8 3c aa da 3b 3e 00 9e 0d be 95 e1 09 3e
       0.028340174 0.18345132 -0.13829803 0.13464959
0000a0 13 18 bb 3b 0b 48 65 3d 95 02 7c 3d b6 bb 8a 3e
       0.005709657 0.05597691 0.0615259 0.27096337
0000b0 70 99 e9 3d a5 15 81 3d ef b9 a5 3e 80 a2 4a ba
       0.11406219 0.063029565 0.3236842 -0.0007729903
0000c0 98 e0 48 be a4 a6 27 be 53 90 11 3e 6c f4 25 3e
       -0.19616926 -0.16372162 0.14215212 0.16206521
0000d0 5a d7 14 3d 47 c4 87 be 54 eb 80 be 90 ab b7 bd
       0.036338188 -0.26516935 -0.2517954 -0.0896827
0000e0 3c 06 83 bc 4a 2b 35 3e 64 8a 20 3e c9 4c 92 3e
       -0.015994184 0.17692295 0.15677792 0.28574207
0000f0 8e c1 d8 3d 44 a0 55 3d ef 76 7c be 19 07 12 3e
       0.105837926 0.052154794 -0.24654745 0.1426052
000100 60 6e 02 be 78 ea 06 be 1e 7d 06 3c 46 bc 39 3d
       -0.12737417 -0.1317538 0.008208541 0.045345567
000110 d1 1e 16 3d 08 3f fb bd e3 94 6c be fc 66 9c bd
       0.036650483 -0.12267882 -0.23103671 -0.0763683
000120 56 f2 22 be 85 e9 fb bd c4 87 49 3d 56 b7 7f 3e
       -0.15912756 -0.123004 0.04920174 0.24972281
000130 51 da 75 3d c2 c7 47 3e 61 7e 6e bd 0c 9b 37 3e
       0.060022656 0.19509795 -0.058225993 0.1793024
000140 d5 63 08 be 5f d3 c6 3c 00 a5 01 3d dc 9f 31 3d
       -0.13319333 0.024270711 0.031651497 0.043365344
000150 34 f6 52 be 52 f8 45 be ce 8c 22 bd c5 b0 64 be
       -0.20601732 -0.19333008 -0.039685063 -0.22333057
000160 52 4f a2 bd 40 d4 7d be b6 91 83 bd f3 33 8a bd
       -0.079252854 -0.24787998 -0.064242765 -0.0674819
000170 ec 9f 47 3e 7a 43 47 3e 63 86 fa 3d 67 cc a7 bd
       0.19494599 0.19459334 0.122326635 -0.081932835
000180 6f 26 f6 3d b5 e0 5b be de 6e 09 bd d8 46 4c be
       0.120190494 -0.21472438 -0.033552997 -0.199489
000190 eb 1f 50 be 6e c2 1c 3d e9 5d 60 3e be 45 6e 3e
       -0.20324676 0.03827136 0.21910824 0.23268792
0001a0 7e f6 de bd 22 98 4b 3c 6c 6f f5 bd 65 80 3a 3d
       -0.108868584 0.012426408 -0.11984143 0.045532603
0001b0 a2 ab 40 3e 7c 0a 02 3e b1 31 40 be 45 c8 7e be
       0.18815473 0.12699312 -0.18768956 -0.24881084
0001c0 38 79 8e 3d 96 b8 2d be 04 68 4e 3e ee 7b 1b 3d
       0.069567144 -0.16964945 0.20156866 0.037959985
0001d0 c0 a6 0c 3e a0 19 52 3e bc c6 02 3e 7c 3a 08 be
       0.13735485 0.20517588 0.12771124 -0.1330356
0001e0 99 fe 02 be 73 87 8f 3d 26 45 fc 3d 57 a6 9c 3d
       -0.12792434 0.07008257 0.123178765 0.07648914
0001f0 d8 dd 25 3e 20 2c 5d 3e 84 77 22 3e c9 21 b7 bd
       0.16197908 0.21598864 0.15865904 -0.08941991
000200 fc d9 7a bd 52 b8 92 3e 1f 52 fa 3d 44 29 9d bd
       -0.061243042 0.2865625 0.122226946 -0.076738864
000210 c3 24 8e bc 1e f1 77 be 68 22 22 3e 93 8c d6 3c
       -0.017351514 -0.24213073 0.15833437 0.026190078
000220 c8 9b cc 3d ca 6a 01 bd 1d 5a 5e 3d 4d 03 fe 3d
       0.099906504 -0.031595983 0.054285157 0.12402973
000230 99 fa 07 3e 55 f7 f3 bc c1 ef 02 bd 12 a9 06 3e
       0.13279189 -0.029781023 -0.03196693 0.13150433
000240 41 c8 aa bd 61 92 2b be 6d a2 c9 3d 82 97 cf bd
       -0.08338977 -0.16755058 0.098454334 -0.1013632
000250 e6 b3 08 be 7d 12 7c be 03 5e 18 3e 74 5b 8e 3d
       -0.13349876 -0.24616428 0.14879613 0.06951037
000260 6f 2c 84 3e 8f fa 65 3e f4 be b3 bd 68 8d f5 3d
       0.2581515 0.22458862 -0.08776656 0.11989862
000270 5f ff a0 bd 73 8c 93 be f8 99 50 3e 26 0a 44 be
       -0.07861208 -0.28818092 0.20371234 -0.19144496
000280 85 49 d9 bc f1 01 1d 3e 05 73 b5 be e2 db 80 3e
       -0.026524315 0.15332772 -0.35439315 0.25167757
000290 d9 03 48 be 58 16 3d 3b 0f cc 29 3e f9 aa 03 3e
       -0.19532718 0.002885243 0.16581748 0.1285819
0002a0 99 c9 4b bd 88 57 1c be bd 3e 88 be 92 a7 4f 3e
       -0.049752805 -0.15267766 -0.26610366 0.20278767
0002b0 30 4c ad 3d 95 b7 73 3e 03 d1 8b 3e e4 84 67 be
       0.08461797 0.238005 0.273079 -0.22609288
0002c0 6e 46 92 3e cc b3 23 be ec b2 4a bd d2 c0 49 3e
       0.2856936 -0.15986556 -0.04948704 0.19702461
0002d0 3d 2c aa 3d 1a 40 10 be f2 7f 71 be 39 c7 10 bd
       0.08309219 -0.14086953 -0.23583964 -0.035346244
0002e0 99 aa bb bd 0c 99 38 3e c0 bf 14 3e cd 67 0c 3d
       -0.09163398 0.18027133 0.14526272 0.03427868
0002f0 0e 95 82 3e 92 87 a5 bd 94 f8 af 3d 23 e5 85 bb
       0.25504345 -0.080824986 0.085923344 -0.004086153
000300 e2 6c 58 3d 71 82 46 3e 98 49 3e 3e 74 ed 28 be
       0.052838214 0.19385697 0.18582761 -0.16496831
000310 f6 d4 40 3e e3 79 16 3e 07 c3 81 3c 91 65 54 be
       0.18831238 0.14694934 0.015840067 -0.2074187
000320 d6 9c b5 bd ff eb 24 3c f7 26 c3 bd 9d 48 bb 3d
       -0.08867805 0.0100660315 -0.09528916 0.09144709
000330 5c 31 95 3d 2a 7c 70 be e9 74 16 bd bf cd b9 bd
       0.07284805 -0.23484865 -0.036732588 -0.09072446
000340 c3 d8 40 3c d4 73 05 3c 44 46 2f bd ed a5 2e be
       0.01177043 0.008145291 -0.04279162 -0.17055483
000350 4f ff 88 3e 1a 52 46 3e 0e 68 70 be d3 ae f4 3d
       0.26757285 0.19367257 -0.23477194 0.119474076
000360 71 03 97 3d 88 44 bf bd 06 98 f6 bd 37 ea 3e be
       0.07373703 -0.09339243 -0.12040715 -0.18644033
000370 9b 24 32 3e c6 83 7a be 5f 8d aa 3c 85 fb 9e 3e
       0.17396776 -0.2446433 0.020819364 0.3105127
000380 fd ef 36 bd 7c cd 26 be f9 71 40 3e 7f d8 30 3e
       -0.044662464 -0.16289324 0.18793477 0.17270087
000390 80 30 30 3e 3a 20 36 be 91 48 88 bc 04 62 a9 3d
       0.17206001 -0.17785731 -0.016636165 0.08270648
0003a0 72 fc fd 3b 82 c7 9a 3d d9 b5 e9 3d b4 0f 64 3c
       0.007751041 0.07557584 0.11411638 0.01391976
0003b0 c1 d2 aa 3c 66 98 0e 3e c0 6e 88 bd df cb 7a 3d
       0.020852448 0.13925323 -0.06661749 0.061229583
0003c0 96 19 80 bd fb d0 53 3d 3e f5 f1 3c 80 ec aa 3d
       -0.0625488 0.05171297 0.029535886 0.0834589
0003d0 1f 72 27 be fb 70 d3 3d 21 7f 60 3e 41 9f 32 bd
       -0.16352127 0.10324284 0.21923496 -0.043608908
0003e0 24 4c d2 3d f7 b4 30 bd d9 84 a0 bd f0 25 6d be
       0.10268429 -0.04314133 -0.07837839 -0.23159003
0003f0 c6 36 c8 bd 69 5a a5 3e 91 99 9e bd 45 db 86 3d
       -0.09776072 0.3229554 -0.07744134 0.06584791

network.0.bias f4 [128]
000000 17 d7 b5 33 d8 7d f7 b5 70 1c ba b5 f1 a1 47 b5
       8.467594e-08 -1.8439559e-06 -1.3866356e-06 -7.436893e-07
000010 93 ec 06 b7 2f 5d 39 36 78 fc e8 35 d7 d2 19 36
       -8.042104e-06 2.7621388e-06 1.7358825e-06 2.2921502e-06
000020 28 4e 3b b5 e2 65 a4 36 32 f7 2e b5 ef e0 d7 b4
       -6.977666e-07 4.8994416e-06 -6.517977e-07 -4.0210531e-07
000030 10 c7 d3 34 fa 01 1a b6 d1 56 d3 b6 fe eb bb b6
       3.944665e-07 -2.2948939e-06 -6.298397e-06 -5.6005074e-06
000040 31 8d 02 35 28 9f 02 b5 4c 65 34 35 04 16 19 35
       4.8634234e-07 -4.8660377e-07 6.720263e-07 5.702898e-07
000050 97 f4 45 b4 85 07 f1 35 22 79 d7 34 ba ae 3d 36
       -1.8436036e-07 1.7958088e-06 4.0135006e-07 2.82649e-06
000060 81 da 05 36 cb bf a8 b5 22 f3 d0 b5 d1 19 c2 36
       1.994573e-06 -1.2572795e-06 -1.5567969e-06 5.784656e-06
000070 43 f6 5a b7 cf 4b d6 35 70 f2 6e 36 f6 80 3b 33
       -1.305115e-05 1.5966306e-06 3.560588e-06 4.365662e-08
000080 24 6c f2 b3 48 77 f0 b6 db 31 5a 35 7c 6a c6 35
       -1.1288674e-07 -7.1664435e-06 8.128388e-07 1.4783141e-06
000090 d6 f0 21 b6 c8 32 5e 35 67 fe 0e 33 9e d3 48 35
       -2.4131054e-06 8.277534e-07 3.329333e-08 7.481375e-07
0000a0 11 84 2f b5 6b bb 56 36 0a 27 03 b6 91 c1 67 37
       -6.538476e-07 3.1997577e-06 -1.9543245e-06 1.3813741e-05
0000b0 81 0e 83 35 35 87 72 b6 2e bb c4 b5 72 50 90 b4
       9.764482e-07 -3.613951e-06 -1.4657614e-06 -2.6880622e-07
0000c0 f7 36 06 b6 08 33 6f 36 46 ce 49 b6 8a 6f 86 b6
       -1.999955e-06 3.564348e-06 -3.00714e-06 -4.006496e-06
0000d0 c7 d8 71 b6 89 73 6c b6 17 c3 1a 36 96 a5 02 b7
       -3.603798e-06 -3.523399e-06 2.3061345e-06 -7.787157e-06
0000e0 8d b6 26 35 a0 3e 04 34 5e 2e 22 35 ab c3 b6 b5
       6.2105465e-07 1.2316241e-07 6.0417176e-07 -1.3617004e-06
0000f0 6d d2 a0 37 95 35 77 b6 c0 95 5a b7 cf ba e1 b6
       1.9171473e-05 -3.6837057e-06 -1.3028679e-05 -6.72727e-06
000100 dd 16 b5 36 d4 0e 97 36 ed 9a 30 b6 de 45 f2 35
       5.396882e-06 4.501877e-06 -2.6316222e-06 1.8050739e-06
000110 99 ec ab 37 2a a5 f9 35 59 5d 0d b6 fa a7 cb 34
       2.0494963e-05 1.8600015e-06 -2.1064973e-06 3.7933916e-07
000120 72 fc 00 b6 70 26 8e b4 68 85 af b2 0a a5 a2 34
       -1.9220429e-06 -2.6477528e-07 -2.0433347e-08 3.0294933e-07
000130 dd 56 59 36 67 a5 64 35 7d da a7 36 8f 69 8f b6
       3.238608e-06 8.517731e-07 5.002423e-06 -4.2740207e-06
000140 c4 9f c6 b4 5a ac 92 b5 88 65 ad b5 9a b9 10 b6
       -3.699662e-07 -1.0928009e-06 -1.2919054e-06 -2.1565706e-06
000150 6c dd 14 b7 9e b9 0b b7 ba 88 8a 36 de cb ef b4
       -8.873041e-06 -8.328263e-06 4.1286376e-06 -4.4665552e-07
000160 03 0d d0 b5 7b c0 f8 b5 3b 9e 26 36 01 93 b0 35
       -1.5500995e-06 -1.8533459e-06 2.482803e-06 1.3155806e-06
000170 6f 4d e2 35 53 fb 7a b5 82 70 03 35 c8 71 64 36
       1.6860848e-06 -9.349798e-07 4.8965023e-07 3.4040877e-06
000180 ad 2a 9e 36 cc ea 17 37 78 32 3f 36 30 25 0d 34
       4.713735e-06 9.054969e-06 2.8490595e-06 1.3145177e-07
000190 b6 8f 1b b6 cc 9b 27 b6 43 fd 94 36 b1 4c ea 37
       -2.318045e-06 -2.4975625e-06 4.4402273e-06 2.7930686e-05
0001a0 01 8d 30 b5 36 72 a0 35 76 99 cf b4 39 f0 f3 b4
       -6.5770297e-07 1.1954169e-06 -3.8668412e-07 -4.5437062e-07
0001b0 a0 9f 40 36 5f 97 51 b5 c7 ba 6e b6 47 82 0e 35
       2.8703143e-06 -7.807884e-07 -3.5573482e-06 5.30887e-07
0001c0 c6 31 44 36 be 8f 4d 36 e6 82 98 31 32 26 74 35
       2.9235248e-06 3.063105e-06 4.4386637e-09 9.0952665e-07
0001d0 1c 0f 5b 35 91 83 63 35 4d a2 99 36 fa ca 4a b6
       8.1605845e-07 8.4755544e-07 4.5786496e-06 -3.0218494e-06
0001e0 47 75 35 35 67 57 d6 b5 db 3e 92 b5 a4 cd e6 b4
       6.7598415e-07 -1.596968e-06 -1.0896141e-06 -4.2990462e-07
0001f0 ed a2 8b b4 1e 8b 02 b5 ed b4 05 37 04 f0 9c 35
       -2.6009312e-07 -4.8631216e-07 7.969543e-06 1.169276e-06

network.1.weight f4 [128]
000000 a0 d5 70 3f 50 ba 74 3f 5b b4 8c 3f 4e 6e 81 3f
       0.94075966 0.9559679 1.099254 1.0111787
000010 89 09 84 3f 1d f8 6a 3f 24 75 75 3f cf 6c 82 3f
       1.031541 0.9178484 0.9588187 1.0189456
000020 78 10 78 3f 03 53 86 3f 2d 6a 84 3f 7b 29 7b 3f
       0.9690013 1.0494083 1.0344902 0.9811017
000030 88 d2 73 3f 54 f9 6d 3f b0 7a 83 3f b4 20 8f 3f
       0.9524312 0.9295857 1.0271816 1.1181855
000040 79 03 81 3f 0f 14 7d 3f 73 26 68 3f 43 54 72 3f
       1.0079185 0.9885873 0.9068367 0.94659823
000050 df 4c 82 3f 11 2d 7a 3f ae 00 82 3f 5e 62 7a 3f
       1.0179709 0.97725016 1.0156457 0.97806346
000060 8b 54 70 3f 7c 8d 7f 3f a5 1b 78 3f 55 58 7c 3f
       0.93879 0.99825263 0.9691718 0.98572284
000070 14 48 7d 3f ef 46 80 3f 04 bb 7f 3f 54 24 77 3f
       0.9893811 1.0021647 0.9989474 0.9653981
000080 f1 98 72 3f 63 bb 86 3f 19 90 76 3f 84 52 7b 3f
       0.9476462 1.0525936 0.96313626 0.98172784
000090 84 d6 78 3f ce 39 83 3f fd 5a 6a 3f a7 30 80 3f
       0.97202325 1.0252016 0.9154509 1.0014848
0000a0 e5 ee 7b 3f c4 ce 73 3f 89 b9 83 3f 91 7c 89 3f
       0.984114 0.95237374 1.0290996 1.074114
0000b0 96 3a 87 3f 37 18 7f 3f 62 d0 80 3f c9 1c 80 3f
       1.0564754 0.99646324 1.0063593 1.0008785
0000c0 20 d6 7d 3f 68 91 78 3f 4a e3 73 3f c6 91 84 3f
       0.99154854 0.9709687 0.9526869 1.0356987
0000d0 29 68 71 3f e5 6b 72 3f 82 ed 67 3f 19 ac 85 3f
       0.9429956 0.94695884 0.90596783 1.0443145
0000e0 a9 c4 6e 3f fe 35 82 3f 2c 63 7d 3f 92 f1 80 3f
       0.9326883 1.0172727 0.9897945 1.0073721
0000f0 7a f9 75 3f 93 b1 71 3f 23 bc 7c 3f ad 48 8c 3f
       0.96083796 0.9441158 0.98724574 1.0959679
000100 a5 04 75 3f d9 6b 71 3f 61 27 7b 3f d8 4e 7b 3f
       0.9571021 0.9430519 0.9810696 0.9816718
000110 bc 5d 77 3f 3e 18 79 3f 19 dd 7e 3f 74 16 76 3f
       0.966274 0.97302616 0.9955612 0.9612801
000120 09 e3 71 3f bf aa 6f 3f b2 39 65 3f eb d8 81 3f
       0.94487053 0.9361991 0.8954116 1.0144323
000130 64 8a 72 3f bb bd 73 3f a6 1b 67 3f 2c c0 76 3f
       0.9474242 0.9521138 0.90276563 0.9638698
000140 8a 3d 70 3f c3 15 79 3f 90 d6 85 3f 29 46 83 3f
       0.938439 0.9729883 1.0456104 1.0255786
000150 82 a2 7e 3f 0a ed 80 3f 99 2b 73 3f 7c 4d 6d 3f
       0.9946672 1.0072339 0.949884 0.92696357
000160 41 ae 70 3f ba 2a 81 3f 04 c6 7c 3f dc 90 73 3f
       0.9401589 1.0091164 0.9873965 0.9514291
000170 40 cb 84 3f 18 d4 75 3f 45 a3 75 3f f8 6a 77 3f
       1.0374527 0.96026754 0.95952255 0.96647596
000180 61 8a 6d 3f f8 c9 86 3f 5d 3a 6e 3f 60 cc 6f 3f
       0.92789274 1.0530386 0.93057805 0.93671227
000190 ae dc 75 3f 15 98 7f 3f 28 21 85 3f a2 02 7a 3f
       0.96039855 0.99841434 1.0400743 0.9766027
0001a0 f8 47 6c 3f 94 db 65 3f 0d d9 77 3f a7 c8 6f 3f
       0.92297316 0.89788175 0.9681557 0.93665546
0001b0 c1 55 7f 3f 05 3b 82 3f ac 50 81 3f b3 7c 6f 3f
       0.99740225 1.0174261 1.0102744 0.9354965
0001c0 2d 3c 82 3f 34 b7 7b 3f 09 64 67 3f b6 26 7c 3f
       1.0174614 0.9832642 0.90387017 0.9849657
0001d0 7c 50 71 3f 3a ed 6e 3f 67 e6 74 3f 34 af 7d 3f
       0.94263434 0.9333073 0.95664066 0.99095464
0001e0 03 a4 7b 3f bf ed 70 3f 1d 6f 7c 3f 3c c4 76 3f
       0.9829714 0.9411277 0.98607045 0.9639318
0001f0 bb 2d 82 3f 8c 04 81 3f 4c b9 81 3f df 88 6c 3f
       1.0170206 1.0079513 1.0134673 0.9239635

network.1.bias f4 [128]
000000 20 65 0c be ee 45 3d bd 86 b8 bd bd c9 fb a3 bd
       -0.13710451 -0.04620927 -0.09263711 -0.080070086
000010 fd d8 96 bb c0 30 f7 bd 84 86 88 bd 64 d5 9c bd
       -0.0046035037 -0.12069845 -0.06666282 -0.076578885
000020 0d 4a b3 bc ce 38 a1 bd 0b 22 79 bd 8b 3a cf bb
       -0.021885896 -0.07872163 -0.06082348 -0.0063241175
000030 c6 38 eb bc fb 68 d0 bd 2a 12 ed bd 37 7c ba bc
       -0.028713595 -0.101762734 -0.1157573 -0.022764308
000040 6c ca 8d bd 2b ef e3 bd 80 51 9b bd 93 86 d9 bd
       -0.069233745 -0.11129602 -0.07583904 -0.10621371
000050 7a 83 a6 bc c3 08 c1 bd 07 f5 98 bd 06 bb 07 be
       -0.020326365 -0.09425499 -0.0746861 -0.13254938
000060 b4 3e c5 bc 1b 4f 00 bc 74 8e b0 bd 94 ac bc bd
       -0.02407775 -0.00783136 -0.08620921 -0.09212604
000070 b4 1c ca bd a0 13 5f bc b9 0e 8f bd ff 86 d1 bc
       -0.09868756 -0.013615519 -0.0698523 -0.025577066
000080 15 48 88 bd e1 2d 25 bd 04 46 d3 bc d7 04 95 bd
       -0.066543736 -0.040326957 -0.025790222 -0.07276314
000090 00 74 e1 bc da fd 74 bd c6 04 c3 bc f4 62 e9 bd
       -0.027521133 -0.059812404 -0.023805987 -0.11395827
0000a0 2b 06 be bd 96 a3 09 bb f5 ac df bd e8 54 9d bd
       -0.0927852 -0.0021002046 -0.10921661 -0.0768221
0000b0 f6 28 6f bd 69 9f e2 bd 37 97 80 bd 70 ee 81 bd
       -0.058388673 -0.11065561 -0.06278842 -0.063443065
0000c0 07 5c aa bd 7e 9b b5 bd f4 7f 0d bc 37 14 05 be
       -0.08318334 -0.088675484 -0.008636463 -0.12995993
0000d0 7c 1e a9 bd 3c d7 67 bd c1 d9 ab bd 0e 5d c2 bd
       -0.082577676 -0.056601748 -0.08391143 -0.09490405
0000e0 ff 62 63 bd 6a 3b 14 be 6c bd 91 bd 74 c4 a1 bd
       -0.055514332 -0.1447579 -0.071162075 -0.078987986
0000f0 6b 5f 24 be 96 4c f2 bd c0 67 85 bc 93 dc 29 bd
       -0.16052024 -0.11831014 -0.016284823 -0.04147012
000100 13 61 bf bd 20 23 fd bd f5 e4 ae bd 5e 2a 7e bd
       -0.09344687 -0.12360215 -0.08539764 -0.062052123
000110 e1 d3 f8 bd c0 4a 17 bd e3 a1 92 bd 5a 8e d4 39
       -0.12149788 -0.03693652 -0.07159784 0.0004054185
000120 25 1e 55 bd e4 9e e3 bd f1 8a dd bd 27 90 73 bc
       -0.0520307 -0.1111429 -0.108175166 -0.014865912
000130 b4 ac 1e be be 13 79 bb c0 8f 7d bd 2f 81 db bd
       -0.15495569 -0.0038006152 -0.06190467 -0.10717999
000140 5c 8f 0f bd 7a c7 ab bd 9d c7 86 bd 97 59 c7 bd
       -0.035048828 -0.083876565 -0.06581042 -0.09733885
000150 b2 89 fd bc fe 1e 3b bd be ed da bd 98 02 62 bc
       -0.030949447 -0.045683853 -0.10689877 -0.013794564
000160 aa 2b 79 bc 1f d0 ea bc 36 28 16 3c 23 a5 b0 bd
       -0.015208164 -0.028663693 0.0091648605 -0.08625247
000170 bc a8 34 bd b4 d4 ac bc 40 46 65 bd aa 75 ab bd
       -0.04410623 -0.021097519 -0.0559752 -0.08372052
000180 ec 36 ba bd 78 d8 b8 bd a4 7a 88 bd ba 6b ae bd
       -0.09092507 -0.09025663 -0.06664017 -0.08516641
000190 53 4f 99 bd a0 81 03 be 6a 14 a2 bd a2 b1 00 be
       -0.07485833 -0.12842417 -0.0791405 -0.12567762
0001a0 d1 b8 48 bd 58 0f ce bd 0f 64 eb bd bb 34 07 bd
       -0.04900438 -0.1006152 -0.11493694 -0.033009272
0001b0 5d f3 8f bd b6 64 3b bd c2 7f 80 bc ee c8 58 bd
       -0.0702884 -0.045750342 -0.01568592 -0.052925996
0001c0 4e f8 81 3c cc 5f 51 bd bb 78 f1 bc e0 a4 73 bd
       0.015865471 -0.05111675 -0.029476514 -0.05948341
0001d0 ea dd 40 bd 35 ef 32 bd 93 7a 70 bd 35 cf a0 bd
       -0.047086634 -0.043685157 -0.058710646 -0.078520216
0001e0 e4 8b 59 39 b1 25 bf bd 4e cd e2 3b 7e ab de bd
       0.00020746846 -0.09333361 0.006921447 -0.10872553
0001f0 cf 5b 43 bd b7 3d 42 bb c3 22 87 bd d2 4c ac bd
       -0.047694977 -0.0029638836 -0.06598427 -0.0841309

network.1.running_mean f4 [128]
000000 47 59 b6 3c c4 4c ef bb f6 bd 75 bb 5c 7a 96 3b
       0.022259368 -0.0073028523 -0.0037497259 0.004592223
000010 61 19 c7 3b 68 55 77 bc 5e c0 82 bb 2b c5 1d bc
       0.0060760234 -0.015096046 -0.003990217 -0.009629528
000020 6c a0 1a 3d 23 31 07 bd 98 a7 c7 bc c0 16 72 3a
       0.037750646 -0.033005845 -0.024371907 0.00092349574
000030 34 e1 e3 3b 7a 0a 0d 3d 24 4a d9 3a fa 1d 88 bb
       0.0069543365 0.03443382 0.0016577882 -0.004153964
000040 61 0e 7c bc c8 3f 87 3c 7c b7 91 bc aa d1 92 3b
       -0.015384288 0.016509905 -0.017787687 0.0044805603
000050 79 19 ac bb cc a9 4d 3d 4e e5 9c bc d2 d9 85 bc
       -0.00525206 0.05021076 -0.01915231 -0.016339216
000060 1d 6c 5b bc 05 6e b2 bc 80 20 6b bc 80 f9 c0 bb
       -0.013392475 -0.021780977 -0.01435101 -0.0058891177
000070 38 cd 9d 3c 84 73 35 3b 10 58 a1 3c 2d 67 e3 bc
       0.019262895 0.002768726 0.019695312 -0.027759159
000080 70 87 64 bc c4 50 ad 3a 06 1a 35 3a 20 ad a3 3b
       -0.013948306 0.0013222923 0.000690848 0.0049950033
000090 b6 91 a1 bb d5 eb 78 bc 13 0f 95 3c 84 ca 0f 3b
       -0.0049307 -0.0151929455 0.018195665 0.0021940777
0000a0 ba 9c 8d 3b f2 f6 f3 bc e4 14 fc 3b c8 99 99 3b
       0.004321662 -0.029780839 0.00769292 0.0046875216
0000b0 92 6f 0b 3c c6 86 29 3c 12 d1 9d 3c 22 25 ed bc
       0.008510487 0.010347074 0.019264732 -0.02894837
0000c0 90 74 55 bc 32 88 44 3c a2 ce 3d 3b 68 93 39 bc
       -0.013028279 0.011995362 0.0028962274 -0.011326648
0000d0 83 7e fe bb b8 87 26 bc 08 45 5c 3c 3b a4 1e bc
       -0.007766546 -0.010164194 0.013444193 -0.00968271
0000e0 02 16 1f bd 55 1b 39 bb 30 7c 98 b9 ca 88 e7 3c
       -0.038839348 -0.002824505 -0.00029084226 0.028263468
0000f0 55 84 0f 3c c6 f0 fa bb 8c ce 4a bc a1 42 a3 bb
       0.008759578 -0.007658097 -0.012378346 -0.004982308
000100 7e 54 91 ba 6e f6 59 3b e0 83 40 ba 9c 5c dd 3b
       -0.0011087803 0.0033258456 -0.00073438697 0.0067554247
000110 76 c4 0c 3d 2e 4e 7c bc d4 1e a6 3a 86 3b 65 bc
       0.034367047 -0.015399499 0.0012673982 -0.013991242
000120 54 5e a5 3b 35 cc a5 3c 58 72 e1 bc 06 34 a4 3b
       0.005046645 0.020238975 -0.027520344 0.0050110845
000130 bc ec 9d bb 60 16 52 3a 23 75 e5 3b 58 7b f1 3c
       -0.0048194807 0.00080141984 0.007002489 0.02947776
000140 90 37 37 bd 48 c2 72 bb 34 6b 72 bc 5f 32 63 ba
       -0.044730723 -0.003704207 -0.014796067 -0.00086668687
000150 68 9a f6 bb e8 3f 4f 3c dc 88 83 3b c9 94 ed bc
       -0.007525731 0.012649514 0.0040141176 -0.02900161
000160 b4 ae 29 3b 4c 89 45 3b b5 9b a4 ba bc 1e b7 3c
       0.0025891485 0.003014165 -0.0012558611 0.022353522
000170 a0 71 4c 3a 34 a7 2a 3d 23 68 c1 bb 86 f5 c7 bc
       0.0007798914 0.041663364 -0.0059023066 -0.024409067
000180 e8 49 c2 bc 18 76 e7 ba fb fd d2 3c 30 49 f0 3c
       -0.023716882 -0.0017659096 0.025755873 0.029331774
000190 ea 23 c1 3b f8 09 5c bc 2a b2 22 3c 1d 99 5f 3c
       0.005894174 -0.013430111 0.009930173 0.013647345
0001a0 77 1d 7c bc 1c f3 4e bd e8 55 9e 3c 59 1f b5 bc
       -0.015387884 -0.050524816 0.019328073 -0.022109674
0001b0 ff 78 25 3c b4 10 a3 bc 67 d3 8a bc 66 e7 ed 3b
       0.0100996485 -0.019905426 -0.016946508 0.007260251
0001c0 44 3f cd 3b 64 b6 8a 3c 4d dc 94 bc e0 aa 1b 3a
       0.0062636454 0.016932674 -0.018171454 0.0005938243
0001d0 d0 c6 b1 3c 47 9d e2 bc 8f f2 79 bc 68 5e 4b bc
       0.021701247 -0.027662886 -0.015255584 -0.012412645
0001e0 66 60 a2 3b d0 41 04 3c df 78 1d bd ba 0f 1b 3c
       0.0049553392 0.008072332 -0.03844535 0.009464199
0001f0 93 b1 a2 3b f5 27 fb bb be d7 57 bc 51 c3 a8 3b
       0.004965016 -0.0076646754 -0.013173996 0.0051502367

network.1.running_var f4 [128]
000000 f5 3c 92 3e 48 08 21 3e 92 b6 9d 3d ef f2 8b 3e
       0.28562132 0.15725815 0.07700838 0.2733378
000010 56 35 1b 3e 63 06 35 3e 72 7b fe 3d ee 77 b5 3d
       0.15157065 0.17678218 0.12425889 0.088607654
000020 80 05 dd 3e 14 1d 60 3e cd 60 72 3e 6b 2b a7 3e
       0.4316826 0.21886092 0.23669739 0.32650313
000030 cb 16 22 3e 7e 2c f2 3e 48 ab 20 3d 0c 5a 02 3d
       0.15829007 0.4729957 0.039225847 0.031824157
000040 9c a3 91 3d 3c 9c 2a 3e 1e 77 52 3f fd 36 9e 3e
       0.07111284 0.16661161 0.8221301 0.30901328
000050 0b 77 a9 3d 85 70 f5 3e 1f d0 97 3e 7e 60 7c 3e
       0.08274659 0.47937408 0.2965097 0.24646184
000060 73 6c 5c 3e c2 9d 14 3e fc ce 80 3e d8 bb a7 3d
       0.21525745 0.14513305 0.25157917 0.08190125
000070 e6 d4 0b 3e 57 e6 ff 3d 03 6a c0 3d e1 ed 8b 3f
       0.13655433 0.12495106 0.0939522 1.093197
000080 1c 13 08 3e 86 92 2d 3d 44 0d 02 3e 30 c4 9f 3d
       0.1328854 0.042376064 0.12700373 0.07801092
000090 cb 7d 14 3e 2f 92 10 3e ba 40 fd 3e 1f d4 92 3d
       0.14501111 0.14118265 0.49463445 0.07169365
0000a0 8e c1 d7 3d 3a 95 19 3f 2c 3c ef 3d 3d d1 50 3d
       0.105349645 0.59993327 0.11681399 0.050980795
0000b0 28 7e f3 3d 13 d5 96 3e 4b 0c 01 3e e9 76 54 3e
       0.11889297 0.29459438 0.12602346 0.20748486
0000c0 6e ae 83 3d 7d f6 07 3e d1 85 aa 3d 8e 19 42 3d
       0.06429754 0.13277622 0.08326305 0.047387652
0000d0 dc fa ce 3d ff cb 28 3e f3 c6 92 3e fb cc cf 3d
       0.101064414 0.16484068 0.2866741 0.10146519
0000e0 60 c4 41 3e 49 e0 71 3d ad e7 05 3e 63 ee 18 3e
       0.18922567 0.059051786 0.13076659 0.14934687
0000f0 85 2f e2 3d 0e 4c 94 3e 55 7b 37 3e 14 c1 a6 3c
       0.1104422 0.28964275 0.17918141 0.020355739
000100 50 69 2e 3e ff 23 20 3e 39 8f 43 3e 01 ab 9f 3d
       0.17032361 0.15638731 0.19097604 0.07796288
000110 bf 15 db 3e 07 f1 b4 3d a3 43 f2 3d 6f e8 89 3e
       0.42790028 0.08835035 0.11829307 0.26935145
000120 ae ad 18 3e 3e 2a cd 3e 92 a8 2c 3f 70 22 a3 3e
       0.14910004 0.4007129 0.6744472 0.3186221
000130 df de 37 3e fc 0e 2b 3e 8a 53 ad 3d c4 64 52 3e
       0.17956112 0.16704935 0.084631994 0.20546252
000140 7a 85 0a 3f 60 4a a1 3d 87 08 2b 3e 20 a0 bd 3d
       0.5410992 0.07875514 0.16702472 0.09259057
000150 83 cb 2d 3e e9 fb 1b 3e 32 8c 27 3e fc 86 ce 3d
       0.16972165 0.15232815 0.16362074 0.1008434
000160 a8 a7 8c 3e f8 8c 25 3e 4d 91 9b 3d c9 d3 15 3e
       0.27471662 0.16167057 0.07596073 0.14631571
000170 ef 63 c5 3d 77 0d 11 3f 0e 7b 00 3e 72 44 6b 3e
       0.096382014 0.5666117 0.12546942 0.22975329
000180 c8 33 d1 3e 4d d8 e5 3d 03 7e 11 3e a1 33 99 3e
       0.40859818 0.11222897 0.14208226 0.29922202
000190 6f 05 d4 3d 85 e5 9f 3d de 05 c2 3d 5f da 3a 3e
       0.10352599 0.07807449 0.09473775 0.18247364
0001a0 99 7d 75 3e c5 38 98 3e 7c e9 38 3e d0 55 ce 3e
       0.23973693 0.29730812 0.18057817 0.40299845
0001b0 d5 22 4e 3d a2 f6 75 3e 82 33 81 3e c0 bd 1c 3f
       0.050326187 0.24019864 0.2523461 0.61227036
0001c0 15 4f b5 3e 3a 6c 08 3e da 27 9c 3e 88 80 ea 3d
       0.35411897 0.13322535 0.30499154 0.11450297
0001d0 0c 4c 1f 3e 97 bc 22 3f 61 3e 12 3e 25 33 26 3e
       0.15556353 0.63569015 0.14281608 0.16230448
0001e0 91 53 cd 3d b1 35 2d 3e 6a b9 c1 3e 05 8c f8 3d
       0.10025705 0.16915013 0.37836772 0.121360816
0001f0 ae d2 4a 3e 00 26 df 3d c9 42 ad 3d 4e 7e 7e 3e
       0.1980693 0.1089592 0.08460004 0.24852869

network.4.weight f4 [64, 128]
000000 d9 5d 9f bc bd 53 a8 3c 82 ca f9 bd c8 b6 d5 3d
       -0.01945393 0.020547742 -0.121968284 0.104352534
000010 bd ab 4e 3d c1 93 86 3d 55 bb 83 bd 8c fe e0 3b
       0.05045675 0.065711506 -0.06432215 0.006866282
000020 7e d1 27 bd 68 a1 07 be 7f 39 eb 3c f4 f8 94 bd
       -0.04097127 -0.13245165 0.02871394 -0.072740465
000030 f7 38 91 bc 18 07 5d bd af d4 af 3d 6f 66 bf 3d
       -0.017727358 -0.053961843 0.08585488 0.093457095
000040 4b 2d 92 3d ce 2c 6e bd ee 95 b9 3d c1 0a a2 3d
       0.07137545 -0.058148198 0.090618 0.079122074
000050 7f 74 03 bd 81 02 08 bd eb a2 d1 bd f6 df d4 bc
       -0.03209352 -0.033205513 -0.10236152 -0.0259857
000060 18 32 52 3d d0 00 3c bd 2d f2 ca bc 25 32 81 bc
       0.051317304 -0.045899212 -0.024773682 -0.015770981
000070 34 64 96 bc 50 6e 91 bd 7d 7f bf 3c 7f 16 a8 3d
       -0.018358327 -0.071011186 0.02337622 0.08207416
000080 14 b3 ac bd fe bf 23 3d bb a0 56 3c 7c 9b 30 bd
       -0.08432594 0.03997802 0.013099845 -0.04311703
000090 9d 80 24 bd c5 b6 5f bd 64 76 3d bd 9f a0 eb 3c
       -0.040161718 -0.054617662 -0.046255484 0.028763114
0000a0 86 37 53 bd bf 0a 11 3a 24 ce 99 3d f4 96 01 be
       -0.051566623 0.00055329123 0.07510021 -0.1265524
0000b0 a8 7d 02 3d f0 82 5e bc 3e 1d 68 bd 37 06 81 3c
       0.031858116 -0.013581023 -0.056668513 0.015750034
0000c0 64 95 8c bd 9b ed 0a 3d 4b aa 84 3d 10 e0 81 bd
       -0.068644315 0.033918004 0.06477793 -0.06341565
0000d0 a5 da 88 bd f3 ae b5 3d 10 76 68 bd f9 06 34 bc
       -0.06682328 0.088712595 -0.05675322 -0.010987991
0000e0 ce 21 88 3b d5 6b 3b bc 8e f6 74 bd 5c bc a3 bd
       0.0041544205 -0.011439283 -0.059805445 -0.07994911
0000f0 3d 4e 96 3d 21 c4 90 3d 39 a6 36 3d 90 32 f5 bd
       0.073391415 0.070686586 0.044592116 -0.11972535
000100 a3 91 58 bd 09 d8 f3 bc b1 e9 b7 bc 41 e2 1c 3d
       -0.052873265 -0.0297661 -0.0224503 0.03830171
000110 3c b5 41 3b 33 bf 24 3d 2b c4 c0 bb 2b b3 e8 3c
       0.0029557487 0.040221404 -0.00588276 0.028405746
000120 ac d3 3b bd d4 82 95 bd ce 56 90 3d 8f 15 ba bc
       -0.045856163 -0.07300344 0.07047807 -0.022715358
000130 fe f0 76 bd 0a 1e 3a 3d 05 29 9d ba 47 ec 15 bd
       -0.06028842 0.045438804 -0.0011990374 -0.036602285
000140 a0 82 12 bd d3 aa fb bc 6c 48 b9 bd e6 a8 7c bd
       -0.035769105 -0.030721104 -0.090470165 -0.06168451
000150 bf 19 09 bc b3 08 a4 bd 54 7a 34 3c a9 f8 cd bc
       -0.008367955 -0.08009472 0.011015493 -0.025142984
000160 5a 19 54 3d a8 80 cb 3d bf 46 f7 3c 8d 19 be bc
       0.05178199 0.099366486 0.030185102 -0.023205543
000170 4c 38 c3 3c 84 b1 44 3d ce e4 9e 3c 7f 4f db bd
       0.023830555 0.048020855 0.019396212 -0.10708522
000180 eb ad 09 bd ab 0e bd 3d b4 2f 4b bd fa 2b 30 bd
       -0.033613127 0.09231313 -0.04960604 -0.04301069
000190 99 70 c4 3c 31 15 8d 3d 6d db 16 3d dc c9 e8 3c
       0.023979472 0.068888076 0.036830354 0.028416567
0001a0 c2 db 6a bb 93 76 27 bc 82 ee 52 3d 76 46 58 bc
       -0.0035836552 -0.010221141 0.05149699 -0.013200393
0001b0 ab 18 3f bd 14 e9 53 3c 0f ff 14 bd 48 e9 89 3d
       -0.046654385 0.012933988 -0.036376055 0.06733948
0001c0 dd d8 48 3d e3 f3 a9 bd fc 05 11 bd e8 e8 1e 3d
       0.049034942 -0.08298471 -0.035406098 0.038796335
0001d0 e7 aa 60 bd 5c 45 40 3d d7 76 8a bd bf a8 d3 bd
       -0.054850485 0.046941146 -0.06760948 -0.1033492
0001e0 4f d6 2c 3d a5 b7 60 3a 2d 07 1f bd 79 be 68 bd
       0.042196568 0.0008572287 -0.038825203 -0.056822274
0001f0 6a e6 30 bd 08 b1 dc 3d da 19 19 3b c9 70 17 bd
       -0.04318849 0.107759535 0.0023361356 -0.036972795
000200 ac 59 3c 3d f5 d1 df bc 63 ed 94 3d 3c 75 13 bc
       0.045983955 -0.027321795 0.072718404 -0.009000119
000210 b9 b3 5c 3d 23 c5 0f 3c 9a 8a 63 3b 1c 81 51 3d
       0.053882334 0.008775028 0.0034720064 0.05114852
000220 10 72 aa bd ef 12 b1 bc 6c 73 f3 bd 85 bd 86 3b
       -0.08322537 -0.021615474 -0.11887249 0.004111948
000230 47 06 8a bd 77 92 ce 3c ae 61 01 3d e8 a0 26 be
       -0.067394786 0.025216324 0.031587295 -0.16272318
000240 78 bd 4f 3d 67 99 da bd 43 47 24 3d e7 41 93 bc
       0.0507178 -0.106737904 0.040107023 -0.01797576
000250 a3 32 71 bd da 38 ac bd 96 f8 03 be 57 c1 ef bc
       -0.05888618 -0.08409281 -0.12887797 -0.029266996
000260 17 1f ce 3a e3 e3 31 bd 87 50 5b bd 6f dc e8 37
       0.0015725818 -0.04343022 -0.053543594 2.7759203e-05
000270 c8 d4 0b 3c 1c a1 0f bb eb 0c ee bd b1 73 a2 bd
       0.008534618 -0.0021916097 -0.11623558 -0.07932223
000280 e7 b6 b3 bc 04 41 ef 3b cd 05 dd bd 6d 61 23 bd
       -0.0219378 0.0073014516 -0.10792122 -0.039887834
000290 d6 fb 8d 3d 84 cf 1c 3d cf 8a dc 3c 20 a6 39 bd
       0.069327995 0.03828384 0.026921658 -0.045324445
0002a0 0e 22 40 bd 9d 88 e5 3c c8 f1 ef bc 03 36 b8 3c
       -0.046907477 0.028019244 -0.029290095 0.022486692
0002b0 28 5f ef bc dc 02 b1 bd 57 4a 8f 3d 56 20 2f bd
       -0.029220179 -0.086431235 0.06996601 -0.042755447
0002c0 43 0c 7e 3d cc 03 9e bc 12 07 1b bc aa 5c af 3d
       0.062023412 -0.01928892 -0.009462135 0.08562596
0002d0 f4 ef ac 3c 88 98 35 3d 6f 10 0e be f9 36 90 bc
       0.021110512 0.04433492 -0.13873456 -0.017604338
0002e0 c8 6d 92 3d 3a 25 ea 3c be 48 87 3d f6 09 29 3e
       0.07149845 0.028582204 0.06605671 0.16507706
0002f0 12 38 00 3d a6 f2 49 3d 8a 46 6f b9 90 a3 bc 3c
       0.031303473 0.049303673 -0.00022819094 0.023027211
000300 3a 81 2e be dd 69 ca 3b 08 1e 14 3c 71 51 f0 3c
       -0.17041484 0.0061771707 0.009040363 0.02933571
000310 d9 e8 76 3b c7 13 95 bc 87 70 82 3d 97 b8 93 bc
       0.003767541 -0.018197907 0.06369119 -0.018032355
000320 50 99 af bd 7e 63 58 3b 77 b0 1c bd 6e b4 ac bd
       -0.08574164 0.0033018286 -0.038254227 -0.08432852
000330 3b d2 3f bd a7 8e b7 bc 1d d3 ec bc 2e 1e 01 3d
       -0.04683135 -0.02240689 -0.02890926 0.031522922
000340 bb 5d 67 3d ad a3 aa 3d 52 7d 28 bd ed 78 2a bd
       0.056485873 0.08332 -0.04113514 -0.04161923
000350 d2 c2 af bd e5 15 87 3d 1e 53 69 bd 2b a8 a1 3d
       -0.08582081 0.06595973 -0.056964032 0.078934036
000360 5b fe 29 bd e1 e7 2e bb cd 17 74 bc d2 4c 5f 3d
       -0.041502338 -0.0026688504 -0.014898253 0.05451662
000370 c5 b4 64 3c a3 6c 02 bd 93 81 d5 3c 64 43 5f 3d
       0.013959114 -0.031841885 0.026062762 0.054507628
000380 1c 9d 8d bd 0f 85 e9 3d c0 d6 db bb 8a 10 0b bc
       -0.06914732 0.11402332 -0.00670895 -0.00848783
000390 3a a5 0d 3d 08 de 9e bb f3 7c 26 3d c8 da fb bd
       0.0345814 -0.0048482455 0.040646505 -0.122975886
0003a0 f9 e2 05 bb 36 c8 9b bd d1 a3 3c 3d 86 99 db 3c
       -0.0020429476 -0.076065466 0.046054665 0.026806604
0003b0 ca a4 04 be 03 c5 0f bc 88 60 ca bb 7e 2b 5c bd
       -0.12953487 -0.008774999 -0.006176058 -0.053752415
0003c0 c8 01 c4 bc c3 6d ef bc a8 10 e0 bd 78 b0 83 3c
       -0.02392663 -0.029227143 -0.10940677 0.016075358
0003d0 27 32 45 3d c3 5a 34 3d e2 69 a9 bc c9 9e fd 3b
       0.048143532 0.04403187 -0.020680372 0.007739876
0003e0 25 60 76 3d 66 9b f8 3a f7 24 2f bc 16 3d 84 3d
       0.060150284 0.0018967211 -0.010689965 0.06456964
0003f0 7b fb 16 3d f7 18 d8 bd ae 47 9b 3d 9c b5 eb bd
       0.036860924 -0.10551637 0.07582031 -0.115092486

network.4.bias f4 [64]
000000 7c a3 d2 b6 5d 71 3f 36 03 30 d7 b4 8f 9b e8 34
       -6.27752e-06 2.8527204e-06 -4.0081804e-07 4.332655e-07
000010 70 98 82 b6 b1 83 c3 b4 c6 6d d6 b6 85 b6 09 35
       -3.892048e-06 -3.6417399e-07 -6.3904763e-06 5.130208e-07
000020 34 31 09 36 31 a9 48 36 90 11 37 36 c0 21 24 b6
       2.044323e-06 2.9900805e-06 2.7279348e-06 -2.445755e-06
000030 2a 50 ec b5 f3 78 97 35 f6 3e d1 35 11 00 57 b6
       -1.7606701e-06 1.1285578e-06 1.5590037e-06 -3.2037535e-06
000040 13 7c 59 36 8d ce 66 b6 57 2f 90 36 0b f9 69 36
       3.240774e-06 -3.43929e-06 4.2970455e-06 3.4864668e-06
000050 ba 19 14 b6 e1 61 67 b5 68 fa 15 b7 3f ca b1 b6
       -2.2068693e-06 -8.619664e-07 -8.939394e-06 -5.2985556e-06
000060 2c 4f e8 35 46 26 b3 36 5a 9a 9c b6 5d 33 97 37
       1.7308389e-06 5.3390713e-06 -4.667131e-06 1.802452e-05
000070 42 25 ed 35 bf 53 b4 b6 ce cd bb b6 c0 1d c8 35
       1.766872e-06 -5.3741674e-06 -5.596993e-06 1.490982e-06
000080 e7 12 9d b6 3a 43 1d b6 b2 cb 12 35 a5 bd fc 36
       -4.681165e-06 -2.3433954e-06 5.4685654e-07 7.5322628e-06
000090 4d aa 15 b5 40 08 bc 36 6e a5 b8 b6 cf 22 83 b6
       -5.5754646e-07 5.603797e-06 -5.502886e-06 -3.9081565e-06
0000a0 41 cf 0c 38 d5 06 65 b7 c6 2c ec 37 ea 5f 12 35
       3.357162e-05 -1.3651054e-05 2.8154242e-05 5.452881e-07
0000b0 06 9b ba 36 83 0f 83 b6 b0 0a 19 36 a0 3f a0 35
       5.561279e-06 -3.90591e-06 2.2804998e-06 1.1939446e-06
0000c0 40 58 07 b2 bc 46 3a b8 60 ac 2e 37 df 66 60 36
       -7.8781e-09 -4.4411732e-05 1.0411342e-05 3.343848e-06
0000d0 8c 2c 70 36 a3 bd ae 36 94 80 3a b5 fe 4b 51 b6
       3.5788717e-06 5.2076807e-06 -6.9477505e-07 -3.118766e-06
0000e0 0c 90 b6 36 01 3c c0 b6 df cd 94 b6 6b 15 80 b5
       5.440792e-06 -5.7290313e-06 -4.4347103e-06 -9.542977e-07
0000f0 57 d4 c0 b7 14 dc 09 36 48 b2 e0 36 e4 52 ba b5
       -2.2987062e-05 2.0542693e-06 6.696475e-06 -1.3882204e-06

network.5.weight f4 [64]
000000 23 65 6d 3f 58 e4 7d 3f ea 15 84 3f de 3f 78 3f
       0.9273245 0.9917655 1.0319188 0.96972454
000010 ea 9e 69 3f 74 e8 68 3f d9 51 7a 3f ad ee 78 3f
       0.9125811 0.90979695 0.9778114 0.9723919
000020 ce f3 76 3f 8e ce 7b 3f 8e e3 81 3f 4e 2b 84 3f
       0.96465766 0.9836205 1.0147569 1.0325716
000030 38 61 7a 3f 09 db 77 3f e0 73 83 3f e7 c8 82 3f
       0.97804594 0.96818596 1.0269737 1.021756
000040 35 16 7f 3f 05 8e 78 3f 22 15 74 3f 87 4a 83 3f
       0.9964326 0.97091705 0.95344746 1.0257119
000050 f0 5d 87 3f ee 61 7c 3f ee 98 81 3f 15 1a 84 3f
       1.0575542 0.9858693 1.0124795 1.032046
000060 a1 12 7d 3f 2b e1 73 3f 75 e6 7b 3f 46 29 6e 3f
       0.9885655 0.95265454 0.98398525 0.9303173
000070 99 eb 76 3f ff 8d 78 3f 45 6e 72 3f 8b 49 7e 3f
       0.96453243 0.9709167 0.9469951 0.9933097
000080 53 5d 7f 3f fd a9 6d 3f 49 64 65 3f 31 33 83 3f
       0.99751776 0.92837507 0.8960615 1.0249997
000090 6e ef 77 3f cf 6a 80 3f 6c bb 74 3f c8 7c 76 3f
       0.96849716 1.0032595 0.95598483 0.9628415
0000a0 ec 20 82 3f 52 ce 83 3f 13 f3 81 3f 28 d8 6a 3f
       1.0166297 1.0297339 1.0152305 0.9173608
0000b0 1f f0 7a 3f c7 e6 79 3f 32 9a 83 3f ce d6 6e 3f
       0.98022646 0.97617763 1.0281432 0.93296516
0000c0 b6 cf 6d 3f ca ab 85 3f d7 e3 78 3f 99 1a 7c 3f
       0.92895067 1.0443051 0.97222656 0.98478085
0000d0 89 df 81 3f 96 aa 89 3f a1 f3 78 3f 7f e3 80 3f
       1.0146343 1.0755184 0.9724675 1.0069426
0000e0 e8 cb 80 3f 43 db 85 3f 1a 7b 81 3f 63 72 6e 3f
       1.0062227 1.0457538 1.0115693 0.9314329
0000f0 32 80 7c 3f e7 75 85 3f c3 62 80 3f 20 83 76 3f
       0.9863311 1.0426606 1.003014 0.9629383

network.5.bias f4 [64]
000000 ce 23 2f bc 55 54 3b 3b 14 cc 08 bd 8b 27 db bc
       -0.010689689 0.0028584201 -0.03339775 -0.026752254
000010 3d 35 e5 bd e1 ab 0f bc ee 4a b3 bd 8b 7e 7d 3b
       -0.11191795 -0.0087690065 -0.08754526 0.0038680162
000020 11 3c d1 bd 1d c9 99 bd a1 ee 38 bd 3e de 0e bc
       -0.10216535 -0.075090624 -0.04514945 -0.008719979
000030 a9 59 c5 bd 24 35 10 be f7 1a 9f bd fd cc 59 bd
       -0.09636242 -0.14082772 -0.07768815 -0.053174008
000040 8e e7 9d 3c 83 18 d2 bd 60 d3 e7 bd d0 1c 47 bd
       0.019275453 -0.102585815 -0.113196135 -0.048611462
000050 a9 31 4a bd 95 a6 a3 3c fd 3d 8b ba bf 0a 9f ba
       -0.049363766 0.019976893 -0.0010623332 -0.001213394
000060 30 1a 4c bd 55 af 1a bd 4b 62 4d 3c d4 f1 4a 3c
       -0.04982966 -0.037764866 0.012535642 0.012386758
000070 9b 28 6d bd 9e 6a 06 be 42 b9 2a bd dd 6e 7e bd
       -0.057900053 -0.13126609 -0.041680582 -0.062117446
000080 8c 5b a2 3b 68 1e 1c 3c d5 79 f8 bc 2b de 0a be
       0.004954761 0.009528734 -0.030331532 -0.13561313
000090 37 db ed bb 96 a9 73 bd c6 bd 42 bd cf 71 d8 bd
       -0.0072587985 -0.0594879 -0.047544263 -0.10568582
0000a0 d2 e9 ef bd 9b a0 3e bc 99 f4 95 bd 7b 74 b3 bd
       -0.117145196 -0.011634971 -0.07322044 -0.08762451
0000b0 9a 85 2d 3b 9f 10 b1 bd e8 3e f8 bd b4 83 38 bd
       0.0026477338 -0.08645748 -0.121213734 -0.045047477
0000c0 90 67 ff 3c bf 5f 85 bd 9e d0 1f be fd 3b a5 bb
       0.031177312 -0.06512403 -0.15606925 -0.0050425516
0000d0 13 50 79 bd ad d1 a6 bd b6 38 a1 bd 02 bf ba 3c
       -0.06086738 -0.08145461 -0.07872145 0.022796158
0000e0 8c 1b 86 bc d0 d7 8b bd ee 4f df bd e8 0c 89 bc
       -0.016370557 -0.06828272 -0.10903917 -0.016729787
0000f0 5d e9 33 bd cc 25 33 bc ef 08 9d bd 42 d7 f6 bc
       -0.043923724 -0.010934304 -0.076677196 -0.03013194

network.5.running_mean f4 [64]
000000 f8 52 ab be 0f f4 c0 be 54 93 97 3d 32 8c 7c bd
       -0.33461738 -0.37686202 0.074011475 -0.06165714
000010 6f d4 3d 3e 3d 09 30 3f c8 24 d5 be f7 c2 83 be
       0.18538068 0.68764096 -0.41629624 -0.25734684
000020 94 7f 4d be f2 9d b8 bd 63 2e 57 be 6c 8a 5c be
       -0.20068198 -0.09014501 -0.21013789 -0.21537179
000030 de 61 73 bf 27 cc 87 bd 3c c7 5f be 74 44 08 3d
       -0.9507121 -0.06630736 -0.21853346 0.033268407
000040 67 99 17 be 99 e8 30 bf e8 d5 32 bb c7 41 40 3e
       -0.14804612 -0.69104916 -0.0027288143 0.18775092
000050 e0 f1 39 bf 32 38 99 bc 2e 36 f4 bd 68 ee 60 bf
       -0.72634697 -0.018703554 -0.119243965 -0.8786378
000060 82 cb db be aa db 35 3f 85 24 ca be 2a a1 fa be
       -0.42928702 0.71038306 -0.39480987 -0.48951083
000070 f3 78 9d 3e 34 38 d7 bd 6d 39 b8 bd 91 78 04 bf
       0.3075634 -0.10508767 -0.08995328 -0.5174647
000080 54 7f 0e bd d6 e9 cc be e2 29 ce be 36 09 87 be
       -0.0347894 -0.40022153 -0.4026633 -0.26374215
000090 32 8f 76 3d fa 6d fc be 11 13 ce be e5 5f 51 3e
       0.060195155 -0.49302655 -0.40248922 0.20446737
0000a0 0a 93 ad be cf 57 fa bd 91 4e 0b 3e 57 83 80 bc
       -0.33901244 -0.122237794 0.1360419 -0.015687628
0000b0 2c cb 13 bf a7 94 ba 3c 9f cd 49 3e ab fc 1d bd
       -0.5773189 0.022775961 0.19707344 -0.03857104
0000c0 79 2d b2 3e 3d a5 de be e0 6a a9 be 53 f9 aa be
       0.34800318 -0.43485442 -0.33089352 -0.33393344
0000d0 97 54 80 bd 9e 49 24 3f 8d 79 78 bf f4 44 1f bf
       -0.06266134 0.6417483 -0.9706047 -0.6221459
0000e0 51 7e 2a bf be c7 02 3e 50 57 0c 3e ae bf f8 3c
       -0.66598994 0.12771508 0.13705182 0.030364837
0000f0 18 25 23 bf ef 7b 97 3e e4 45 cf be 22 45 dd 3b
       -0.63728476 0.2958674 -0.4048301 0.006752626

network.5.running_var f4 [64]
000000 e9 58 a3 3e c3 f3 e0 3e c9 b4 78 3f 5f 38 67 3f
       0.3190377 0.43935975 0.97150856 0.9032039
000010 c0 38 ef 3e ab e2 6d 3f 9d 18 0d 3f f0 42 d7 3e
       0.46722984 0.9292399 0.5511568 0.42043257
000020 57 2c da 3e b4 4a f4 3e de 27 cc 3e f5 ec f8 3e
       0.42611954 0.47713244 0.39874166 0.48618284
000030 12 23 d8 3e d9 4c 0e 3f 28 d0 fe 3e de ec ad 3e
       0.42214257 0.5558601 0.49768186 0.33969778
000040 63 1c cb 3e 32 18 b6 3e 5f 6e 87 3e 8b 1f 01 3f
       0.39670095 0.35565335 0.26451394 0.50438756
000050 c7 eb e2 3e a0 98 72 3f f5 b3 06 3f f9 12 04 3f
       0.4432051 0.9476414 0.5261834 0.5159145
000060 c7 9c d9 3e 2b 0f b4 3e 34 f8 26 3f 3f 72 bd 3e
       0.42502424 0.35167822 0.6522248 0.37001225
000070 e2 a6 f1 3e a0 de 90 3e eb 43 e8 3e 89 5b cd 3e
       0.47197634 0.2829485 0.45364317 0.40108898
000080 49 ea 20 3f ed 9b f6 3e 17 9c 35 3f 15 4f 91 3e
       0.6285749 0.48165837 0.709413 0.28380647
000090 fa d1 f1 3e ac 66 20 3f e6 4f cf 3e 75 3b 1a 3f
       0.47230512 0.62656665 0.40490645 0.60246974
0000a0 84 4c f4 3e 8b 11 f1 3e c1 51 b9 3e d4 08 1e 3f
       0.47714627 0.47083697 0.36195186 0.6173222
0000b0 ec 49 c9 3e 4d 34 fc 3e a6 7a ab 3e cc 40 c7 3e
       0.3931421 0.49258652 0.3349201 0.38916624
0000c0 96 fa 6b 3f 4d bb a1 3e 43 24 8b 3e 93 4d d5 3e
       0.9217924 0.31588212 0.27176103 0.41660747
0000d0 06 9e 02 3f 30 b3 9f 3e 98 cb fe 3e 79 76 24 3f
       0.51022375 0.31191397 0.49764705 0.64243275
0000e0 cb 9b dd 3e 15 10 00 3f a5 92 db 3e 4b 38 dd 3e
       0.43282923 0.5002454 0.42885318 0.4320701
0000f0 51 20 b4 3e 5f 5f b3 3e 7a c6 a7 3e d6 40 b9 3e
       0.35180905 0.350337 0.32768613 0.36182278

network.8.weight f4 [32, 64]
000000 a1 2d b1 bd 67 28 e1 bc 09 e3 1e bb be a8 84 3d
       -0.08651281 -0.027485086 -0.002424421 0.064774975
000010 4f 40 ab 3d 71 eb 50 3d 8e 2e 2d 3c b6 fc 49 be
       0.08361875 0.051005784 0.0105701815 -0.19725308
000020 04 bc e3 3c 1b 88 30 3e 54 cb 4c 3d 0c f1 3a 3d
       0.027799614 0.1723942 0.049998596 0.045640036
000030 ec 1c ca bd 6e 12 ba bb 44 d1 52 3d b0 5b a4 bd
       -0.09868798 -0.0056784665 0.051469103 -0.080253005
000040 c1 53 09 3e f0 6d 97 3c 6e 56 e1 bd 24 e2 47 3b
       0.13410856 0.01848504 -0.11002813 0.003049978
000050 d9 0f 4f 3c 01 a4 02 3e de 4a 9c 3c d2 7d 9d 3d
       0.012638056 0.12757875 0.019078668 0.07690014
000060 5c ec 3d 3e 7f f4 6f bd 40 2a 51 3d 67 7f d8 bd
       0.18547195 -0.05858278 0.051065683 -0.10571175
000070 9e 9c 0b 3e a2 0b 55 bd d4 b8 57 bd 9f 22 f7 3d
       0.13633963 -0.052013047 -0.0526665 0.1206715
000080 40 b9 61 3d 73 91 d2 bd 40 c4 72 bd b0 c2 a0 bd
       0.05510831 -0.102816485 -0.05926919 -0.07849634
000090 d8 7c 87 3d 08 b0 a7 bd a0 0c 74 3d 67 11 d2 3d
       0.06615609 -0.08187872 0.059582353 0.102572255
0000a0 3f 56 a8 3b 07 fe c9 bc 91 d6 a4 3d 56 35 bd bd
       0.0051372345 -0.024657262 0.08048738 -0.09238689
0000b0 69 07 9b 3d 00 a8 7a 36 80 7a 0e 3d 90 b1 01 bd
       0.07569773 3.7350692e-06 0.034784794 -0.031663477
0000c0 60 e4 43 bd ab a5 fa bd 04 87 0f b9 cc 0d 2d 3d
       -0.047825217 -0.1223863 -0.0001368784 0.042249486
0000d0 c0 89 06 3d e2 c8 6e bd a0 64 82 bd 01 de 84 3c
       0.032846212 -0.058297046 -0.06366849 0.016219141
0000e0 48 3d f3 3d 9e 22 e6 3c ca 29 71 3d ae e4 1f bd
       0.11876923 0.028092679 0.058877744 -0.039036445
0000f0 50 b0 4a bc e1 16 7f 3d 3c c7 c5 bc 8a b9 1c bd
       -0.012371138 0.06227768 -0.024142854 -0.03826288
000100 6e ae 6e bd 0a 5f 3e bd 79 36 66 3c e1 51 26 bd
       -0.058271818 -0.046477355 0.014051073 -0.04060543
000110 9e 55 12 3c 83 f6 cb bd 8f 43 b3 3d 80 18 d3 bc
       0.008931546 -0.09959128 0.0875312 -0.025768518
000120 80 6f 9e bd 1c 9d 43 3d 5a b9 40 3d 9f 8a 55 3d
       -0.07736111 0.047757253 0.047051765 0.052134153
000130 b5 39 7a bc c1 e0 f7 bc 19 a3 d6 bd 14 4e 4a 3d
       -0.0152725475 -0.030258538 -0.10480327 0.049390867
000140 44 df 91 bc d6 83 a2 bb 5a fa bc bd a0 9e 9f 3d
       -0.017806657 -0.0049595637 -0.09227438 0.07793927
000150 a9 1e 67 3d 82 c9 89 3c f1 67 f8 bd 3c a7 2d 3e
       0.056425724 0.01681972 -0.121292 0.16958326
000160 2c 9e 93 3d 22 3c f6 bd bd 09 57 3d bc 95 20 3b
       0.07207903 -0.12023188 0.05249952 0.002450331
000170 c2 99 7e bd 2d 80 01 be ef 51 4d bd 66 08 e8 3d
       -0.062158354 -0.12646551 -0.050126966 0.11329727
000180 f7 de b3 bd bf 71 f2 3c 35 f5 8e bd e3 0a bc bc
       -0.087827615 0.029595254 -0.06980363 -0.02295441
000190 4f ae 8c bc 8b 4f 15 bd 92 24 77 bc 07 f0 2a bc
       -0.01717296 -0.03645281 -0.015084403 -0.010433204
0001a0 01 6c 35 39 e1 01 00 3c 44 15 da bd e2 65 f4 3b
       0.0001730174 0.007812948 -0.10648587 0.0074584344
0001b0 79 4b 12 be 00 82 06 be c2 35 9c bd 89 0c ca bd
       -0.14286603 -0.13135529 -0.07627441 -0.09865672
0001c0 4e c8 08 bd 03 b4 6c bd 0f 94 a4 bd 89 70 51 bb
       -0.03339415 -0.05778886 -0.080360524 -0.0031957945
0001d0 d8 2f 3c bd 1e 0c 13 bd e1 00 f7 3d dc 42 b6 3d
       -0.045944065 -0.035900228 0.120607145 0.08899471
0001e0 19 98 0a 3e 7a 05 8f bc 07 a3 2b bd 7f 15 e9 bd
       0.13534583 -0.017458666 -0.041903522 -0.11381053
0001f0 b5 8f c8 bc 50 40 af bd 5f b8 72 3d c6 cf 97 bd
       -0.024482587 -0.085571885 0.05925786 -0.074126765
000200 e9 a8 fd bc 85 55 93 bd 23 51 5f bd 0d 11 9c bd
       -0.030964332 -0.07194046 -0.054520737 -0.0762044
000210 87 15 72 bc 67 a5 70 bc f2 ff 62 bc b4 0f ed 3d
       -0.01477564 -0.0146878725 -0.013854967 0.11575261
000220 96 bb 5e bc 5b 41 94 bd fd 72 d5 3d 17 4a e7 3d
       -0.013594529 -0.07239028 0.10422323 0.112934284
000230 ab b8 90 3d cd b9 29 3d e7 11 b4 3c 3b 41 ee 3d
       0.070664726 0.04143696 0.021981193 0.116335355
000240 97 dc 27 be ee f6 b8 3c ec 84 d5 bd de b3 af bd
       -0.16392742 0.022578683 -0.104257435 -0.08579229
000250 ba 10 d4 3d f3 4b f7 bd 94 90 0a bd 03 f0 c0 bd
       0.10354753 -0.12075033 -0.033829287 -0.094207786
000260 e2 56 cf bd 3c 3e 96 bd 8d 50 22 bd 7a 3f a9 3d
       -0.101239935 -0.07336089 -0.0396276 0.0826406
000270 53 7f 08 be fa d9 50 3c 84 7e 87 bd 69 dd 81 bd
       -0.1332982 0.012747282 -0.06615928 -0.06341059
000280 c5 2a 89 bd 83 58 98 3d 08 2d c7 3c 31 c0 9b 3c
       -0.06697611 0.07438757 0.024313465 0.019012542
000290 3d e1 06 bd 11 ec e7 bc c0 0f f7 bc 66 c9 2e 3a
       -0.032929648 -0.028310807 -0.030158877 0.0006667584
0002a0 9b 9b ad 3d 6d 64 a3 3d 7d aa 64 bb 7d a7 c1 3d
       0.08476945 0.07978139 -0.0034891658 0.09455774
0002b0 b6 ee 18 3d 11 7b 74 bc f6 91 e1 3d f8 b9 18 bd
       0.037337027 -0.014921919 0.11014168 -0.03728673
0002c0 0b 92 0f bc 7f ff 92 bd 71 84 83 bd b9 8f 4b 3c
       -0.008762847 -0.07177638 -0.064217456 0.012424403
0002d0 ef 46 a7 bd aa ec 3f 3e 13 41 e9 bb 7a 73 ea bd
       -0.081678264 0.18742624 -0.007118353 -0.11447807
0002e0 74 64 93 3c d5 69 c3 3d 9b 65 9e bd 86 63 c3 bd
       0.017992236 0.0954167 -0.077342235 -0.09540467
0002f0 77 46 7d 3d 07 79 16 bd af 84 d8 bd da 7f 2e bd
       0.06183478 -0.036736514 -0.105721824 -0.042602398
000300 c0 ca 08 bc 46 61 cf 3d ea 03 32 3d f9 8b d9 3d
       -0.008349121 0.10125975 0.043460764 0.10622401
000310 88 07 d3 3d 68 c3 3c bd ce e4 b5 bd 56 26 08 be
       0.10304171 -0.04608479 -0.08881532 -0.13295874
000320 8c 9f d5 3d c2 83 6a 3d c8 74 55 39 10 fd 00 be
       0.10430822 0.05725456 0.00020356767 -0.12596536
000330 4e 21 8a bd 2f 36 c4 3d 49 3e 14 3c 6c f4 c5 bd
       -0.067446336 0.09580647 0.009048053 -0.096657604
000340 1a ba e1 bd 04 f2 08 3d 90 fc ac bd 09 72 b4 bd
       -0.11021824 0.03343393 -0.0844661 -0.08810813
000350 26 43 70 bd 9a 53 95 3d ca 6b 31 bd 23 6a 7b bd
       -0.058657788 0.07291336 -0.043315686 -0.061380517
000360 fe bf c6 3c 4f d0 f9 3b fd bb d0 3d b0 83 80 bc
       0.02426147 0.0076237093 0.10192106 -0.015687793
000370 ef ef 20 bc b4 dc a3 3d 69 58 96 bd 15 97 10 bd
       -0.00982283 0.0800108 -0.07341082 -0.035300333
000380 ca 56 81 3d 20 33 5e bc cc ab 2b 3e 68 4e 8e bc
       0.06315382 -0.013561994 0.16764754 -0.017371371
000390 ec e4 21 3e 16 ba 81 3d 51 99 d3 bc 31 f6 42 bd
       0.15809983 0.06334321 -0.025829943 -0.047598068
0003a0 cf 49 b0 3d 31 7e c7 bb 43 bf 06 3e 0c 50 f6 3d
       0.08607828 -0.0060880412 0.13158898 0.120269865
0003b0 47 7f 64 bc ff 52 55 bc 8b 8d c3 bd 25 7b 1d 3d
       -0.013946361 -0.013020276 -0.095484816 0.038447518
0003c0 e0 ce 24 3d 2f 1f 1c be f5 9a 9e 3d b1 45 94 3b
       0.040236354 -0.1524627 0.077443995 0.0045249094
0003d0 a6 0c 01 be e5 cc 54 bd 30 1b dd bd da 97 55 bc
       -0.12602481 -0.051953215 -0.10796201 -0.0130366925
0003e0 44 47 df bc 61 af e7 3d c7 0e 77 3c 39 98 3f 3b
       -0.027255662 0.11312748 0.015079207 0.002923502
0003f0 39 56 48 3d 27 56 58 3d 37 cb e9 bd 99 7c c3 bb
       0.048910353 0.052816536 -0.11415713 -0.005965781

network.8.bias f4 [32]
000000 a5 d2 62 b6 af 0d 2f 36 c6 c9 cd 35 e0 a1 d8 33
       -3.3799236e-06 2.6084997e-06 1.5332414e-06 1.0087729e-07
000010 f0 f6 6a 32 57 e9 dd 34 c8 51 76 36 8f b2 8d b5
       1.367674e-08 4.1334235e-07 3.670446e-06 -1.0557286e-06
000020 8c 16 40 b6 af 53 5c b5 f6 58 18 b6 65 66 c3 b6
       -2.8623354e-06 -8.207816e-07 -2.2701547e-06 -5.823373e-06
000030 ff 02 3a 36 0c b1 4d 35 ba df 3a 36 ec a7 12 36
       2.7717904e-06 7.662609e-07 2.7846386e-06 2.1853439e-06
000040 19 67 f4 b4 98 5e 9d 37 c9 a3 ae b2 9b f6 fc b6
       -4.5523555e-07 1.8759907e-05 -2.0330747e-08 -7.538894e-06
000050 12 bc 46 b5 60 74 6a b7 dd 56 43 b6 0c 4d 08 b6
       -7.4034426e-07 -1.39745825e-05 -2.9107825e-06 -2.0310426e-06
000060 4f 3b 2b 36 ef e7 57 36 8a 62 0c 36 db ab d9 b5
       2.5515508e-06 3.21725e-06 2.0918983e-06 -1.6217776e-06
000070 d4 0c 56 36 9c c5 14 b6 0d 9a 80 b6 b0 2f da 35
       3.1895952e-06 -2.2168742e-06 -3.832631e-06 1.6256145e-06

network.9.weight f4 [32]
000000 16 ec b1 3f e3 16 aa 3f a0 b8 ae 3f 6c 3e b0 3f
       1.3900173 1.3288234 1.3650093 1.376905
000010 50 cd b0 3f 8c 1a b3 3f ff 66 ad 3f 51 97 b6 3f
       1.3812656 1.3992476 1.3547057 1.4264928
000020 72 86 b5 3f f7 9c b5 3f 37 b1 af 3f 03 ef ab 3f
       1.4181654 1.4188527 1.3725957 1.3432316
000030 87 1b 9f 3f 7b e6 ad 3f 2d 0c b0 3f 63 10 b6 3f
       1.2430276 1.3585962 1.3753716 1.4223751
000040 ad e1 a6 3f fa c1 b6 3f eb 25 ac 3f 69 5d c5 3f
       1.3037621 1.4277947 1.3449072 1.5419132
000050 b3 8f b2 3f 02 d3 b6 3f 2b b2 ab 3f 41 a2 b5 3f
       1.3950104 1.4283144 1.3413748 1.4190141
000060 ec 5d b0 3f 05 eb b4 3f bb 2b ae 3f 36 03 bb 3f
       1.3778663 1.4134222 1.3607095 1.4610355
000070 83 a2 b7 3f b4 b2 bc 3f 01 1c b9 3f a3 f4 aa 3f
       1.434647 1.4742036 1.4461671 1.3355907
