models/neural_network.pth (torch, 62953 bytes, 20 tensors)

network.0.weight f4 [128, 16]
-1.890026e-11 -0.049895924 0.12011398 0.14355807 -0.05671953 -0.0796075 -0.23696783 -0.011663044
-2.0817236e-30 -0.20811538 -0.06990785 0.073612355 2.81639e-10 0.17764878 -0.15866458 -0.13084245
6.2681604e-14 -0.07736355 0.033489816 -0.035061803 0.13159761 0.15172663 0.09224775 0.12152059
-3.7841357e-08 -0.004508783 -0.053044483 -0.3943869 -1.8954115e-26 0.007538229 -0.122097805 -0.19018339
-1.6349918e-17 0.190534 -0.14410587 -0.07690996 0.11522074 0.068244725 0.15632074 -0.13250452
-3.4685987e-23 -0.17109904 0.14152825 0.18709898 -6.281611e-20 -0.0077347886 -0.002809016 -0.28168797
4.365713e-21 0.056720417 0.15411283 0.047138963 -0.09436076 0.09843788 0.056240726 -0.071344346
-1.6424916e-38 0.20276798 -0.15302737 0.067964286 1.9333661e-11 -0.19981395 -0.14605255 -0.21195373
1.2798095e-28 0.15118207 0.222189 0.09329324 0.07275776 -0.030002251 -0.10963814 -0.071476564
5.245487e-34 0.010016423 -0.17975949 -0.16128366 1.1618454e-38 0.12160615 0.082725644 0.26151302
4.005977e-38 0.24483252 0.10293841 -0.254816 0.079985134 0.081454776 -0.2912159 -0.090828456
5.847312e-13 0.15409012 0.028720515 0.08976277 -1.360135e-38 -0.07325227 0.019858742 0.19758013
9.255884e-09 0.16138716 0.14638561 -0.110152446 0.17032695 -0.00930373 0.01637832 0.0673252
2.1774653e-08 0.069198824 0.20767064 -0.019756135 2.9278837e-38 0.19310328 -0.09315742 0.053900916
3.381085e-38 -0.10389981 -0.21182501 -0.104314744 -0.12890851 0.061269216 0.14943017 -0.33610255
-2.6687572e-38 -0.19157565 0.05634468 0.26168546 4.688621e-08 -0.23964074 0.20371425 0.19451843
1.950375e-37 -0.1274876 0.13878477 -0.008368895 0.014856551 -0.32280108 -0.22020389 0.11100613
-3.3556239e-38 -0.16853362 -0.14870965 0.1883088 3.6762327e-10 0.056461617 0.26251996 0.05086119
5.966534e-13 0.26307827 -0.078939795 -0.041037746 0.061610736 -0.021908002 0.015338719 0.14646308
-4.7537657e-10 -0.23155406 0.20958655 -0.13194384 2.6944845e-38 0.15481953 0.25413364 0.098572366
-9.285221e-13 -0.13715845 0.053727906 0.16448502 0.08134343 -0.0371681 -0.1592848 -0.037991583
5.4577454e-09 0.11849714 -0.1888726 -0.28910992 -3.513393e-36 -0.15646946 0.18462527 0.107151665
7.335755e-22 -0.06152885 0.11023446 -0.008060853 0.19789164 -0.21108694 -0.06542426 -0.032001674
1.6877317e-38 0.12429421 0.05699173 0.18770763 -1.9463211e-08 0.08838427 -0.17721947 0.1334235
-3.5639162e-38 0.27290925 0.22261144 -0.23018634 -0.19608505 0.22043829 -0.24079159 -0.044841774
4.279927e-12 0.16185476 -0.059019707 -0.013599775 -7.089678e-08 0.21142362 0.20645702 -0.1516758
-7.622186e-39 0.0063966904 0.14891829 0.2325055 0.1509984 -0.086467884 -0.13272211 0.25370476
4.6197775e-22 -0.12760268 0.13648522 0.052665986 -7.0440607e-19 -0.1677422 -0.0072168936 -0.23838656
6.627679e-26 -0.1164066 -0.009664476 -0.13126189 -0.28346363 -0.030875135 0.03738693 0.026177743
6.274542e-29 0.18142453 0.1414998 0.11189532 -5.352282e-39 -0.21440971 -0.055262975 -0.030043969
4.290027e-08 0.061075814 -0.09348529 -0.28330532 0.016821247 0.021856077 -0.16366333 0.04811487
-1.1603382e-38 0.16741458 -0.1655368 -0.057680834 -1.1459187e-07 -0.27076104 0.018313486 -0.01810795
00000000: 9a3f a6ad ab5f 4cbd 51fe f53d e300 133e
00000010: bd52 68bd 4209 a3bd b2a7 72be 5a16 3fbc
00000020: b5e3 288e 331c 55be d92b 8fbd 13c2 963d
00000030: 2ad5 9a2f 90e9 353e f878 22be 90fb 05be
00000040: 7c25 8d29 c870 9ebd 9e2c 093d f79c 0fbd
00000050: 86c1 063e 3a5e 1b3e 63ec bc3d c9df f83d
00000060: 0387 22b3 6abe 93bb 2c45 59bd 14ed c9be
00000070: 64b6 bb94 4003 f73b 6a0e fabd 6fbf 42be
00000080: 27cd 96a3 581b 433e 7d90 13be f882 9dbd
00000090: daf8 eb3d e4c3 8b3d 8b12 203e 44af 07be
000000a0: 2cbb 279a 9634 2fbe c8ec 103e e096 3f3e
000000b0: 0252 949f 1c74 fdbb 7817 38bb 6839 90be
000000c0: 96ee a41d ab53 683d c1cf 1d3e c914 413d
000000d0: 3740 c1bd cd99 c93d ad5c 663d fc1c 92bd
000000e0: fcd9 b280 69a2 4f3e 35b3 1cbe dc30 8b3d
000000f0: 890f aa2d 079c 4cbe cd8e 15be 660a 59be
00000100: 313c 2211 79cf 1a3e 8385 633e 8710 bf3d
00000110: 0502 953d 48c7 f5bc f689 e0bd 4e62 92bd
00000120: ab4f 2e08 ec1b 243c df12 38be 8b27 25be
00000130: 8683 7e00 a50c f93d 106c a93d 09e5 853e
00000140: 2c1b 5a01 60b5 7a3e 60d1 d23d 3e77 82be
00000150: 3fcf a33d c3d1 a63d 401a 95be 4504 babd
00000160: 5396 242b cdc9 1d3e 4947 eb3c 8bd5 b73d
00000170: 081b 9480 4905 96bd cdae a23c 7252 4a3e
00000180: cf03 1f32 ad42 253e 1ce6 153e 9b97 e1bd
00000190: 306a 2e3e ac6e 18bc d42b 863c cbe1 893d
000001a0: f80a bb32 1db8 8d3d 9da7 543e 9ed7 a1bc
000001b0: be68 1f01 debc 453e 51c9 bebd 35c7 5c3d
000001c0: 7215 3801 6cc9 d4bd a8e8 58be f8a2 d5bd
000001d0: 9800 04be 6ef5 7a3d 3904 193e a215 acbe
000001e0: 0c4d 1181 682c 44be aec9 663d a3fb 853e
000001f0: ef5f 4933 6264 75be 789a 503e d72f 473e
00000200: 53bc 8402 1c8c 02be 981d 0e3e b11d 09bc
00000210: e468 733c 2f46 a5be 217d 61be 2f57 e33d
00000220: 92b2 3681 1494 2cbe 5847 18be 06d4 403e
00000230: 601a ca2f 4c44 673d 0469 863e d353 503d
00000240: 69f1 272b 32b2 863e 30ab a1bd 3217 28bd
00000250: 8a5b 7c3d 6978 b3bc 404f 7b3c 6bfa 153e
00000260: a7ab 02b0 821c 6dbe db9d 563e 491c 07be
00000270: a2b3 1201 0389 1e3e ce1d 823e 4fe0 c93d
00000280: 89ad 82ab 4473 0cbe cb11 5c3d c36e 283e
00000290: 6297 a63d 943d 18bd 8e1b 23be 109d 1bbd
000002a0: d686 bb31 a1ae f23d d267 41be 3706 94be
000002b0: 7671 9584 8839 20be 680e 3d3e 5572 db3d
000002c0: a8b5 5d1c ad05 7cbd 9bc2 e13d ab11 04bc
000002d0: 1ba4 4a3e 2d27 58be 28fd 85bd 3014 03bd
000002e0: 18c7 b700 f68d fe3d 2970 693d 6e36 403e
000002f0: 0e30 a7b2 d002 b53d 0579 35be 2ca0 083e
00000300: be09 4281 c3ba 8b3e 41f4 633e f8b5 6bbe
00000310: 85ca 48be 93ba 613e 1292 76be 02ac 37bd
00000320: 2896 962c 41bd 253e a6be 71bd 97d1 5ebc
00000330: eb3f 98b3 6f7f 583e 7869 533e e750 1bbe
00000340: 8eff 5280 549b d13b 097e 183e ec15 6e3e
00000350: 539f 1a3e 1316 b1bd 4ee8 07be 97e5 813e
00000360: cc9f 0b1c 47aa 02be c8c2 0b3e 4ab8 573d
00000370: 6be7 4fa1 9cc4 2bbe b17b ecbb 9b1b 74be
00000380: e817 a415 9566 eebd c057 1ebc 8469 06be
00000390: 2522 91be daed fcbc 0a23 193d b572 d63c
000003a0: 1b14 9f10 5ac7 393e 53e5 103e 6029 e53d
000003b0: fc47 3a80 388e 5bbe 6e5b 62bd c51e f6bc
000003c0: 5841 3833 a22a 7a3d 3775 bfbd 650d 91be
000003d0: b6cc 893c 840b b33c 5c97 27be 1914 453d
000003e0: 8259 7e80 ba6e 2b3e 7b82 29be bd42 6cbd
000003f0: 8c15 f6b3 31a1 8abe 2a06 963c 2057 94bc

network.0.bias f4 [128]
9.3031524e-08 -3.6000466e-07 -2.579732e-08 9.247056e-07 -7.1789833e-07 -5.2857496e-07 -9.606308e-07 1.1197054e-06
2.0718247e-07 5.2082296e-08 2.6734213e-07 -1.5148171e-07 1.6769629e-07 9.2738213e-07 -1.4168508e-07 -1.050929e-06
-5.008407e-07 8.150204e-07 -4.3453295e-07 -2.8992145e-07 5.209792e-07 -7.473261e-07 -5.4391376e-07 -4.4846578e-07
-1.4756461e-06 -1.9526952e-07 4.4626054e-07 6.193832e-07 1.4523227e-06 -6.816994e-07 3.277298e-07 4.9807124e-07
3.135202e-07 -2.0729874e-07 -1.2172097e-06 6.323458e-07 -4.4963576e-06 8.1702467e-07 9.253566e-07 2.9586201e-06
3.2394777e-07 9.0396384e-07 1.1338836e-06 -1.7939448e-07 1.3605137e-06 1.2104636e-07 -3.3681826e-07 -1.2588565e-06
-7.673559e-07 -6.230692e-09 2.6285318e-09 -5.7108485e-07 -4.5776193e-07 3.781451e-07 6.3087384e-07 1.559529e-07
-1.0880353e-06 1.1849727e-06 -9.725478e-07 3.6170974e-07 3.3054818e-07 3.5986653e-07 -2.346303e-07 2.1531234e-07
-8.165106e-08 1.2480087e-06 -1.6268528e-07 6.344478e-08 -9.426842e-07 -7.558875e-07 -5.466371e-07 -9.51584e-07
-9.786432e-07 9.697076e-07 -3.314931e-07 4.0175914e-07 -1.5881065e-07 -4.749726e-07 2.5459184e-07 -2.337829e-07
2.3938185e-06 -5.729929e-07 -5.9342625e-07 1.6423552e-07 3.2004596e-08 -2.6123692e-07 3.3033364e-06 1.780355e-07
-5.6032155e-07 -8.13463e-08 -3.191076e-07 7.024238e-07 -7.4574746e-07 -5.0363053e-07 1.8223477e-06 -2.6145165e-07
4.253253e-07 9.6845056e-08 1.0082733e-07 -3.11611e-07 1.5156812e-07 -2.3093124e-08 1.2594085e-06 -1.2236663e-07
1.3058328e-06 5.9531033e-08 -1.1135124e-06 4.1484788e-07 -1.8940602e-06 -6.56963e-07 -1.3267137e-07 -4.8005955e-07
9.062946e-08 1.05828e-06 1.0009279e-07 5.066153e-07 8.8252074e-07 3.3948615e-07 4.826041e-07 4.899218e-07
2.8623492e-07 -1.5969667e-07 3.1276883e-07 5.6470634e-07 1.3666123e-07 9.221721e-07 -8.468782e-08 1.975822e-06
00000000: 9fc8 c733 aa46 c1b4 e898 ddb2 4939 7835
00000010: 99b5 40b5 65e3 0db5 06ef 80b5 c948 9635
00000020: e275 5e34 17b1 5f33 3987 8f34 faa6 22b4
00000030: 0110 3434 37f1 7835 1922 18b4 a50d 8db5
00000040: 8371 06b5 c7c7 5a35 c149 e9b4 80a6 9bb4
00000050: 6bd9 0b35 dc9b 48b5 7801 12b5 abc4 f0b4
00000060: d00e c6b5 47ab 51b4 9595 ef34 b043 2635
00000070: 6eed c235 07fe 36b5 d7f2 af34 32b3 0535
00000080: e351 a834 d895 5eb4 025f a3b5 79be 2935
00000090: 6bdf 96b6 8251 5b35 0566 7835 b58c 4636
000000a0: 0beb ad34 eca7 7235 f22f 9835 949f 40b4
000000b0: e59a b635 f8f8 0134 f3d3 b4b4 fbf5 a8b5
000000c0: 4cfc 4db5 bf15 d6b1 9fa1 3431 a74c 19b5
000000d0: 52c2 f5b4 de03 cb34 5259 2935 0274 2734
000000e0: 9c08 92b5 5a0b 9f35 7d88 82b5 0231 c234
000000f0: 3276 b134 ae33 c134 b0ee 7bb4 9b30 6734
00000100: 2558 afb3 4181 a735 97ae 2eb4 233f 8833
00000110: c40c 7db5 32e8 4ab5 9ebc 12b5 5b70 7fb5
00000120: ed59 83b5 e626 8235 11f8 b1b4 5bb1 d734
00000130: 8a85 2ab4 bdff feb4 d6ae 8834 c105 7bb4
00000140: 7da5 2036 c6cf 19b5 f14b 1fb5 b758 3034
00000150: 6d75 0933 2140 8cb4 e3ae 5d36 072a 3f34
00000160: 0169 16b5 9ab0 aeb3 d151 abb4 328e 3c35
00000170: 602f 48b5 3a31 07b5 6497 f435 a45d 8cb4
00000180: 4458 e434 22f9 cf33 6986 d833 7d4b a7b4
00000190: babe 2234 515e c6b2 f208 a935 e263 03b4
000001a0: 1344 af35 10af 7f33 ff73 95b5 42b8 de34
000001b0: 6a37 feb5 275a 30b5 6e74 0eb4 71dd 00b5
000001c0: 13a0 c233 390a 8e35 98f2 d633 57fe 0735
000001d0: 5de6 6c35 9f42 b634 4d8c 0135 2b83 0335
000001e0: d4ab 9934 1679 2bb4 9fea a734 5396 1735
000001f0: 27bd 1234 2f8b 7735 9fdd b5b3 5d98 0436

network.1.weight f4 [128]
0.9141461 0.9497689 0.9314304 0.8953989 0.91208756 1.0426779 1.0557264 1.0345527
0.9201401 0.97216874 0.92437977 0.9865054 1.0193465 0.9457393 0.9114865 0.98701435
0.9737794 1.0370381 0.96205586 1.0095621 1.0119902 0.9364425 0.938659 0.9242014
1.0973961 0.9690569 0.9648926 1.0275545 1.0044345 0.94554824 0.9487981 0.9468065
1.0261809 0.92867905 1.0025061 0.9088301 1.0505488 1.0095737 1.0151882 1.0602005
0.94581854 0.96246636 0.99323153 0.98944354 1.0793825 0.93159705 0.9673336 1.0531293
0.95911705 0.9821419 0.954429 1.0080595 0.9755736 1.0002536 0.9991182 0.96308935
0.97253305 0.9788248 0.9893646 1.0158197 0.96283495 1.0437932 1.0991615 0.918316
0.93918926 1.0332032 0.9289221 0.93541396 0.99995106 0.98526067 1.0388192 0.96594054
0.99011534 0.9306645 0.9576091 0.97047424 0.9970118 0.9589349 0.9318549 0.98010415
1.0578132 1.0077904 1.0009452 0.9989966 0.86874795 1.0703008 1.064218 0.95360786
0.95650154 0.9711401 0.93010175 1.0311017 0.9413437 0.9835464 0.9403695 1.0330633
1.0080136 0.98093605 0.942533 0.99947923 1.0174174 0.9801219 1.0165795 0.932972
1.018796 0.97622335 0.9983063 0.95208067 1.0624838 0.973716 1.111082 0.9436231
0.9195287 1.0135052 0.9451063 0.9985533 0.99091274 0.987266 0.97786087 0.9662625
0.95548517 0.9505752 0.92735416 0.9970124 1.0118796 0.97477216 0.92937624 0.9423677
00000000: 7b05 6a3f 0e24 733f 3972 6e3f dd38 653f
00000010: 927e 693f 7876 853f 0b22 873f 396c 843f
00000020: 4d8e 6b3f 0de0 783f 27a4 6c3f 9e8b 7c3f
00000030: f279 823f f91b 723f 2e57 693f f9ac 7c3f
00000040: 9b49 793f aabd 843f 4b49 763f 5539 813f
00000050: e588 813f b2ba 6f3f f54b 703f 7798 6c3f
00000060: 7a77 8c3f 1d14 783f 3403 773f e886 833f
00000070: 4f91 803f 730f 723f 6fe4 723f e961 723f
00000080: e559 833f e9bd 6d3f 1f52 803f 17a9 683f
00000090: 6278 863f b639 813f b0f1 813f a6b4 873f
000000a0: 2a21 723f 3264 763f 6c44 7e3f 2c4c 7d3f
000000b0: 3529 8a3f 257d 6e3f 2da3 773f f1cc 863f
000000c0: b288 753f a76d 7b3f 7555 743f 1808 813f
000000d0: 31bf 793f 4f08 803f 36c6 7f3f 068d 763f
000000e0: edf7 783f 4394 7a3f 0047 7d3f 6106 823f
000000f0: 5a7c 763f 049b 853f 53b1 8c3f c216 6b3f
00000100: b56e 703f 0140 843f d7cd 6d3f 4a77 6f3f
00000110: cbfc 7f3f 0b3a 7c3f 07f8 843f e147 773f
00000120: 3378 7d3f 0740 6e3f df25 753f 0071 783f
00000130: 2a3c 7f3f c27c 753f 0b8e 6e3f 1be8 7a3f
00000140: 6c66 873f 47ff 803f f91e 803f 3ebe 7f3f
00000150: 4466 5e3f 9eff 883f 4c38 883f a51f 743f
00000160: 49dd 743f a39c 783f 261b 6e3f 24fb 833f
00000170: e7fb 703f b2c9 7b3f 0ebc 703f 6b3b 843f
00000180: 9706 813f a01e 7b3f d849 713f dfdd 7f3f
00000190: bc3a 823f 45e9 7a3f 471f 823f 41d7 6e3f
000001a0: e867 823f c6e9 793f 0091 7f3f 8fbb 733f
000001b0: 78ff 873f 7445 793f ef37 8e3f 4991 713f
000001c0: 3c66 6b3f 8aba 813f 7df2 713f 30a1 7f3f
000001d0: 75ac 7d3f 77bd 7c3f 1755 7a3f fb5c 773f
000001e0: ad9a 743f e558 733f 1567 6d3f 343c 7f3f
000001f0: 4585 813f ab8a 793f 9aeb 6d3f 023f 713f

network.1.bias f4 [128]
-0.014404107 -0.061266202 -0.051768374 -0.14944758 -0.05990958 -0.07301486 -0.06741137 0.0023574778
-0.016536847 -0.111434855 -0.10162156 -0.056229357 -0.11102459 -0.04346911 -0.05807922 -0.043155957
-0.05895953 -0.07607483 -0.100194216 -0.03323793 -0.06392952 -0.09626039 -0.13292196 -0.076649144
-0.06368789 -0.13372505 -0.09079817 -0.058332544 0.0024817367 -0.09771593 -0.03963443 -0.007949922
-0.11482333 -0.048089404 -0.095287606 -0.14693314 -0.04345324 -0.02634866 -0.08292111 -0.09554564
-0.07264385 -0.07871179 -0.09106777 0.075656466 -0.061951924 -0.06245395 -0.038366288 -0.12752554
-0.104115725 -0.018138366 -0.13573919 -0.15687022 -0.050460756 -0.036898423 -0.11607564 -0.06151617
-0.098067254 -0.0047970484 0.0015274461 -0.112190105 -0.07340935 -0.025881974 -0.1433964 -0.048156288
-0.0734136 -0.14233468 -0.017416785 -0.04691967 -0.05417816 -0.022402035 -0.072303794 -0.025248984
-0.09530012 0.0013338581 -0.097225375 -0.058378868 -0.113469906 -0.10919481 -0.0019972816 -0.06559359
-0.12871413 -0.086636804 -0.103858136 -0.11740009 -0.060686182 -0.07998219 -0.04814463 -0.05463974
-0.0719743 -0.10237251 -0.040288255 -0.049977258 -0.065934494 -0.079439744 -0.05287709 -0.062531985
-0.08849729 -0.078312494 -0.040760268 -0.1495426 -0.11348893 -0.018422712 -0.07280133 -0.108864
-0.11042535 -0.11424051 -0.16047397 -0.09112115 -0.13472255 -0.13469365 -0.12894663 -0.02509416
-0.03709963 -0.06807937 -0.060487747 -0.04033466 -0.053883314 -0.073920086 -0.13922797 -0.09774666
-0.096547 -0.01917274 -0.15012984 0.03585903 -0.13102074 -0.06829105 -0.05415371 -0.07945291
00000000: 34ff 6bbc 45f2 7abd 130b 54bd c908 19be
00000010: bf63 75bd d188 95bd f90e 8abd ea7f 1a3b
00000020: 4878 87bc f537 e4bd f71e d0bd c150 66bd
00000030: dc60 e3bd aa0c 32bd 7ae4 6dbd 4dc4 30bd
00000040: 8c7f 71bd 1fcd 9bbd a032 cdbd 7f24 08bd
00000050: 7bed 82bd 2b24 c5bd b21c 08be 3afa 9cbd
00000060: cc6e 82bd 38ef 08be 64f4 b9bd 1bee 6ebd
00000070: a2a4 223b 4a1f c8bd b657 22bd 6440 02bc
00000080: 7e28 ebbd 65f9 44bd 2626 c3bd a475 16be
00000090: 06fc 31bd 25d9 d7bc 8bd2 a9bd 6fad c3bd
000000a0: 4dc6 94bd a633 a1bd bd81 babd c7f1 9a3d
000000b0: 4dc1 7dbd b7cf 7fbd f825 1dbd 0e96 02be
000000c0: a03a d5bd e996 94bc 37ff 0abe 96a2 20be
000000d0: f0af 4ebd cd22 17bd 11b9 edbd 61f8 7bbd
000000e0: 7cd7 c8bd 8f30 9dbb 9634 c83a edc3 e5bd
000000f0: a457 96bd 6f06 d4bc 82d6 12be 873f 45bd
00000100: df59 96bd 2fc0 11be a5ad 8ebc d72e 40bd
00000110: ebe9 5dbd 7984 b7bc 0314 94bd f5d6 cebc
00000120: b62c c3bd dad4 ae3a 191e c7bd ae1e 6fbd
00000130: e962 e8bd 87a1 dfbd d3e4 02bb ef55 86bd
00000140: a3cd 03be a36e b1bd 93b3 d4bd 756f f0bd
00000150: 1392 78bd b4cd a3bd 4e33 45bd eccd 5fbd
00000160: 4367 93bd aea8 d1bd 4c05 25bd f4b4 4cbd
00000170: aa08 87bd 4eb1 a2bd a695 58bd c510 80bd
00000180: 113e b5bd 4d62 a0bd 3df4 26bd b221 19be
00000190: e26c e8bd 3aeb 96bc dd18 95bd 17f4 debd
000001a0: b026 e2bd eef6 e9bd 4a53 24be ba9d babd
000001b0: b5f4 09be 22ed 09be 960a 04be 4592 cdbc
000001c0: c8f5 17bd 326d 8bbd 00c2 77bd f535 25bd
000001d0: c0b4 5cbd 6a63 97bd c791 0ebe 672f c8bd
000001e0: 6fba c5bd 2610 9dbc a3bb 19be ebe0 123d
000001f0: 4d2a 06be 2edc 8bbd 48d0 5dbd 35b8 a2bd

network.1.running_mean f4 [128]
0.010971536 0.0023165254 0.005523068 0.011579213 -0.013280007 -0.0023830198 -0.01689394 0.011126219
-0.00863473 -0.027014747 0.0048525594 0.00013417355 -0.009719395 -0.0030211676 0.0054886206 0.0095275715
0.005974662 0.012170911 -0.027149806 -0.005924149 -0.009773723 0.00042078644 -0.0026819953 0.0023291162
-0.0076598288 0.0024975932 -0.026565677 -0.0070406403 -0.0061400356 -0.013869207 -0.008639193 0.006385559
-0.018449672 -0.007007113 -0.0038595656 -0.00042591145 -0.0018696376 -0.0051479023 -0.016660668 -0.007498134
0.0027693487 -0.0074762898 0.0006319529 0.0035060437 0.009649801 0.0017551561 -0.004231493 0.003396624
-0.004951911 -0.009923986 0.009098065 0.0050597284 -0.0022953488 -0.015807152 -0.000737322 -0.013946703
-0.0018730308 0.016320748 0.012713608 0.0067309476 -0.011550097 -0.00611249 0.0024348276 0.022589032
-0.00017612032 -0.006142825 0.003545517 0.009397611 0.0023309868 -0.009986324 -0.010859044 0.0006365753
0.021686312 0.005816724 0.012025315 0.012933291 -0.020678895 0.012578777 -0.012384051 -0.018282777
0.0038175283 -0.0053701773 -0.012422401 -0.0065690093 0.007849627 -0.012077156 0.0025631674 0.006402136
-0.0008657151 0.0033101444 0.0039086887 -0.004297846 0.012203526 -0.00076586986 -0.003498919 0.00013987452
-0.012665404 0.003979947 0.008178651 -0.01347062 0.0036730159 -0.0010842271 -0.009192546 -0.002479644
0.002306916 -0.022777 0.012746779 -0.0018492874 -0.004221448 -0.003454506 -0.004046036 -0.010098878
0.0030475287 0.0011796657 -0.00045582 -0.013285613 0.00067110534 -0.0183538 -0.008469542 -0.019660175
0.003607154 0.014467703 0.004577953 0.007814541 0.0012649638 0.0019409247 -0.003315388 0.004250748
00000000: f5c1 333c d9d0 173b dafa b43b bdb6 3d3c
00000010: 6394 59bc 702c 1cbb 2965 8abc bf4a 363c
00000020: af78 0dbc 084e ddbc 3802 9f3b f0b0 0c39
00000030: 193e 1fbc c8fe 45bb e3d9 b33b 8819 1c3c
00000040: 19c7 c33b 8068 473c 4569 debc 5d1f c2bb
00000050: f721 20bc 009d dc39 6ac4 2fbb 16a4 183b
00000060: 4dff fabb a9ae 233b 43a0 d9bc 2cb5 e6bb
00000070: 5a32 c9bb ac3b 63bc 678b 0dbc f43d d13b
00000080: c423 97bc ed9b e5bb c4f0 7cbb de4c dfb9
00000090: a10e f5ba bcaf a8bb f47b 88bc e8b2 f5bb
000000a0: f67d 353b aafb f4bb a4a9 253a a7c5 653b
000000b0: 331a 1e3c 440d e63a 56a8 8abb e599 5e3b
000000c0: a443 a2bb 3798 22bc 0d10 153c 14cc a53b
000000d0: 906d 16bb 007e 81bc d848 41ba b680 64bc
000000e0: 7c80 f5ba 17b3 853c bd4c 503c 488f dc3b
000000f0: 9e3c 3dbc 484b c8bb a191 1f3b a20c b93c
00000100: f0ac 38b9 c049 c9bb e85b 683b 70f8 193c
00000110: 78c3 183b ae9d 23bc 22ea 31bc d8df 263a
00000120: 7ea7 b13c 389a be3b d405 453c 27e6 533c
00000130: c966 a9bc 3717 4e3c 7ae6 4abc c3c5 95bc
00000140: 7f2f 7a3b 50f8 afbb 5487 4bbc d840 d7bb
00000150: b99b 003c 44df 45bc d0fa 273b 02c9 d13b
00000160: 28f1 62ba 02ef 583b 7514 803b f2d4 8cbb
00000170: 4cf1 473c a8c4 48ba 1f4e 65bb 48ab 1239
00000180: 8e82 4fbc 376a 823b c0ff 053c e0b3 5cbc
00000190: fbb6 703b a01c 8eba 559c 16bc 8681 22bb
000001a0: a12f 173b d596 babc ded7 503c ca63 f2ba
000001b0: 1354 8abb fe64 62bb 9c94 84bb c475 25bc
000001c0: 0cb9 473b 039f 9a3a 20fb eeb9 e6ab 59bc
000001d0: 1eed 2f3a b55a 96bc d5c3 0abc 600e a1bc
000001e0: 0066 6c3b f209 6d3c a702 963b 9008 003c
000001f0: 24cd a53a a066 fe3a fb46 59bb dc49 8b3b

network.1.running_var f4 [128]
0.38375473 0.16084452 0.1144985 0.38884073 0.2155376 0.4005013 0.3893766 0.13303007
0.47720927 0.44271266 0.20861562 0.09496353 0.410405 0.17428939 0.3493842 0.067351915
0.13426583 0.087861784 0.86636496 0.18747412 0.14230105 0.1097205 0.07969419 0.18486787
0.079961725 0.15028317 0.49696925 0.09015718 0.092443645 0.39219752 0.1572617 0.11304705
0.43480986 0.43893537 0.18652166 0.3519277 0.053407006 0.09368519 0.36025956 0.13821177
0.13093078 0.1132835 0.10746826 0.06339316 0.08570181 0.40061066 0.113859154 0.06562374
0.1602389 0.13573346 0.16875687 0.06983839 0.22639008 0.053439368 0.15090917 0.17360662
0.05324046 0.11767533 0.18554586 0.04544561 0.0772755 0.22118767 0.067709014 0.4941355
0.21734576 0.24562934 0.12773192 0.40708423 0.12835075 0.04895324 0.18231167 0.025352918
0.11624846 0.18811703 0.16572239 0.080191866 0.3242045 0.14827612 0.35817787 0.2656687
0.07509568 0.038560916 0.55282855 0.13033724 0.60302037 0.16635315 0.05853221 0.41043803
0.12847526 0.23382169 0.438953 0.047377475 0.1297576 0.26843193 0.10699697 0.07883134
0.12550037 0.33925885 0.33409074 0.31192333 0.21534577 0.29295534 0.16402249 0.038205877
0.2435695 0.2046158 0.31929344 0.21684864 0.022403948 0.080490276 0.15351593 0.097128145
0.449266 0.040109977 0.091418654 0.18813056 0.13076217 0.278232 0.11603611 0.6265406
0.1389597 0.28488392 0.19904502 0.0808405 0.13707647 0.09388083 0.11300652 0.046494618
00000000: 807b c43e 6db4 243e 317e ea3d 2216 c73e
00000010: e3b5 5c3e 820e cd3e 5f5c c73e 0939 083e
00000020: c654 f43e 3cab e23e 559f 553e 3d7c c23d
00000030: 9b20 d23e eb78 323e 7ce2 b23e cdef 893d
00000040: fb7c 093e e1f0 b33d 18ca 5d3f 37f9 3f3e
00000050: 5eb7 113e 24b5 e03d b536 a33d 014e 3d3e
00000060: f9c2 a33d d5e3 193e c172 fe3e 54a4 b83d
00000070: 1853 bd3d 1dce c83e 3609 213e 3685 e73d
00000080: 669f de3e 23bc e03e 89ff 3e3e de2f b43e
00000090: 4ec1 5a3d 05de bf3d f173 b83e 6387 0d3e
000000a0: b812 063e 2e01 e83d 5218 dc3d 46d4 813d
000000b0: 6e84 af3d d71c cd3e fd2e e93d bd65 863d
000000c0: ab15 243e b6fd 0a3e 9ace 2c3e 6e07 8f3d
000000d0: cdd2 673e 3de3 5a3d ef87 1a3e efc5 313e
000000e0: ab12 5a3d c3ff f03d bcff 3d3e 2d25 3a3d
000000f0: 9e42 9e3d 057f 623e 06ab 8a3d 54ff fc3e
00000100: e38f 5e3e 4286 7b3e 28cc 023e 586d d03e
00000110: 616e 033e 3183 483d e9af 3a3e ecb0 cf3c
00000120: ac13 ee3d c0a1 403e 21b3 293e a23b a43d
00000130: 22fe a53e b2d5 173e 1763 b73e ba05 883e
00000140: c4cb 993d 0df2 1d3d 2c86 0d3f 2077 053e
00000150: 8b5f 1a3f 7b58 2a3e 78bf 6f3d ef24 d23e
00000160: 058f 033e f46e 6f3e 73be e03e e20e 423d
00000170: 2ddf 043e e96f 893e 3a21 db3d 5372 a13d
00000180: 2b83 003e 56b3 ad3e f10d ab3e 6ab4 9f3e
00000190: 9a83 5c3e 3efe 953e 83f5 273e c47d 1c3d
000001a0: 486a 793e ce86 513e 6e7a a33e 920d 5e3e
000001b0: 7c88 b73c 16d8 a43d 4833 1d3e 1feb c63d
000001c0: 3106 e63e 5c4a 243d b439 bb3d 4ca5 403e
000001d0: 85e6 053e 6d74 8e3e 57a4 ed3d f764 203f
000001e0: 744b 0e3e 4edc 913e 75d2 4b3e b48f a53d
000001f0: c65d 0c3e 9844 c03d f66f e73d 2471 3e3d

network.4.weight f4 [64, 128]
-0.033583503 -0.025229393 -0.03674742 -0.086893626 -0.016120357 -0.033769306 -0.048922095 -0.042819377
0.033776682 -0.028062755 0.11773095 -0.090566404 -0.012514637 -0.04037801 -0.009036288 0.083633035
0.0058729914 0.038752742 0.030111602 -0.07872631 0.026873225 -0.03920966 -0.11261568 -0.079025656
-0.05123435 -0.022791808 -0.12790844 0.025449377 0.055107955 0.046731126 -0.0384763 -0.026997225
0.034148734 0.059011284 0.029941225 -0.079155274 0.009018253 0.06718898 -0.004023702 0.02024754
-0.04849164 0.049057588 -0.06489954 -0.04162114 0.019732386 -0.02418533 -0.022686213 0.037618622
-0.12745625 -0.028392283 0.067500725 -0.078527905 -0.017233178 -0.05523959 -0.07679141 0.02623536
0.03332913 -0.021371903 -0.012906163 0.034461673 -0.105362974 -0.16237357 -0.014411251 -0.070803195
0.020185089 -0.03211239 -0.014814962 0.042562593 -0.06779494 -0.10073406 0.06188751 0.0823
-0.059209343 0.008786077 0.018110605 0.018988034 0.0552476 0.014696592 -0.07936137 0.04477801
-0.026030961 -0.0110600265 -0.033211358 0.058551975 0.044770386 -0.061678253 0.066731095 -0.088524945
-0.048969716 -0.035123393 0.019681333 -0.027075402 0.0024918155 -0.04535137 -0.08459863 -0.10305453
-0.107139535 -0.10997757 0.027564688 -0.06338824 0.052983403 0.05689475 -0.10367017 -0.024604578
-0.069545664 -0.094736554 -0.052244894 0.020160364 -0.039535537 0.06797226 -0.062377673 -0.06071967
0.035938296 0.075601324 -0.039506644 -0.05878921 0.09495583 0.036109835 -0.097341165 -0.01881767
0.025240572 0.049432583 -0.011703441 0.015591582 -0.14225452 -0.0698118 -0.031560007 -0.105118506
0.02688464 0.036304362 -0.016135095 0.01890124 -0.014913095 -0.03021483 0.021643987 0.06386446
-0.041178554 -0.03286922 -0.012484129 -0.096875645 0.008255896 0.050985176 -0.092245914 -0.01292198
0.06620568 -0.018002193 0.03928761 0.0045065405 0.022630045 0.018605024 0.089157715 -0.05868378
-0.03131436 0.032281347 0.008595252 0.024358941 -0.008955284 -0.0557133 0.022320105 -0.12625064
-0.07211657 -0.03215172 0.009464978 -0.09935731 0.083688304 0.05258129 0.08481363 -0.053255744
0.01667877 -0.07297906 0.03139171 0.0044425153 -0.012083712 0.06771146 0.022846678 -0.10194091
0.074228615 0.0423695 0.057570327 0.06937098 -0.0953623 0.001604093 0.03492357 0.018522019
-0.061702207 -0.025259485 -0.07695808 -0.034347527 0.080525406 -0.08600321 -0.07805825 -0.019886725
-0.007433809 0.030411202 -0.045105744 0.06832968 -0.03886411 0.006097158 -0.021929324 0.070875935
-0.09326302 -0.09229861 0.023231586 0.045240145 -0.07416671 0.0059317527 0.010164225 -0.019278286
0.034196492 0.09790835 0.016269945 -0.02519152 -0.021853209 -0.051395454 -0.051201347 -0.0914359
-0.073955975 -0.16580951 0.051040556 0.01738047 -0.018691555 0.04736221 0.0037526642 0.046257295
-0.10257942 -0.06574546 0.0071709226 0.04360628 -0.13387387 -0.0072589475 -0.006824938 0.046522167
-0.115587525 -0.053583037 -0.106713116 0.051119734 0.009918016 0.011197313 0.008625604 0.028723648
0.007298497 0.03652615 0.041708935 0.10358811 -0.037419036 0.020168224 -0.017652232 0.08024948
0.02858911 -0.007813492 -0.021785952 -0.06847515 0.0006359232 0.032584645 -0.03545967 0.032778714
00000000: db8e 09bd dfad cebc 7684 16bd 49f5 b1bd
00000010: d70e 84bc af51 0abd 8962 48bd 5f63 2fbd
00000020: 6b59 0a3d dde3 e5bc ed1c f13d e17a b9bd
00000030: 310a 4dbc 6a63 25bd f00c 14bc cc47 ab3d
00000040: 3972 c03b 32bb 1e3d 9bac f63c 423b a1bd
00000050: 3d25 dc3c 4f9a 20bd 0da3 e6bd 34d8 a1bd
00000060: 1cdb 51bd e3b5 babc 6efa 02be 367b d03c
00000070: e1b8 613d 2369 3f3d 5399 1dbd 4929 ddbc
00000080: 8bdf 0b3d d1b5 713d 4d47 f53c 291c a2bd
00000090: 4bc1 133c 609a 893d 42d9 83bb 2bde a53c
000000a0: 2b9f 46bd 9cf0 483d 0dea 84bd ee7a 2abd
000000b0: d0a5 a13c 5020 c6bc 70d8 b9bc fc15 1a3d
000000c0: e483 02be ef96 e8bc d23d 8a3d 3dd3 a0bd
000000d0: 982c 8dbc e942 62bd d144 9dbd 8aeb d63c
000000e0: 2084 083d 2114 afbc 5f74 53bc af27 0d3d
000000f0: 8bc8 d7bd 4245 26be 2b1d 6cbc 4401 91bd
00000100: 335b a53c 4888 03bd 74ba 72bc 1d56 2e3d
00000110: 13d8 8abd a94d cebd c27d 7d3d e78c a83d
00000120: 7f85 72bd 7af3 0f3c b15c 943c cb8c 9b3c
00000130: 4f4b 623d fac9 703c 3788 a2bd 2669 373d
00000140: e23e d5bc 1d35 35bc a208 08bd 32d4 6f3d
00000150: 2761 373d 56a2 7cbd 50aa 883d 914c b5bd
00000160: 7894 48bd 8cdd 0fbd bf3a a13c 3ccd ddbc
00000170: ba4d 233b 5cc2 39bd 0c42 adbd 410e d3bd
00000180: f96b dbbd ec3b e1bd 57cf e13c b2d1 81bd
00000190: 2005 593d 780a 693d 0751 d4bd 8a8f c9bc
000001a0: f56d 8ebd 3d05 c2bd befe 55bd 5927 a53c
000001b0: 04f0 21bd 0a35 8b3d bb7f 7fbd 30b5 78bd
000001c0: 0934 133d ded4 9a3d b8d1 21bd f4cc 70bd
000001d0: 3478 c23d e8e7 133d ce5a c7bd 8427 9abc
000001e0: 51c5 ce3c d279 4a3d cabf 3fbc d673 7f3c
000001f0: 2bab 11be 7df9 8ebd 1145 01bd 5f48 d7bd
00000200: 2d3d dc3c e2b3 143d bf2d 84bc c6d6 9a3c
00000210: 0e56 74bc 1785 f7bc bb4e b13c 5fcb 823d
00000220: d8aa 28bd e0a1 06bd 3b8a 4cbc bd66 c6bd
00000230: bd43 073c d5d5 503d 6deb bcbd b6b6 53bc
00000240: d896 873d 5679 93bc 0cec 203d 9aab 933b
00000250: a562 b93c 9069 983c 5298 b63d 675e 70bd
00000260: 7d43 00bd 7239 043d 1ad3 0c3c 678c c73c
00000270: 2fb9 12bc a133 64bd a7d8 b63c d947 01be
00000280: dab1 93bd 86b1 03bd ff12 1b3c d87b cbbd
00000290: c664 ab3d 7b5f 573d c5b2 ad3d b222 5abd
000002a0: eaa1 883c 0c76 95bd 9894 003d 8592 913b
000002b0: c3fa 45bc 4eac 8a3d f528 bb3c 65c6 d0bd
000002c0: 2c05 983d a48b 2d3d ddce 6b3d 5f12 8e3d
000002d0: 4f4d c3bd 6e40 d23a 040c 0f3d 7dbb 973c
000002e0: 74bb 7cbd fbec cebc 339c 9dbd feaf 0cbd
000002f0: 81ea a43d 7322 b0bd 01dd 9fbd 7ce9 a2bc
00000300: 4f97 f3bb ea20 f93c cdc0 38bd 6ef0 8b3d
00000310: f92f 1fbd abca c73b 20a5 b3bc 6727 913d
00000320: af00 bfbd 0e07 bdbd 2b50 be3c bb4d 393d
00000330: b7e4 97bd 265f c23b d987 263c 7fed 9dbc
00000340: 9f11 0c3d 2c84 c83d 8c48 853c 725e cebc
00000350: 8005 b3bc 0a84 52bd 81b8 51bd bf42 bbbd
00000360: 3b76 97bd f8c9 29be e70f 513d 7d61 8e3c
00000370: 081f 99bc e0fe 413d 42ef 753b 4a78 3d3d
00000380: 2915 d2bd 8ea5 86bd 0ffa ea3b 809c 323d
00000390: 3b16 09be 77dc edbb bba3 dfbb 078e 3e3d
000003a0: 27b9 ecbd e379 5bbd 688c dabd ed62 513d
000003b0: 2d7f 223c ef74 373c 6852 0d3c db4d eb3c
000003c0: 3b28 ef3b 729c 153d fdd6 2a3d 0126 d43d
000003d0: b444 19bd d537 a53c 6a9b 90bc d759 a43d
000003e0: b633 ea3c 2904 00bc 7478 b2bc b33c 8cbd
000003f0: 15b4 263a 7a77 053d 293e 11bd f942 063d

network.4.bias f4 [64]
-5.503667e-07 2.8975919e-07 3.3207826e-07 2.3581065e-07 1.2224197e-06 -1.3749215e-06 1.0253233e-07 -1.1012442e-06
6.521506e-07 1.3028991e-06 -2.455926e-08 6.2454785e-07 -1.5493276e-08 -2.0977227e-07 -2.8532946e-07 -5.830378e-07
6.0615974e-07 -6.020606e-07 4.3498076e-07 -4.38335e-09 -5.4520524e-07 7.0061094e-07 7.076933e-08 2.8144188e-07
-1.0420567e-06 -6.156827e-07 -2.6442999e-07 4.270136e-07 3.4527025e-07 -7.147318e-07 1.379322e-07 -5.673794e-07
7.0511703e-07 -1.1163065e-06 -1.928361e-07 -5.065027e-07 -7.420718e-07 9.756295e-07 4.516491e-07 -6.3354855e-07
-1.3585374e-07 3.720933e-07 1.6695333e-07 -2.3052243e-07 3.2890202e-07 4.1761027e-07 1.5488739e-06 7.4379005e-07
2.6702602e-07 -3.1216206e-07 -6.371689e-07 -5.5089663e-07 -1.2016701e-06 1.6263152e-06 1.3730966e-06 -4.7124786e-08
1.0688627e-06 1.2649677e-07 -4.970177e-07 -3.7679087e-09 1.5622723e-07 6.5315925e-07 1.9872355e-07 -2.5513322e-07
00000000: e9bc 13b5 3390 9b34 7d48 b234 2333 7d34
00000010: 0512 a435 f189 b8b5 bf2f dc33 76ce 93b5
00000020: 730f 2f35 46df ae35 62f6 d2b2 9aa6 2735
00000030: 1316 85b2 c33d 61b4 622f 99b4 0d82 1cb5
00000040: fbb6 2235 4a9d 21b5 4d87 e934 5b9c 96b1
00000050: 385a 12b5 9e11 3c35 daf9 9733 1419 9734
00000060: ccdc 8bb5 6545 25b5 fbf6 8db4 4d40 e534
00000070: 955d b934 ffdb 3fb5 841a 1434 044e 18b5
00000080: 4647 3d35 00d4 95b5 620e 4fb4 9af6 07b5
00000090: c932 47b5 60f2 8235 2e7a f234 2011 2ab5
000000a0: 31df 11b4 1dc4 c734 c843 3334 8685 77b4
000000b0: f393 b034 eb33 e034 e7e2 cf35 dda8 4735
000000c0: c75b 8f34 3a97 a7b4 ea09 2bb5 54e1 13b5
000000d0: 1249 a1b5 c447 da35 3d4b b835 4066 4ab3
000000e0: d875 8f35 2bd3 0734 cc6a 05b5 e076 81b1
000000f0: 6abf 2734 c354 2f35 b760 5534 3ef9 88b4

network.5.weight f4 [64]
0.9971575 0.9840115 0.96132463 0.99661183 1.0356339 0.9579962 0.94432557 1.0368533
0.96453035 0.9975115 0.97236896 0.91237515 1.0323546 1.0111284 0.9607571 1.0120412
0.99899876 1.0072558 0.98618674 1.0342284 0.9165397 0.9466288 0.96428853 0.97633404
0.99616706 1.029596 0.9304975 0.9615342 1.031076 0.9635893 0.9324928 0.9525111
0.91701186 0.9594002 0.96604097 0.967687 1.0263861 1.0602912 0.97407347 0.9628199
1.0354824 0.9979359 1.0051408 0.94236493 1.0195336 1.017108 0.9936221 1.0092235
1.0355077 0.9588811 0.9718541 1.0142745 1.0138048 0.9830698 0.9833506 0.991632
0.9580415 1.0175917 0.94616604 1.0713792 0.9517475 0.94823265 0.9868524 0.99176925
00000000: b745 7f3f 2de8 7b3f 5f19 763f f421 7f3f
00000010: a78f 843f 3d3f 753f 52bf 713f 9cb7 843f
00000020: 76eb 763f ea5c 7f3f 2ced 783f 6b91 693f
00000030: 3224 843f a86c 813f 2df4 753f 918a 813f
00000040: 62be 7f3f c2ed 803f bc76 7c3f 9961 843f
00000050: 59a2 6a3f 4456 723f 9ddb 763f 07f1 793f
00000060: ce04 7f3f cdc9 833f 1635 6e3f 1b27 763f
00000070: 4cfa 833f caad 763f d9b7 6e3f c4d7 733f
00000080: 4ac1 6a3f 409b 753f 764e 773f 56ba 773f
00000090: 9f60 833f 9fb7 873f e15c 793f 5d7b 763f
000000a0: b08a 843f ba78 7f3f 74a8 803f d43e 713f
000000b0: 1480 823f 9830 823f 055e 7e3f 3c2e 813f
000000c0: 848b 843f 3b79 753f 6ecb 783f bfd3 813f
000000d0: 5bc4 813f 76aa 7b3f ddbc 7b3f 98db 7d3f
000000e0: 3542 753f 7240 823f f037 723f f422 893f
000000f0: b9a5 733f 60bf 723f 5ca2 7c3f 97e4 7d3f

network.5.bias f4 [64]
-0.024822103 0.0014629309 -0.10221854 -0.058200713 -0.09439277 -0.056282133 -0.019021234 -0.10041183
-0.031481422 -0.05839862 -0.074021816 -0.14497171 -0.019404387 -0.07622605 -0.054305412 -0.124708034
-0.020534847 -0.09666594 -0.012992601 -0.09331327 -0.117187046 -0.0954865 0.016741809 -0.180555
-0.12511471 -0.060157295 -0.060598414 -0.095026664 -0.11470884 -0.081099115 -0.012716072 -0.08357395
-0.07228476 -0.08615673 -0.012496437 -0.012191635 -0.06891533 0.008215689 0.009080903 -0.0083962465
-0.12232521 -0.022534916 -0.015512879 -0.08995792 -0.12860993 -0.05388226 -0.09591943 -0.06470582
-0.037262198 -0.08137056 0.008271256 -0.06905156 -0.09948739 -0.0976273 -0.096635915 0.01679319
-0.025099955 -0.20501225 -0.10805846 -0.049372733 -0.077509396 -0.10091589 0.023328414 -0.1673746
00000000: b957 cbbc d1bf bf3a f457 d1bd df63 6ebd
00000010: ff50 c1bd 1888 66bd 6bd2 9bbc b8a4 cdbd
00000020: aaf2 00bd 6433 6fbd c098 97bd 7773 14be
00000030: f3f5 9ebc 671c 9cbd 5a6f 5ebd ed66 ffbd
00000040: b238 a8bc cbf8 c5bd ebde 54bc 071b bfbd
00000050: c3ff efbd 6d8e c3bd 1e26 893c 69e3 38be
00000060: 121e 00be 7f67 76bd 0b36 78bd 579d c2bd
00000070: 78ec eabd 4b17 a6bd 1257 50bc d228 abbd
00000080: 080a 94bd f172 b0bd dbbd 4cbc 6cbf 47bc
00000090: 7b23 8dbd 199b 063c 11c8 143c 6990 09bc
000000a0: a485 fabd 259b b8bc bb29 7ebc dc3b b8bd
000000b0: 52b2 03be a5b3 5cbd 6871 c4bd 7c84 84bd
000000c0: 3fa0 18bd 9ca5 a6bd 2a84 073c e76a 8dbd
000000d0: 0bc0 cbbd d2f0 c7bd 0de9 c5bd df91 893c
000000e0: 6c9e cdbc bbee 51be c14d ddbd 103b 4abd
000000f0: 3fbd 9ebd fdac cebd 3b1b bf3c 3f64 2bbe

network.5.running_mean f4 [64]
-0.79647374 -0.2335063 -0.08013004 -0.2992792 -0.2798311 0.06369761 -0.19201306 -0.56956077
-0.39249876 -0.3787065 -0.44049865 0.10729526 0.20305133 -0.26408806 -0.3772275 -0.29914787
-0.51358044 -0.477519 -0.04030857 0.6381252 -0.20339619 -0.22257398 -0.18264109 -0.13434796
0.015410442 -0.2534637 0.44947615 0.26370588 0.18870239 -0.025782509 0.45652267 0.22912863
-0.5075783 -0.18782291 0.33008522 -0.31772366 -0.14606047 -0.7727263 -0.07659994 0.21388
0.62427497 -0.034799185 -0.00392822 0.08292183 0.05865884 -0.4045586 0.23536661 -0.10868151
-0.39830986 0.047469996 -0.5773199 -0.19677784 -0.32907596 0.029926855 -0.11814217 -0.8970512
-0.114989884 -0.36047578 -0.33130416 -0.39098644 -0.29042658 0.108923145 -0.38917986 -0.5302894
00000000: b4e5 4bbf 471c 6fbe 381b a4bd 203b 99be
00000010: 0646 8fbe e473 823d 129f 44be bcce 11bf
00000020: 99f5 c8be d2e5 c1be 0a89 e1be 9ebd db3d
00000030: b0ec 4f3e 8d36 87be f623 c1be e929 99be
00000040: 027a 03bf 5f7d f4be 991a 25bd 2c5c 233f
00000050: 1747 50be 6fea 63be 4406 3bbe 8392 09be
00000060: 147c 7c3c fec5 81be bd21 e63e 7504 873e
00000070: 333b 413e d735 d3bc 57bd e93e b2a0 6a3e
00000080: a7f0 01bf a654 40be ee00 a93e adac a2be
00000090: e090 15be 64d1 45bf 6ee0 9cbd 5c03 5b3e
000000a0: 7cd0 1f3f 9789 0ebd 4cb8 80bb ecd2 a93d
000000b0: 4044 703d 4e22 cfbe f203 713e 6994 debd
000000c0: 45ef cbbe e66f 423d 3dcb 13bf 2180 49be
000000d0: a57c a8be 2a29 f53c 86f4 f1bd 26a5 65bf
000000e0: d17f ebbd 4890 b8be b3a0 a9be 602f c8be
000000f0: cbb2 94be 1913 df3d 9542 c7be 0cc1 07bf

network.5.running_var f4 [64]
0.21449278 0.20470263 0.22621138 0.15335864 0.17182831 0.14795335 0.3266697 0.22208281
0.14999591 0.15200506 0.11933775 0.15321675 0.28626838 0.22771159 0.31847233 0.1606202
0.2528863 0.2465386 0.35839272 0.17167519 0.22317137 0.10689344 0.29413506 0.15766248
0.1520817 0.21637872 0.3468162 0.19399916 0.197648 0.24706973 0.35521692 0.18899524
0.4013294 0.16232029 0.33113527 0.29874948 0.1557558 0.26038936 0.24109846 0.29263338
0.18282181 0.1863375 0.28780603 0.09509035 0.27923942 0.17900296 0.15284845 0.22214252
0.25981385 0.16311908 0.30361122 0.1716711 0.21925248 0.14159799 0.2514316 0.4868733
0.13370414 0.11641985 0.16138929 0.18180339 0.21071582 0.28615847 0.31681052 0.17567673
00000000: ffa3 5b3e 919d 513e f5a3 673e 0c0a 1d3e
00000010: c3f3 2f3e 1581 173e 4041 a73e ad69 633e
00000020: 8798 193e 37a7 1b3e 5a67 f43d dae4 1c3e
00000030: c591 923e 3a2d 693e ce0e a33e 9f79 243e
00000040: 507a 813e 9d74 7c3e 407f b73e 9fcb 2f3e
00000050: 0987 643e f3ea da3d df98 963e 4672 213e
00000060: 4ebb 1b3e 6292 5d3e e591 b13e b7a7 463e
00000070: 3d64 4a3e d9ff 7c3e fede b53e f887 413e
00000080: 0c7b cd3e 4a37 263e 908a a93e b1f5 983e
00000090: 737e 1f3e c151 853e 84e2 763e 0bd4 953e
000000a0: a435 3b3e 42cf 3e3e 505b 933e bbbe c23d
000000b0: 78f8 8e3e 8d4c 373e 4e84 1c3e 5479 633e
000000c0: 5206 853e b008 273e ee72 9b3e 8dca 2f3e
000000d0: b983 603e 10ff 103e a5bb 803e 7547 f93e
000000e0: bde9 083e 886d ee3d 3c43 253e ab2a 3a3e
000000f0: e3c5 573e 5d83 923e fd34 a23e 9ae4 333e

network.8.weight f4 [32, 64]
0.02334086 0.022451185 0.07062979 -0.13311027 -0.04379523 0.118471935 0.0051824227 -0.10216719
0.12651637 -0.10011212 0.046961654 0.016466934 0.0782538 -0.06708549 -0.115902446 -0.11035502
0.095373474 -0.12537764 -0.064215064 0.089170024 -0.06930231 -0.04754105 0.06288841 0.0038583258
-0.060016494 -0.042155325 0.047562595 -0.02159055 0.06053344 -0.1346769 -0.11206871 -0.063130595
-0.10625703 0.0610376 -0.034001097 0.07397011 0.036711883 -0.13664809 -0.014336606 -0.020238927
0.07115614 -0.023958866 -0.035945654 -0.004146818 0.07523596 0.014284393 0.09152104 -0.037487786
0.030095786 0.07500033 -0.021771062 -0.07532617 -0.05451557 -0.051927544 0.12700942 -0.018554902
0.039907914 0.013325132 -0.093683586 0.09309832 -0.06165027 0.011155105 0.097385176 -0.046448912
-0.046948574 0.009398497 0.038827915 0.06331184 0.08676156 0.009585701 -0.13736603 -0.13765179
0.034285408 -0.0016798321 -0.1074975 -0.041001923 -0.040546503 -0.020245047 -0.06649117 0.06260849
0.13277894 -0.07897069 0.06404288 0.0381294 0.020835198 0.13684526 -0.16631484 -0.12079159
0.030514656 0.0136773065 -0.02281069 -0.054632455 0.09102199 0.0533792 -0.13458098 0.10336184
0.030476447 0.021038007 0.10490734 0.09109233 0.027535575 -0.13345367 0.074670665 -0.09036086
0.09819797 -0.04079097 0.07323831 -0.06305603 0.07988864 -0.0008076307 -0.082381904 -0.047765464
-0.021691665 -0.0291933 -0.12995256 -0.11238057 -0.08825136 0.07620365 -0.075042866 -0.05641024
0.07868193 -0.1643609 -0.123666786 -0.0047799638 0.009570565 -0.036976967 -0.14863473 -0.008770509
-0.07879603 0.05035712 0.06990632 0.18256861 -0.0543132 -0.052447703 -0.0012447063 -0.030662064
-0.081963494 0.009088044 -0.11417367 0.02720216 -0.030593555 -0.14789456 -0.05623443 -0.10019083
0.028820744 0.012762447 -0.12003323 0.19894433 0.06233419 -0.090967044 0.012960943 0.018207556
-0.025077669 -0.11395949 -0.09772697 0.15557843 0.09168805 0.04773154 -0.12300521 0.04871364
-0.07732245 0.13812251 -0.031238213 0.17012687 -0.0323303 -0.0012848097 0.1192405 0.08633483
0.10117819 -0.07558221 -0.034693018 0.04682873 -0.06794228 0.0010436182 0.12669021 0.008862251
-0.03336609 0.009925689 -0.08798466 -0.044264443 -0.13239017 0.11777866 0.148943 0.058701314
0.0028682512 0.035882175 0.05269874 0.036725547 -0.034506705 -0.022066997 -0.07357881 -0.07280796
0.03207865 -0.07503271 0.006699807 -0.12237288 0.09913758 -0.04401194 -0.07459685 -0.008982853
0.04160101 -0.087646216 0.027830645 -0.114948265 0.14005575 -0.041442625 -0.15368079 -0.042991426
-0.0825096 -0.03801719 0.021288244 -0.086499564 0.10708899 -0.018846445 0.010825808 0.05340209
-0.033428878 0.19734079 -0.05985921 -0.063449 -0.08922743 -0.022625012 0.008832177 -0.026669987
0.07876826 -0.08880109 0.009648946 0.030593567 0.11672945 -0.18338697 0.04991678 -0.07232665
-0.012413809 -0.11331538 -0.02531371 0.017142758 -0.041640136 -0.08086452 -0.04525684 -0.050288547
-0.013629554 0.14914678 -0.076938555 -0.049240615 0.034568775 -0.016493892 -0.16093153 -0.03396348
0.0073266914 -0.068754144 0.014808695 0.04358918 -0.069894254 -0.1012237 -0.09193558 0.15884613
00000000: 5535 bf3c 8ceb b73c 5aa6 903d 0f4e 08be
00000010: a162 33bd 6aa1 f23d 50d1 a93b 083d d1bd
00000020: 828d 013e 9507 cdbd dd5a 403d aae5 863c
00000030: 8743 a03d 1e64 89bd 435e edbd d001 e2bd
00000040: 2b53 c33d ff62 00be 3083 83bd c69e b63d
00000050: 5fee 8dbd 67ba 42bd a4cb 803d f7db 7c3b
00000060: dbd3 75bd 10ab 2cbd ffd0 423d aade b0bc
00000070: eaf1 773d bee8 09be 4884 e5bd 9d4a 81bd
00000080: 499d d9bd 9002 7a3d bc44 0bbd a47d 973d
00000090: 335f 163d 7aed 0bbe 15e4 6abc 1bcc a5bc
000000a0: 4fba 913d 6245 c4bc c03b 13bd 08e2 87bb
000000b0: 5015 9a3d 1609 6a3c 626f bb3d cb8c 19bd
000000c0: 708b f63c c699 993d 3a59 b2bc 9b44 9abd
000000d0: b84b 5fbd fab1 54bd c20e 023e 7300 98bc
000000e0: 7b76 233d a851 5a3c 2edd bfbd 55aa be3d
000000f0: fe84 7cbd e7c3 363c e171 c73d 3741 3ebd
00000100: 264d 40bd 27fc 193c 050a 1f3d a3a9 813d
00000110: 0bb0 b13d 580d 1d3c aea9 0cbe 97f4 0cbe
00000120: db6e 0c3d d02d dcba a627 dcbd a2f1 27bd
00000130: 1714 26bd f1d8 a5bc 862c 88bd e138 803d
00000140: 34f7 073e 63bb a1bd ea28 833d 932d 1c3d
00000150: 94ae aa3c 2a21 0c3e 704e 2abe 9561 f7bd
00000160: dff9 f93c c816 603c 7cdd babc 48c6 5fbd
00000170: bd69 ba3d 26a4 5a3d 99cf 09be 5faf d33d
00000180: bea9 f93c e657 ac3c a9d9 d63d 9e8e ba3d
00000190: 4992 e13c 14a8 08be efec 983d 1d0f b9bd
000001a0: 041c c93d 6f14 27bd f8fd 953d 8523 81bd
000001b0: a89c a33d 2eb7 53ba d8b7 a8bd b8a5 43bd
000001c0: b8b2 b1bc ca26 efbc 4912 05be c927 e6bd
000001d0: 21bd b4bd a910 9c3d 13b0 99bd 6c0e 67bd
000001e0: fe23 a13d 394e 28be 0345 fdbd 3ea1 9cbb
000001f0: dccd 1c3c 2975 17bd b433 18be 2eb2 0fbc
00000200: d05f a1bd 4443 4e3d 0b2b 8f3d 44f3 3a3e
00000210: 8577 5ebd 67d3 56bd 6a25 a3ba 022f fbbc
00000220: 7adc a7bd 05e6 143c e3d3 e9bd 10d7 de3c
00000230: 569f fabc ac71 17be 1356 66bd da30 cdbd
00000240: 7b19 ec3c 9519 513c fbd3 f5bd 10b8 4b3e
00000250: 2352 7f3d ee4c babd 235a 543c 0328 953c
00000260: af6f cdbc 9863 e9bd 1425 c8bd f44f 1f3e
00000270: f2c6 bb3d 2682 433d 28ea fbbd f487 473d
00000280: 3c5b 9ebd fd6f 0d3e 48e7 ffbc bd35 2e3e
00000290: c76c 04bd 0f67 a8ba 5d34 f43d 51d0 b03d
000002a0: 8336 cf3d d9ca 9abd 441a 0ebd 7bcf 3f3d
000002b0: 5225 8bbd 04ca 883a 14bb 013e fa32 113c
000002c0: e2aa 08bd 5b9f 223c 4d31 b4bd a24e 35bd
000002d0: 4a91 07be f035 f13d 8484 183e ca70 703d
000002e0: 45f9 3b3b 30f9 123d a2da 573d 876d 163d
000002f0: e756 0dbd d9c5 b4bc 7db0 96bd 571c 95bd
00000300: e764 033d c0aa 99bd 0e8a db3b a29e fabd
00000310: a508 cb3d dd45 34bd 3cc6 98bd d12c 13bc
00000320: d265 2a3d dc7f b3bd 18fd e33c ff69 ebbd
00000330: c66a 0f3e bebf 29bd 7f5e 1dbe c717 30bd
00000340: cbfa a8bd eab7 1bbd af64 ae3c af26 b1bd
00000350: 7951 db3d dc63 9abc bb5e 313c 26bc 5a3d
00000360: b8ec 08bd b413 4a3e ee2e 75bd 8df1 81bd
00000370: dfbc b6bd 1758 b9bc d6b4 103c 047b dabc
00000380: 4151 a13d 59dd b5bd 9d16 1e3c 5c9f fa3c
00000390: da0f ef3d cbc9 3bbe 8a75 4c3d ff1f 94bd
000003a0: 4a63 4bbc e511 e8bd b35e cfbc f86e 8c3c
000003b0: d98e 2abd 4c9c a5bd 3c5f 39bd 5dfb 4dbd
000003c0: 7e4e 5fbc efb9 183e f691 9dbd 87b0 49bd
000003d0: fd97 0d3d 331e 87bc 3ccb 24be 4a1d 0bbd
000003e0: be14 f03b f9ce 8cbd 2ba0 723c 918a 323d
000003f0: b824 8fbd 5f4e cfbd b948 bcbd 8fa8 223e

network.8.bias f4 [32]
-5.058892e-07 8.196377e-07 -5.411769e-07 1.4108032e-07 8.511731e-08 5.200433e-07 -4.926305e-07 -2.616843e-07
-1.4184354e-06 -4.3764163e-07 5.671739e-07 -7.700574e-07 4.831817e-07 3.3504517e-07 -6.8520086e-07 -4.5295167e-07
-1.7011912e-07 9.591033e-07 -3.624944e-08 -3.5883428e-07 -6.425024e-07 1.9828981e-07 5.180029e-07 5.345164e-08
1.3002915e-06 2.6035394e-07 -2.9305278e-07 1.8669759e-07 -6.973183e-07 -7.172899e-07 2.7981284e-07 -3.7282214e-07
00000000: 71cc 07b5 1305 5c35 6545 11b5 dd7b 1734
00000010: bcc9 b633 1a99 0b35 4f3d 04b5 9e7d 8cb4
00000020: 1261 beb5 02f5 eab4 e53f 1835 f1b5 4eb5
00000030: feb3 0135 42e0 b334 a5ee 37b5 342d f3b4
00000040: fda9 36b4 8aba 8035 aeb0 1bb3 cfa5 c0b4
00000050: 6e78 2cb5 7de9 5434 e30c 0b35 b392 6533
00000060: ad85 ae35 c6c6 8b34 de54 9db4 0b77 4834
00000070: 592f 3bb5 c98b 40b5 2f39 9634 4928 c8b4

network.9.weight f4 [32]
1.4801977 1.4305813 1.4186803 1.5006982 1.4952135 1.4468086 1.361578 1.4134694
1.4183028 1.4215817 1.424387 1.4861242 1.4635031 1.3329006 1.4186513 1.4682604
1.4609948 1.4731995 1.4968092 1.4826758 1.4775289 1.4865395 1.4245538 1.338288
1.375006 1.4501097 1.3892612 1.3951496 1.4032102 1.4194548 1.4413404 1.40246
00000000: 1e77 bd3f 4a1d b73f 5197 b53f e116 c03f
00000010: 2863 bf3f 0631 b93f 3048 ae3f 91ec b43f
00000020: f28a b53f 64f6 b53f 5052 b63f 5139 be3f
00000030: 1254 bb3f 7d9c aa3f 5e96 b53f f5ef bb3f
00000040: e101 bb3f cd91 bc3f 7297 bf3f 52c8 bd3f
00000050: ab1f bd3f ed46 be3f c757 b63f 054d ab3f
00000060: 3200 b03f 329d b93f 50d3 b13f 4394 b23f
00000070: 649c b33f b2b0 b53f d87d b83f cf83 b33f

network.9.bias f4 [32]
0.32363105 0.28720602 0.24666215 0.36521617 0.3366989 0.27365372 0.1826017 0.31516364
0.23352331 0.28387895 0.31444716 0.2837672 0.34218276 0.22140773 0.33978498 0.3665277
0.32928336 0.2823305 0.40818882 0.34560898 0.3296234 0.33862355 0.34399927 0.20959419
0.22862422 0.3028026 0.30123323 0.2998608 0.2559832 0.28368354 0.29763666 0.3228678
00000000: f8b2 a53e ab0c 933e 0195 7c3e 9dfd ba3e
00000010: cc63 ac3e 571c 8c3e f1fb 3a3e 215d a13e
00000020: bc20 6f3e 9558 913e 38ff a03e ef49 913e
00000030: 9432 af3e b5b8 623e 4cf8 ad3e 85a9 bb3e
00000040: d497 a83e a08d 903e 20fe d03e a9f3 b03e
00000050: 66c4 a83e 1160 ad3e ac20 b03e dc9f 563e
00000060: 781c 6a3e f108 9b3e 3e3b 9a3e 5b87 993e
00000070: 3b10 833e f83e 913e d563 983e ee4e a53e

network.9.running_mean f4 [32]
-0.14852883 -0.31226575 0.0434997 -0.46338475 -0.10749793 -0.0840586 0.072060555 0.27667856
-0.1671266 -0.2711458 0.08700962 0.1985287 -0.081434354 -0.18802458 -0.19104981 -0.39368966
-0.018959003 -0.13542876 -0.11178155 -0.05809167 -0.22663292 -0.12689857 0.07853361 -0.44855848
-0.08618896 0.21947666 0.11246578 -0.2343042 -0.10545455 -0.09780342 -0.0055509647 0.2711708
00000000: f117 18be 4ce1 9fbe be2c 323d c440 edbe
00000010: e027 dcbd ea26 acbd 7c94 933d d0a8 8d3e
00000020: 3c23 2bbe 9fd3 8abe 1a32 b23d 1c4b 4b3e
00000030: 0ec7 a6bd 8489 40be 90a2 43be b191 c9be
00000040: e94f 9bbc d6ad 0abe baed e4bd 88f1 6dbd
00000050: 7612 68be b3f1 01be 3bd6 a03d 75a9 e5be
00000060: d683 b0bd 7dbe 603e 7554 e63d 71ed 6fbe
00000070: 8ef8 d7bd 294d c8bd dee4 b5bb e6d6 8a3e

network.9.running_var f4 [32]
0.20026034 0.11782854 0.19741555 0.2348999 0.25528657 0.1573688 0.186793 0.33216146
0.097008415 0.19240488 0.240103 0.19197363 0.17137794 0.15636404 0.20500691 0.25968057
0.18691832 0.19416 0.27567124 0.18304744 0.20050357 0.25203913 0.2783615 0.10678112
0.100334905 0.24564455 0.1590053 0.21954337 0.14111252 0.15905836 0.26635182 0.26476943
00000000: 0c11 4d3e 1750 f13d 4d27 4a3e 9989 703e
00000010: ecb4 823e 4925 213e aa46 3f3e 1111 aa3e
00000020: 59ac c63d c905 453e 90dd 753e bc94 443e
00000030: b37d 2f3e e51d 203e 55ed 513e daf4 843e
00000040: 8467 3f3e e1d1 463e c824 8d3e ca70 3b3e
00000050: cf50 4d3e 460b 813e 6685 8e3e 0fb0 da3d
00000060: 637c cd3d 3f8a 7b3e 49d2 223e facf 603e
00000070: cd7f 103e 32e0 223e 445f 883e dc8f 873e
