models/neural_network.pth (torch, 62953 bytes, 20 tensors)

network.0.weight f4 [128, 16]
0.1391406 0.07814893 0.043024234 -0.01640718 0.005561167 0.12400062 0.13787316 -0.038583055
-0.108962685 -0.20633373 0.014824421 0.22363482 -0.1951698 0.22529632 -0.13133141 -0.15607445
0.0223191 0.21715248 -0.0017514548 0.10030752 0.23986223 0.21435556 0.06751311 -0.08769967
0.10620322 -0.1914019 0.098606825 -0.25247473 -0.02713993 0.20490578 -0.042840093 0.12324366
-0.04462227 0.11740794 -0.1420618 -0.18859845 -0.14478545 0.046649966 0.055405725 0.06460947
-0.23275359 0.092593215 -0.27904356 0.050414473 -0.25488803 -0.16970737 0.09997617 -0.09556287
-0.0027562105 0.05846272 0.13789001 0.059323926 0.3476276 -0.18044376 0.12717834 -0.02080439
0.023155842 -0.0260365 0.24470083 -0.0694488 0.10306523 0.073121905 -0.03132015 0.25203857
0.12172192 0.21838242 0.14573315 -0.13495891 0.10221669 0.09263812 -0.18212415 0.05640675
0.1319071 0.116372444 -0.13629763 -0.1512807 0.16028517 -0.014423446 0.24723466 -0.22129925
0.17156492 0.058857217 -0.16725099 0.15904872 -0.18128078 0.21209311 0.15639539 -0.08026525
0.030621404 0.17136031 0.24599649 0.1092652 0.004622354 0.3504641 -0.18132599 -0.047279157
0.1825188 0.1556146 -0.11851652 0.117282845 -0.013322423 0.043996803 0.12946543 0.16957507
-0.11271232 0.20874429 0.21988575 -0.1310561 0.021140732 0.013895506 0.027148588 0.07839553
0.15018626 0.09245979 0.045126274 -0.20475839 0.26690128 0.011907873 0.18216243 -0.01202516
-0.2467055 0.034130014 0.2214502 -0.07769114 -0.06051852 0.20141664 -0.11050186 0.18263033
-0.0025051197 0.24383429 -0.11174527 -0.13750319 0.005161933 0.07767264 -0.13044283 0.033903033
0.0067497296 -0.2469837 0.22026539 0.13305172 0.120696604 -0.12672833 0.11909649 0.26728937
-0.0145100625 -0.08777812 0.21196052 0.09507369 0.111946285 -0.14525585 -0.22244298 0.18668815
-0.08944263 0.10687443 0.040125065 -0.080074236 0.023341237 0.04339295 -0.121841244 -0.025807226
0.033242065 -0.16504818 -0.05422785 0.1491194 0.17224278 -0.2121678 -0.11087349 0.06518041
-0.17672203 0.24438967 -0.025041291 -0.18228465 0.1435124 0.26622552 0.28574666 -0.056849137
0.16647246 -0.08081788 -0.108787 -0.15869598 -0.25877094 -0.22220244 -0.104323424 0.13916063
0.012692983 0.14101748 0.0013627034 -0.03230568 0.103085995 -0.026452838 0.19219242 -0.16098298
0.18259066 0.19382946 -0.17341314 -0.051794842 -0.006108261 -0.30003947 -0.036276676 0.20899533
-0.18470213 0.32593095 -0.04022077 0.028494917 0.04132162 0.05149063 0.25223282 -0.11002927
-0.048864666 0.28021803 -0.015860148 -0.17875585 -0.12425839 -0.097351015 -0.06270072 -0.18712634
-0.06609403 -0.2022086 0.17236108 0.009950663 0.07544512 0.049764603 0.17081134 0.28344274
-0.028118152 -0.10113779 -0.05458762 0.26874557 0.17433946 -0.15618953 0.12855187 -0.22172278
0.071267806 0.20633757 0.21696281 0.0073783137 -0.07669023 0.22521096 0.035537492 -0.08735758
-0.32958168 -0.004832105 -0.15205161 -0.085976966 -0.079410024 -0.09132703 0.26486155 -0.016418742
0.11589067 -0.11854336 -0.18148534 0.083467044 -0.07097993 0.13638917 -0.014393209 0.16772269
00000000: e07a 0e3e 8c0c a03d 2e3a 303d 5a68 86bc
00000010: 733a b63b 09f4 fd3d 9f2e 0d3e 4409 1ebd
00000020: d427 dfbd 2649 53be 21e2 723c 8700 653e
00000030: 98da 47be 14b4 663e be7b 06be fbd1 1fbe
00000040: 8cd6 b63c 385d 5e3e 1291 e5ba 076e cd3d
00000050: 729e 753e 0680 5b3e 5044 8a3d e29b b3bd
00000060: 1381 d93d dcfe 43be 60f2 c93d 5e44 81be
00000070: 8f54 debc d2d2 513e 1879 2fbd 2c67 fc3d
00000080: d7c5 36bd 9373 f03d a678 11be f41f 41be
00000090: a342 14be 0914 3f3d 1df1 623d f851 843d
000000a0: f556 6ebe 83a1 bd3d ccde 8ebe 687f 4e3d
000000b0: af80 82be c5c7 2dbe 4ec0 cc3d 77b6 c3bd
000000c0: 8aa1 34bb 9b76 6f3d 0a33 0d3e a5fd 723d
000000d0: 3ffc b13e 40c6 38be 0a3b 023e f86d aabc
000000e0: 52b1 bd3c 804a d5bc db92 7a3e 2c3b 8ebd
000000f0: dd13 d33d f0c0 953d 8f49 00bd 330b 813e
00000100: 5849 f93d a49f 5f3e 123b 153e ab32 0abe
00000110: fc56 d13d 0eb9 bd3d c17e 3abe c40a 673d
00000120: a812 073e ad54 ee3d 9b91 0bbe 54e9 1abe
00000130: cc21 243e 5150 6cbc 152b 7d3e 459c 62be
00000140: b7ae 2f3e 4414 713d d843 2bbe abdd 223e
00000150: aba1 39be f02e 593e 1d26 203e 1b62 a4bd
00000160: bdd9 fa3c 1479 2f3e 81e6 7b3e 6fc6 df3d
00000170: 1e77 973b 0870 b33e 85ad 39be caa7 41bd
00000180: 35e6 3a3e 6f59 1f3e cab8 f2bd fd31 f03d
00000190: 4b46 5abc fe35 343d 9692 043e 16a5 2d3e
000001a0: b8d5 e6bd 10c1 553e bb29 613e 9233 06be
000001b0: 542f ad3c faa9 633c b766 de3c d68d a03d
000001c0: 6dca 193e 8f5b bd3d 54d6 383d 2fac 51be
000001d0: 49a7 883e 3d19 433c ca88 3a3e 2d05 45bc
000001e0: 5ea0 7cbe eacb 0b3d d7c3 623e 881c 9fbd
000001f0: 45e2 77bd 2a40 4e3e cd4e e2bd 7203 3b3e
00000200: ef2c 24bb b2af 793e b4da e4bd a3cd 0cbe
00000210: 6f25 a93b d512 9f3d ce92 05be e8dd 0a3d
00000220: d62c dd3b 4ce9 7cbe 408d 613e b63e 083e
00000230: c82f f73d 12c5 01be dce8 f33d 27da 883e
00000240: 9dbb 6dbc 04c5 b3bd 2e0c 593e ffb5 c23d
00000250: 1844 e53d f3bd 14be 18c8 63be 2e2b 3f3e
00000260: b32d b7bd fbe0 da3d 2e5a 243d f6fd a3bd
00000270: 1f36 bf3c cebc 313d e787 f9bd ad69 d3bc
00000280: d528 083d 6402 29be 061e 5ebd c2b2 183e
00000290: 6960 303e 8442 59be a411 e3bd 4f7d 853d
000002a0: 9ff6 34be 4941 7a3e 6523 cdbc d4a8 3abe
000002b0: eaf4 123e b64e 883e 634d 923e a4da 68bd
000002c0: c277 2a3e d883 a5bd b8cb debd 3381 22be
000002d0: a07d 84be 0989 63be 85a7 d5bd 2080 0e3e
000002e0: 3bf6 4f3c e366 103e bd9c b23a f652 04bd
000002f0: c01e d33d 9fb3 d8bc 17ce 443e b9d8 24be
00000300: 0cf9 3a3e 3b7b 463e 3793 31be d426 54bd
00000310: cf27 c8bb c69e 99be da96 14bd df02 563e
00000320: 8e22 3dbe 6ce0 a63e 89be 24bd 2c6e e93c
00000330: dc40 293d d7e7 523d a924 813e 0757 e1bd
00000340: 5126 48bd bd78 8f3e 24ed 81bc c60b 37be
00000350: 2f7b febd f85f c7bd 3c69 80bd 0c9e 3fbe
00000360: 4f5c 87bd c50f 4fbe 6c7f 303e 1b08 233c
00000370: f982 9a3d f8d5 4b3d 2be9 2e3e 681f 913e
00000380: 0a58 e6bc 5421 cfbd 4597 5fbd 0599 893e
00000390: 0b86 323e 26f0 1fbe 1aa3 033e 4c0b 63be
000003a0: dbf4 913d 284a 533e 802b 5e3e c8c5 f13b
000003b0: c40f 9dbd b49d 663e c38f 113d 88e8 b2bd
000003c0: eebe a8be a256 9ebb 6bb3 1bbe b114 b0bd
000003d0: b9a1 a2bd aa09 bbbd ef9b 873e 9980 86bc
000003e0: 1658 ed3d dcc6 f2bd 4bd7 39be c5f0 aa3d
000003f0: ed5d 91bd 9aa9 0b3e 7ed1 6bbc 7fbf 2b3e

network.0.bias f4 [128]
8.435805e-07 -8.200277e-07 3.5254138e-06 -3.6092192e-07 2.7394404e-07 -1.1075356e-06 2.3676146e-06 -1.0160848e-06
-2.8090537e-06 1.6090514e-06 2.3945026e-06 -5.817679e-07 -2.2513332e-06 2.6035545e-06 -8.607888e-07 1.07394835e-05
1.4525067e-07 5.122178e-07 2.6863938e-05 -3.553705e-07 -1.0669244e-05 -4.918732e-07 1.678597e-07 4.3424015e-07
-3.6279976e-06 3.4819313e-06 4.5511056e-06 2.210869e-07 6.481824e-06 -1.1438735e-06 9.206284e-07 1.6636998e-06
8.7957517e-07 4.593204e-07 7.059767e-07 -3.4881498e-07 1.1158742e-05 -1.4796909e-06 -1.3417231e-05 1.9576873e-06
-1.0191862e-06 -6.753352e-07 1.1026422e-06 -1.9773986e-06 2.949312e-05 -3.7029258e-07 -1.30969665e-05 -5.2587154e-07
3.2849634e-08 -3.0498018e-07 -5.031928e-06 2.3204473e-06 4.797774e-06 -5.7820176e-07 -3.4492726e-07 6.275164e-07
-1.2866085e-06 -2.2307956e-06 -1.4553575e-07 1.3567052e-06 7.736078e-07 -7.946253e-07 -1.802422e-05 2.0992711e-06
3.918275e-06 -1.0154982e-05 7.603303e-07 1.9591662e-06 -1.7595053e-06 -1.5411334e-06 9.838429e-07 8.642627e-07
1.5610813e-05 9.105809e-08 -3.5013102e-07 1.7148872e-06 1.2152052e-06 -1.6461657e-06 -2.6100043e-08 -4.3317937e-06
-4.1277785e-06 7.2063963e-06 4.291763e-06 1.192601e-06 -2.8171763e-07 -3.5261096e-06 -1.2578792e-07 -3.123662e-07
5.940948e-06 -4.5256482e-07 -1.0668973e-06 -2.2070712e-06 4.1710624e-07 -5.606115e-07 -8.1009387e-07 1.7279149e-06
1.1898692e-06 1.0243549e-07 -1.6214216e-06 5.942633e-06 -2.0824098e-06 -5.7405255e-06 -3.2532275e-06 1.730927e-06
1.8928646e-06 1.2183903e-06 -1.0003494e-05 -9.354373e-07 1.6345125e-07 6.4379066e-07 -2.2731545e-06 1.4565917e-06
4.017512e-06 1.952843e-06 5.7093814e-07 -7.569147e-06 -4.0251524e-07 -1.1452028e-05 5.080952e-06 2.3693054e-05
1.3475867e-06 5.9917693e-07 1.4322706e-06 -1.8967629e-06 -1.6652489e-06 2.9232764e-05 3.7899547e-06 -9.234708e-06
00000000: 6972 6235 e01f 5cb5 2696 6c36 bbc4 c1b4
00000010: 9512 9334 a2a6 94b5 4fe3 1e36 6860 88b5
00000020: 2d83 3cb6 96f6 d735 3eb1 2036 c92a 1cb5
00000030: 9c15 17b6 bab8 2e36 f510 67b5 bb2d 3437
00000040: 33f6 1b34 577f 0935 de59 e137 c0c9 beb4
00000050: 0e00 33b7 4509 04b5 ec3c 3434 8321 e934
00000060: 8678 73b6 20ab 6936 b3b5 9836 e863 6d34
00000070: 727e d936 3287 99b5 1a21 7735 4a4c df35
00000080: f21b 6c35 8498 f634 5982 3d35 c444 bbb4
00000090: 6f36 3b37 cb99 c6b5 911a 61b7 d060 0336
000000a0: f9ca 88b5 ae48 35b5 7ffe 9335 73b3 04b6
000000b0: fe67 f737 a0cc c6b4 0bbb 5bb7 9e29 0db5
000000c0: 8e16 0d33 28bc a3b4 efd7 a8b6 fbb8 1b36
000000d0: 91fc a036 b935 1bb5 712e b9b4 9972 2835
000000e0: 88af acb5 c7b4 15b6 9044 1cb4 0918 b635
000000f0: eca9 4f35 3c4e 55b5 b832 97b7 34e1 0c36
00000100: ba79 8336 515f 2ab7 8019 4c35 387a 0336
00000110: 2428 ecb5 f1d8 ceb5 960c 8435 aeff 6735
00000120: f7f3 8237 b78b c333 a4f9 bbb4 132b e635
00000130: 221a a335 d3f1 dcb5 9a32 e0b2 d359 91b6
00000140: 5981 8ab6 79ce f136 f701 9036 7511 a035
00000150: fa3e 97b4 1aa2 6cb6 5210 07b4 49b3 a7b4
00000160: 5b58 c736 09f8 f2b4 5032 8fb5 321d 14b6
00000170: a5ee df34 ee7c 16b5 3a75 59b5 b4ea e735
00000180: 98b3 9f35 82fa db33 9f9f d9b5 d466 c736
00000190: 87bf 0bb6 bd9e c0b6 0652 5ab6 3352 e835
000001a0: 550e fe35 9287 a335 aed4 27b7 c31a 7bb5
000001b0: 2381 2f34 f5d0 2c35 7f8c 18b6 1c80 c335
000001c0: 2ace 8636 960d 0336 9242 1935 7afa fdb6
000001d0: 4619 d8b4 1622 40b7 0c7d aa36 72c0 c637
000001e0: bade b435 20d7 2035 713c c035 4794 feb5
000001f0: 8481 dfb5 e238 f537 ed56 7e36 c5ee 1ab7

network.1.weight f4 [128]
0.9512694 0.9721722 0.9863482 1.067378 0.9456285 1.0039672 0.94899476 1.0359519
0.96316576 0.965738 0.91441727 0.97843665 1.0059665 0.97248226 0.96845096 0.93939185
0.98862153 0.9276458 1.0325543 0.9798296 1.0419228 0.95762104 0.9663635 0.9644644
0.98990893 0.9535699 0.9777216 0.94755256 1.073477 0.9316747 0.9656844 0.966616
0.9314152 0.9613512 0.8683428 1.0002326 0.9751408 0.9413106 0.9935937 1.027731
0.9498805 0.94050646 1.0119452 0.9573724 1.001468 0.9938147 1.0193037 0.9258507
0.9719183 0.98452675 1.096709 1.017104 1.034439 0.9431813 1.0010248 1.0014584
0.9822204 1.0044657 0.93376607 0.9487237 1.0469065 0.97981495 1.021091 0.9343409
1.030143 1.1011283 0.91576886 0.9376312 0.9449709 0.92224807 0.9436203 0.99465257
0.9687773 0.99285936 1.0114472 0.9614121 0.9282146 0.92371243 0.97603905 0.9406177
0.951212 0.94679 1.0951055 0.98078763 0.97064114 1.03299 1.0251497 0.98316646
1.0518973 0.98306805 1.0041231 0.9426743 0.9326265 0.92350733 0.978726 0.9313233
0.9530283 1.0088658 1.0438194 0.9918821 0.935016 0.9087151 0.98329246 1.0544832
0.9885606 0.99997777 0.9473719 0.9907831 1.0153877 0.9551904 0.9594773 0.98548967
0.98851657 0.9523468 0.9505034 1.0803152 0.9365435 1.0322565 1.0196674 1.0549467
0.964976 0.9874282 0.93399763 0.9601283 0.92239803 1.0013388 1.0324527 0.9933804
00000000: 6486 733f 47e0 783f 5181 7c3f d89f 883f
00000010: b614 723f ff81 803f 52f1 723f 129a 843f
00000020: 0892 763f 9b3a 773f 4017 6a3f d37a 7a3f
00000030: 83c3 803f 99f4 783f 67ec 773f fc7b 703f
00000040: 4d16 7d3f 327a 6d3f bd2a 843f 1dd6 7a3f
00000050: ba5d 853f a726 753f 9963 773f 24e7 763f
00000060: ac6a 7d3f 281d 743f f64b 7a3f ce92 723f
00000070: b267 893f 3c82 6e3f 1837 773f 2574 773f
00000080: 3a71 6e3f 1d1b 763f b74b 5e3f 9f07 803f
00000090: d4a2 793f bbf9 703f 285c 7e3f b08c 833f
000000a0: 5e2b 733f 08c5 703f 6c87 813f 5c16 753f
000000b0: 1a30 803f a46a 7e3f 8b78 823f 8d04 6d3f
000000c0: a3cf 783f f209 7c3f f660 8c3f 7730 823f
000000d0: 7f68 843f 5474 713f 9521 803f ca2f 803f
000000e0: cc72 7b3f 5592 803f 4b0b 6f3f 8edf 723f
000000f0: 0801 863f 27d5 7a3f 1cb3 823f f730 6f3f
00000100: badb 833f c6f1 8c3f d46f 6a3f 9908 703f
00000110: 9de9 713f 7318 6c3f 1a91 713f 8da1 7e3f
00000120: ca01 783f 082c 7e3f 1a77 813f 1a1f 763f
00000130: 799f 6d3f 6b78 6c3f b2dd 793f 52cc 703f
00000140: a182 733f d460 723f 6b2c 8c3f e614 7b3f
00000150: f07b 783f 0439 843f 1b38 833f ccb0 7b3f
00000160: 92a4 863f 59aa 7b3f 1b87 803f 1a53 713f
00000170: 9cc0 6e3f fa6a 6c3f ca8d 7a3f 346b 6e3f
00000180: aaf9 733f 8422 813f e09b 853f fceb 7d3f
00000190: 355d 6f3f 8ea1 683f 0eb9 7b3f 4ef9 863f
000001a0: 4f12 7d3f 8bfe 7f3f f786 723f f6a3 7d3f
000001b0: 39f8 813f 5c87 743f 4ea0 753f 0d49 7c3f
000001c0: 6c0f 7d3f 00cd 733f 3154 733f c547 8a3f
000001d0: 51c1 6f3f fb20 843f 7684 823f 7e08 873f
000001e0: ab08 773f 18c8 7c3f 781a 6f3f f8ca 753f
000001f0: 4722 6c3f df2b 803f 6927 843f 2e4e 7e3f

network.1.bias f4 [128]
-0.045465983 -0.08278881 -0.10466397 -0.13919592 -0.1210222 -0.08502149 -0.166233 -0.12219369
-0.045331404 0.05313963 -0.098389015 -0.07083984 -0.06675819 -0.069534115 -0.03872595 -0.14104542
0.007307145 0.035628904 -0.14652106 -0.0095647555 -0.03831403 -0.034261514 -0.08852905 -0.079034984
-0.14123848 0.041795537 -0.08113842 -0.04398112 -0.09648229 -0.015425871 -0.05376885 -0.048358206
-0.06515623 -0.044657584 -0.07570942 -0.06436062 -0.11072412 -0.040038556 -0.10044579 -0.06530791
-0.018044949 -0.06126087 -0.08452546 -0.1762071 0.0066135563 -0.032817118 -0.046789907 -0.09689644
-0.073684454 -0.16656958 -0.057210084 -0.11406976 -0.13765462 -0.12032536 -0.108711384 -0.051349267
-0.02726163 -0.16917771 -0.058797054 -0.035915248 -0.05746529 -0.10164787 -0.10562021 -0.052898847
-0.1409016 0.009354195 -0.064555004 -0.034016315 -0.11265475 -0.036102775 -0.11949033 -0.07672124
-0.07659385 -0.14709547 -0.09167212 -0.0598769 -0.09649184 -0.043776635 -0.04130371 -0.080950245
-0.07320479 -0.05719706 -0.10985661 -0.08115101 -0.012105759 -0.043834798 -0.07894094 -0.11320087
-0.03826637 -0.009668602 -0.10517496 -0.084760174 -0.034081277 -0.10046169 -0.08329081 -0.06621157
-0.05906103 -0.056476742 0.017816834 -0.03483834 -0.118602246 -0.11211665 -0.040827464 -0.07489958
-0.100946486 -0.080353715 -0.13640502 -0.023479912 -0.14446008 -0.006141805 -0.06543988 0.0071252263
-0.13136232 -0.057436362 -0.0039615515 -0.12191332 -0.06501781 -0.075781405 -0.090472855 -0.0016958539
-0.04827469 -0.08654315 -0.09533871 -0.061027247 -0.065733 -0.08810325 -0.05182668 -0.042159777
00000000: 8a3a 3abd 2e8d a9bd 105a d6bd 6089 0ebe
00000010: 7dda f7bd bf1f aebd fc38 2abe af40 fabd
00000020: 6cad 39bd f1a8 593d 2e80 c9bd 7a14 91bd
00000030: 85b8 88bd e767 8ebd 1a9f 1ebd 366e 10be
00000040: c670 ef3b 9def 113d 9e09 16be 7eb5 1cbc
00000050: 2cef 1cbd cd55 0cbd b84e b5bd 18dd a1bd
00000060: d2a0 10be cc31 2b3d e62b a6bd 8c25 34bd
00000070: 8298 c5bd cbbc 7cbc ba3c 5cbd 4113 46bd
00000080: a170 85bd dfea 36bd 8a0d 9bbd 80cf 83bd
00000090: 54c3 e2bd 78ff 23bd 86b6 cdbd 27c0 85bd
000000a0: 00d3 93bc aeec 7abd af1b adbd a26f 34be
000000b0: 88b6 d83b 3e6b 06bd c6a6 3fbd a471 c6bd
000000c0: e0e7 96bd 3791 2abe 1f55 6abd 689d e9bd
000000d0: 55f5 0cbe 246d f6bd 13a4 debd 9c53 52bd
000000e0: c853 dfbc ec3c 2dbe 2ed5 70bd de1b 13bd
000000f0: b960 6bbd c22c d0bd 694f d8bd 76ac 58bd
00000100: 8248 10be 5642 193c 6a35 84bd b154 0bbd
00000110: 89b7 e6bd 81e0 13bd 59b7 f4bd 0720 9dbd
00000120: 3ddd 9cbd 32a0 16be 98be bbbd 7b41 75bd
00000130: 849d c5bd 214f 33bd 142e 29bd 3ec9 a5bd
00000140: 65ec 95bd 7747 6abd 81fc e0bd 8032 a6bd
00000150: 3c57 46bc 1e8c 33bd caab a1bd dcd5 e7bd
00000160: 32bd 1cbd 0e69 1ebc f865 d7bd be96 adbd
00000170: cf98 0bbd dcbe cdbd 5f94 aabd ee99 87bd
00000180: fbe9 71bd 2854 67bd 9cf4 913c a6b2 0ebd
00000190: bce5 f2bd 6a9d e5bd b33a 27bd f364 99bd
000001a0: 08bd cebd 7d90 a4bd c2ad 0bbe f258 c0bc
000001b0: 58ed 13be 3241 c9bb 5805 86bd bb7a e93b
000001c0: d883 06be 6442 6bbd e7cf 81bb b1ad f9bd
000001d0: 0f28 85bd 4833 9bbd d549 b9bd 6a47 deba
000001e0: aebb 45bd 893d b1bd f140 c3bd b5f7 79bd
000001f0: 069f 86bd 7a6f b4bd 3648 54bd bbaf 2cbd

network.1.running_mean f4 [128]
0.0030554142 -0.0018453221 0.009402391 -0.009131415 -0.011468464 -0.013206889 -0.017069694 -0.0036252537
-0.008728432 0.0018799517 0.0029557291 -0.0047016186 -0.010397321 -0.002683322 0.005797699 0.002752365
0.012679799 0.0021390137 0.0018288918 0.00020734781 -0.0007024561 0.019940436 0.01964346 -0.007643745
0.008191807 0.000514482 0.0056555104 0.009244481 -0.00026764045 0.003866925 0.002594778 0.0011191661
-0.016967665 -0.003727923 -0.0014202534 -0.0035425103 -0.004688762 0.00075883896 -0.006226768 -0.005156288
0.00830766 0.0024029976 0.0008994185 0.0060083815 -0.0032529747 -0.0101767145 0.0048871157 -0.016781466
0.0006540925 0.0002074861 -0.0026458018 -0.012617561 -0.0031440058 -0.00478509 0.00055788225 0.0059585716
-0.01404954 0.00790405 -0.004008985 -0.004952913 -0.009933859 0.0070210085 -0.008674969 0.0049649477
-0.0066028107 0.0024444845 0.01140569 -0.008424176 0.008908784 0.0007623518 0.008870666 0.0026194956
-0.010532063 0.011515252 0.001527458 -0.0035320977 -0.014808143 0.0020760503 0.002780294 0.013327803
0.0010590078 -0.0027051952 -0.010108046 -0.012181679 0.003927313 0.0049206074 -0.0010295263 0.004141321
-0.0063706953 0.010142576 0.0046779225 0.0057429443 0.011455829 0.0056609493 0.0007135719 -0.006212677
0.0005028021 0.0025999348 -0.0033307122 -0.0040116985 -0.0077897217 0.009375171 0.010542305 -0.0040908586
0.0022614817 -0.004475086 0.0009637532 0.0050631277 -0.0062085954 0.0020527919 -0.0077588256 -0.007967422
0.0030376296 0.025176395 0.0101242075 0.00232976 0.002899278 -0.0018902626 0.004407417 -0.004975753
0.0020105243 -0.0070917876 0.001333537 0.0067083947 -0.0068915244 0.0012790572 0.0007477386 -0.0027810715
00000000: 583d 483b bcde f1ba 7c0c 1a3c ee9b 15bc
00000010: 39e6 3bbc b561 58bc bed5 8bbc aa95 6dbb
00000020: b201 0fbc b668 f63a e8b4 413b 0910 9abb
00000030: 8659 2abc acda 2fbb a0fa bd3b 0661 343b
00000040: efbe 4f3c b22e 0c3b 6db7 ef3a 816b 5939
00000050: 0825 38ba 205a a33c 52eb a03c 6178 fabb
00000060: ee36 063c 4dde 063a dc51 b93b 2a76 173c
00000070: 1852 8cb9 3c6c 7d3b 270d 2a3b fcb0 923a
00000080: c6ff 8abc 2b50 74bb cc27 baba 7629 68bb
00000090: 30a4 99bb d2ec 463a ea09 ccbb 14f6 a8bb
000000a0: da1c 083c 9c7b 1d3b f4c6 6b3a f5e1 c43b
000000b0: dc2f 55bb 3cbc 26bc 1924 a03b 4979 89bc
000000c0: 6877 2b3a a090 5939 3065 2dbb e3b9 4ebc
000000d0: aa0b 4ebb 3fcc 9cbb d83e 123a 1f40 c33b
000000e0: 0b30 66bc fd7f 013c ce5d 83bb 0c4c a2bb
000000f0: a0c1 22bc 7d10 e63b 7521 0ebc 00b1 a23b
00000100: 645c d8bb a533 203b eede 3a3c 8e05 0abc
00000110: 26f6 113c 90d8 473a 4556 113c d8ab 2b3b
00000120: ad8e 2cbc 78aa 3c3c fc34 c83a c47a 67bb
00000130: da9d 72bc 580e 083b 9835 363b dc5c 5a3c
00000140: 68ce 8a3a a549 31bb 389c 25bc aa95 47bc
00000150: b0b0 803b 0c3d a13b 2cf1 86ba ebb3 873b
00000160: 44c1 d0bb 0c2d 263c 4249 993b 4f2f bc3b
00000170: 3bb1 3b3c 7c7f b93b 000f 3b3a b693 cbbb
00000180: 7ace 033a ab63 2a3b 1448 5abb 9174 83bb
00000190: ec40 ffbb 519a 193c a2b9 2c3c 9c0c 86bb
000001a0: 5e35 143b bea3 92bb 62a4 7c3a 98e8 a53b
000001b0: 7971 cbbb 2288 063b bf3d febb ca89 02bc
000001c0: f812 473b ba3e ce3c 01e0 253c e3ae 183b
000001d0: d001 3e3b b0c2 f7ba 186c 903b a40b a3bb
000001e0: 00c3 033b 3a62 e8bb 14ca ae3a 18d2 db3b
000001f0: 4cd2 e1bb 0aa6 a73a e303 443a a342 36bb

network.1.running_var f4 [128]
0.1046301 0.3229231 0.24472597 0.37575686 0.4699798 0.18704312 0.41686115 0.43340373
0.38067833 0.05861503 0.5026067 0.13453467 0.21959077 0.26757362 0.15693487 0.15414691
0.2046635 0.3605314 0.028759746 0.1394161 0.055228338 0.24470416 0.3917092 0.091717556
0.22949053 0.17785765 0.1431122 0.43136117 0.046158593 0.20319575 0.11391623 0.25922376
0.27023214 0.64003485 0.15210964 0.05867413 0.12905079 0.12538107 0.080555916 0.22380584
0.19204283 0.5318929 0.09678697 0.13716082 0.074413314 0.14325823 0.16501524 0.38784638
0.053712133 0.13080905 0.029181527 0.26363447 0.10605043 0.14440447 0.10025511 0.30648097
0.48646343 0.2335507 0.15521722 0.27151546 0.09777665 0.19806708 0.31424275 0.17499052
0.15497325 0.03986691 0.1653001 0.08290092 0.20655067 0.3550564 0.20739725 0.04309091
0.21353343 0.074833475 0.25200975 0.17275722 0.42341512 0.4345724 0.16372196 0.08896045
0.2997507 0.5851044 0.10805974 0.20338453 0.19495805 0.3678233 0.13218246 0.111468375
0.24409421 0.25531247 0.2006097 0.12756565 0.32326734 0.3830703 0.08613463 0.32362437
0.06987642 0.10712244 0.060449135 0.048182353 0.25750437 0.4024163 0.11665981 0.101072244
0.11756852 0.07322111 0.08443639 0.12668297 0.4432497 0.16266151 0.26807758 0.31328094
0.23325288 0.30304125 0.21072364 0.16828246 0.23159899 0.10119476 0.08951361 0.07973597
0.15717703 0.14141613 0.9835999 0.63561285 0.05187338 0.04822249 0.16870487 0.10070326
00000000: 4e48 d63d 2d56 a53e 7299 7a3e 3463 c03e
00000010: 31a1 f03e 3b88 3f3e d36e d53e 18e7 dd3e
00000020: 45e8 c23e 5016 703d d5aa 003f 75c3 093e
00000030: 67dc 603e 69ff 883e 89b3 203e b0d8 1d3e
00000040: 4f93 513e 9297 b83e 8f99 eb3c 18c3 0e3e
00000050: 1c37 623d ba93 7a3e 1c8e c83e 6ad6 bb3d
00000060: 91ff 6a3e 5120 363e 018c 123e 5fdb dc3e
00000070: cb10 3d3d 8c12 503e ea4c e93d fab8 843e
00000080: de5b 8a3e 53d9 233f a1c2 1b3e 4954 703d
00000090: e425 043e e563 003e 80fa a43d 5c2d 653e
000000a0: e0a6 443e 222a 083f 3f38 c63d e373 0c3e
000000b0: 0266 983d 49b2 123e c1f9 283e cd93 c63e
000000c0: 4101 5c3d cff2 053e 190e ef3c 19fb 863e
000000d0: f830 d93d c4de 133e 8d52 cd3d 13eb 9c3e
000000e0: bc11 f93e ea27 6f3e 43f1 1e3e 1304 8b3e
000000f0: 203f c83d 19d2 4a3e 6de4 a03e b730 333e
00000100: 4fb1 1e3e 7c4b 233d 6e44 293e f5c7 a93d
00000110: 0582 533e f4c9 b53e f25f 543e 1880 303d
00000120: 82a8 5a3e 4b42 993d 6c07 813e 45e7 303e
00000130: dec9 d83e 4680 de3e bba6 273e e530 b63d
00000140: ec78 993e 67c9 153f 6d4e dd3d 0944 503e
00000150: 15a3 473e 5653 bc3e d75a 073e 8849 e43d
00000160: d5f3 793e 51b8 823e a16c 4d3e 92a0 023e
00000170: 4c83 a53e ca21 c43e 5a67 b03d 18b2 a53e
00000180: 5e1b 8f3d 0363 db3d 8399 773d dc5a 453d
00000190: 9dd7 833e 8209 ce3e 57eb ee3d f7fe ce3d
000001a0: c4c7 f03d f3f4 953d fcec ac3d 2eb9 013e
000001b0: a0f1 e23e bd90 263e 7741 893e 5c66 a03e
000001c0: d8d9 6e3e 3928 9b3e f0c7 573e 3d52 2c3e
000001d0: 4928 6d3e 333f cf3d e952 b73d 9d4c a33d
000001e0: 04f3 203e 64cf 103e 34cd 7b3f 86b7 223f
000001f0: 2e79 543d f284 453d f8c0 2c3e 833d ce3d

network.4.weight f4 [64, 128]
0.04802905 -0.05749236 -0.013953906 0.045921262 -0.0041721896 0.0362845 0.07089177 0.15534765
-0.026535762 0.0791152 0.06477418 0.003161097 0.01835239 0.013185634 -0.029945435 0.008123958
-0.051769882 -0.0016599486 -0.028070047 0.086531885 -0.03652618 -0.044826534 0.009010609 0.0071799043
-0.14280729 -0.003186987 0.019701952 -0.048677936 0.0260468 -0.012173909 -0.05110942 -0.0157631
0.051854905 0.026864162 -0.03535443 0.051971972 -0.073628694 0.04386866 0.06097147 -0.022460725
-0.03334041 0.057813272 -0.13167474 -0.051150877 0.07429657 0.03733286 -0.09627503 0.021891456
0.030723892 0.03889381 -0.09793554 0.03636919 -0.02224375 0.07553811 0.048125856 -0.02263148
0.058744732 -0.094277285 -0.040928945 -0.058529858 0.10637682 -0.12890439 0.027293608 0.07810225
0.06052248 0.029484816 -0.062812015 0.08360946 -0.0718477 -0.061875075 -0.06264426 0.11437505
0.06431804 0.059401494 -0.06836833 0.027864618 -0.0017448824 0.066550344 -0.113085195 0.017771084
-0.026428534 0.057874586 0.057789434 0.03342864 0.069384106 0.05273827 0.085738346 -0.031552266
-0.05366277 0.09708535 -0.12504557 0.12236018 0.030531934 -0.07824602 0.047474444 0.05987293
0.020217057 0.05746593 0.02259701 -0.10239078 0.027336169 -0.075356245 -0.000593222 0.018597836
0.023688467 0.033969454 -0.055259965 -0.039259348 0.004093437 0.018331768 -0.034652717 0.01351796
0.075513504 -0.025178535 -0.03163586 0.06310487 -0.017286628 -0.042918798 -0.017896557 0.12564433
-0.05893265 -0.074129686 -0.0037595 0.017023548 -0.013071124 0.008467801 0.06208414 -0.07761612
0.059226785 0.009813568 -0.036427297 -0.03303159 0.023990167 0.035349205 -0.031321604 -0.03958076
-0.043232463 -0.08342629 0.013877186 -0.043427084 -0.11124113 -0.018058218 0.06149695 0.0031766181
-0.046695374 -0.051215816 -0.018639835 -0.057963807 -0.116746485 -0.054913 -0.07464631 0.0039815214
-0.05496959 0.08205247 0.074863784 0.046999566 0.046916425 -0.029634655 0.016641563 0.022327174
-0.05317202 0.07505279 -0.003269036 0.06548745 -0.039786186 0.069992445 -0.05176818 0.012514821
-0.0242823 -0.0148395235 -0.009928553 0.05506411 0.0007113439 -0.033925135 -0.07801295 0.012822405
-0.03630794 0.04878173 -0.010695698 0.0007483752 0.10419438 0.024848968 0.12187072 -0.14018814
0.031896655 -0.034448672 0.08330274 0.004164505 0.10372165 0.0011714128 -0.13383661 -0.0049880147
0.06094302 0.030567903 0.024748286 -0.0029303064 -0.097208664 -0.00085083593 -0.12569383 -0.091801114
0.080956884 0.031362955 -0.041805726 -0.033654757 0.090498395 -0.06419111 -0.007932353 -0.012620741
0.051875167 0.039670147 0.023669468 -0.029096873 -0.07971806 -0.03150687 -0.02818596 0.052533258
0.010879888 0.03205843 -0.11055369 0.06046235 -0.0032607608 -0.07467879 0.10402058 -0.0154656
0.017051758 -0.018534204 -0.112925485 -0.13243419 0.023069689 0.01924175 -0.015350622 -0.09888675
0.012525014 0.028526014 -0.038351834 -0.025165642 0.028315412 -0.06662769 0.032463122 -0.04135564
0.049262267 0.025884544 -0.0054074083 0.023920929 0.03908022 -0.10170271 0.04806815 0.09322474
0.020751283 -0.028160777 0.0020803746 -0.017894706 0.09694755 0.015534558 -0.0012627945 0.03301829
00000000: 1cba 443d 1c7d 6bbd ec9e 64bc ef17 3c3d
00000010: ddb6 88bb 0e9f 143d b42f 913d 7413 1f3e
00000020: 8761 d9bc 2607 a23d 53a8 843d 682a 4f3b
00000030: c057 963c 8f08 583c 2150 f5bc 591a 053c
00000040: a80c 54bd a292 d9ba 28f3 e5bc a137 b13d
00000050: 7a9c 15bd 079c 37bd 3ca1 133c 6745 eb3b
00000060: 133c 12be c5dc 50bb fd65 a13c 8462 47bd
00000070: 1960 d53c 1375 47bc 1c58 51bd 9e21 81bc
00000080: cf65 543d 3b12 dc3c cfcf 10bd 90e0 543d
00000090: a4ca 96bd a0af 333d 38bd 793d 8eff b7bc
000000a0: f48f 08bd 9ccd 6c3d bed5 06be 9583 51bd
000000b0: cd28 983d 57ea 183d d82b c5bd b655 b33c
000000c0: acb0 fb3c 1e4f 1f3d 6e92 c8bd dcf7 143d
000000d0: 8638 b6bc bab3 9a3d 9e1f 453d a765 b9bc
000000e0: 519e 703d 7314 c1bd 1ca5 27bd 01bd 6fbd
000000f0: 17dc d93d 83ff 03be d896 df3c 13f4 9f3d
00000100: 6ce6 773d 248a f13c 96a3 80bd 703b ab3d
00000110: e324 93bd b870 7dbd a24b 80bd 773d ea3d
00000120: 2db9 833d fb4e 733d b204 8cbd 5744 e43c
00000130: 8ab4 e4ba 8c4b 883d 3699 e7bd aa94 913c
00000140: a780 d8bc e70d 6d3d 9db4 6c3d 78ec 083d
00000150: 4119 8e3d 1604 583d 9697 af3d f33c 01bd
00000160: 7ecd 5bbd afd4 c63d f20b 00be f997 fa3d
00000170: 1b1e fa3c 733f a0bd 9074 423d 513d 753d
00000180: 3e9e a53c 6561 6b3d 5d1d b93c 42b2 d1bd
00000190: 1af0 df3c 6054 9abd 7482 1bba 7d5a 983c
000001a0: 510e c23c 8e23 0b3d 4658 62bd 69ce 20bd
000001b0: 3d22 863b 812c 963c 02f0 0dbd 6f7a 5d3c
000001c0: d3a6 9a3d 3743 cebc 9b94 01bd 203d 813d
000001d0: b09c 8dbc 9fcb 2fbd cd9b 92bc e8a8 003e
000001e0: 5d63 71bd 4ed1 97bd f261 76bb f874 8b3c
000001f0: 4528 56bc 88bc 0a3c f04b 7e3d 33f5 9ebd
00000200: c997 723d 16c9 203c ca34 15bd 224c 07bd
00000210: 0787 c43c 54ca 103d 154b 00bd 6f1f 22bd
00000220: 8614 31bd 67db aabd 235d 633c 99e0 31bd
00000230: 64d2 e3bd d4ee 93bc 3ae4 7b3d cf2e 503b
00000240: a643 3fbd adc7 51bd 91b2 98bc 756b 6dbd
00000250: c818 efbd 74ec 60bd 2ae0 98bd 6c77 823b
00000260: cb27 61bd 200b a83d 2f52 993d 9e82 403d
00000270: 702b 403d 60c4 f2bc e353 883c 7ae7 b63c
00000280: e7ca 59bd 47b5 993d 533d 56bb 491e 863d
00000290: d7f6 22bd 3358 8f3d df0a 54bd f70a 4d3c
000002a0: adeb c6bc 7921 73bc 5fab 22bc e78a 613d
000002b0: 7b79 3a3a 15f5 0abd 41c5 9fbd 1115 523c
000002c0: a2b7 14bd 5acf 473d 023d 2fbc 9c2e 443a
000002d0: dd63 d53d 1090 cb3c 5b97 f93d 7b8d 0fbe
000002e0: 11a6 023d 0d1a 0dbd a09a aa3d 6676 883b
000002f0: 046c d43d 178a 993a 770c 09be 8072 a3bb
00000300: 639f 793d 8a69 fa3c ebbc ca3c 620a 40bb
00000310: 5615 c7bd a20a 5fba e2b5 00be 3902 bcbd
00000320: b9cc a53d 7176 003d 7b3c 2bbd 92d9 09bd
00000330: 3957 b93d a176 83bd b3f6 01bc 39c7 4ebc
00000340: 0e7b 543d 2a7d 223d 79e6 c13c 915c eebc
00000350: 3943 a3bd 590d 01bd 3ee6 e6bc 1d2d 573d
00000360: 8f41 323c b34f 033d f969 e2bd 5ea7 773d
00000370: 7db2 55bb 32f1 98bd be08 d53d 6e63 7dbc
00000380: 21b0 8b3c 0bd5 97bc 7a45 e7bd d49c 07be
00000390: a5fc bc3c e0a0 9d3c 2d81 7bbc 2385 cabd
000003a0: b735 4d3c 63af e93c d016 1dbd 2d28 cebc
000003b0: b9f5 e73c 1974 88bd 0df8 043d 8864 29bd
000003c0: 3bc7 493d d30b d43c a130 b1bb d3f5 c33c
000003d0: 9512 203d 8349 d0bd 1ce3 443d 9dec be3d
000003e0: 98fe a93c 6eb1 e6bc e556 083b eb97 92bc
000003f0: 708c c63d a984 7e3c 5a84 a5ba 303e 073d

network.4.bias f4 [64]
1.6830741e-06 -3.611162e-06 2.042713e-06 -3.9056304e-06 -4.8844813e-06 -3.357483e-07 -9.728389e-06 1.4075284e-06
-3.4705606e-06 3.4021687e-06 -9.961489e-07 -2.9519101e-06 8.6855465e-09 5.517153e-06 3.331042e-07 -9.44207e-06
-2.4728416e-07 1.3604625e-05 1.4937661e-06 -5.0267545e-07 -1.4912753e-06 6.3065704e-07 1.0676828e-07 6.5458776e-06
5.327502e-06 1.7940513e-06 -4.2696283e-06 -1.1634077e-06 3.8401286e-06 -4.3014493e-06 1.1750909e-06 1.1932627e-07
2.1732087e-06 -2.2373847e-06 1.5715867e-06 -1.3598327e-06 -1.4036582e-06 -1.1958172e-06 5.5044825e-06 3.2066105e-06
6.245014e-06 4.7232406e-06 5.004431e-07 3.1156187e-06 4.4237953e-07 1.0999185e-05 -1.646154e-05 5.6555205e-06
-3.4651198e-06 7.7998607e-07 -1.4441367e-05 -9.674913e-08 5.024087e-05 3.7623654e-06 2.5721617e-06 -2.9470025e-06
5.577477e-06 1.18845165e-08 -1.1681975e-05 -4.0532577e-06 -3.513467e-06 -6.750013e-08 3.8074518e-08 1.6271429e-06
00000000: fce5 e135 4a57 72b6 8b15 0936 1c0d 83b6
00000010: 60e5 a3b6 e540 b4b4 1d37 23b7 4fea bc35
00000020: c7e7 68b6 d050 6436 6ab3 85b5 6e19 46b6
00000030: 7037 1532 fc1f b936 7ed5 b234 6269 1eb7
00000040: 7ac2 84b4 6b3f 6437 6a7d c835 98ef 06b5
00000050: d427 c8b5 6c4a 2935 7c48 e533 a9a4 db36
00000060: e5c2 b236 22cb f035 d443 8fb6 6226 9cb5
00000070: 74da 8036 2b55 90b6 d1b7 9d35 2820 0034
00000080: 71d7 1136 fa25 16b6 4fef d235 7f83 b6b5
00000090: 5465 bcb5 f77f a0b5 25b3 b836 2631 5736
000000a0: 438c d136 547c 9e36 3056 0635 ec15 5136
000000b0: 2e80 ed34 2489 3837 e316 8ab7 8dc4 bd36
000000c0: 4e8a 68b6 3c60 5135 3349 72b7 66c4 cfb3
000000d0: b9b9 5238 f27c 7c36 679d 2c36 1ec5 45b6
000000e0: 2a26 bb36 a82c 4c32 b3fd 43b7 3801 88b6
000000f0: e7c8 6bb6 97f4 90b3 6087 2333 3464 da35

network.5.weight f4 [64]
1.0171918 1.0026463 0.9601414 1.0415053 1.0054197 0.9901457 0.98759437 0.9588238
1.0070153 0.9307949 0.9218984 1.0055226 0.9240501 0.96889085 0.99891835 1.060612
0.97403735 1.0183147 1.006935 0.93426216 0.9847988 0.95606023 0.9952452 0.9903656
0.9911034 0.9633813 0.9883793 0.92018837 0.9897013 0.9535354 0.99798733 0.9972458
0.9853681 0.9935618 0.96481425 1.0369385 0.9429919 0.93670297 1.0188551 0.9528414
0.99663097 0.9846988 1.0138024 0.88300705 0.9584046 1.0232943 0.9931095 1.0419207
1.0478039 0.9879931 1.019211 0.95531076 1.0583885 1.0742035 0.9838544 0.9362926
1.0304633 0.9405427 1.037864 0.96607107 0.99056876 0.95718336 0.9451437 0.9653114
00000000: 5733 823f b756 803f d4cb 753f 0c50 853f
00000010: 98b1 803f 307a 7d3f fcd2 7c3f 7a75 753f
00000020: e1e5 803f 9348 6e3f 8901 6c3f f7b4 803f
00000030: 8c8e 6c3f 3b09 783f 1db9 7f3f 22c2 873f
00000040: 835a 793f 2358 823f 3fe3 803f ce2b 6f3f
00000050: c61b 7c3f 5dc0 743f 64c8 7e3f 9a88 7d3f
00000060: f4b8 7d3f 28a0 763f 6d06 7d3f 7791 6b3f
00000070: 105d 7d3f e51a 743f 197c 7f3f 804b 7f3f
00000080: 1541 7c3f 115a 7e3f 11fe 763f 67ba 843f
00000090: eb67 713f c4cb 6f3f d869 823f 6aed 733f
000000a0: 3523 7f3f 3815 7c3f 47c4 813f c00c 623f
000000b0: 015a 753f 4ffb 823f 6d3c 7e3f a85d 853f
000000c0: 701e 863f 1eed 7c3f 8275 823f 3f8f 743f
000000d0: 4679 873f 807f 893f e2dd 7b3f dfb0 6f3f
000000e0: 39e6 833f 68c7 703f bad8 843f 6f50 773f
000000f0: ea95 7d3f f809 753f f0f4 713f a61e 773f

network.5.bias f4 [64]
0.03757532 0.022821577 -0.103751 -0.10139215 -0.07250075 -0.09116173 -0.06467531 -0.0849244
-0.03240361 -0.09140346 -0.13815156 -0.07318297 -0.07406675 -0.11172193 0.044245064 -0.083576515
-0.05644864 -0.09642835 0.013353897 -0.077181086 -0.08198807 -0.062783964 -0.14191084 0.029114995
-0.03147792 0.0050275773 -0.007471238 -0.09103984 -0.07434307 -0.054536987 -0.026745396 -0.08515424
0.037045263 -0.07140038 -0.09677877 -0.0735404 -0.072376415 -0.014132493 -0.06841644 -0.13244456
-0.17069906 -0.065965384 -0.06811756 -0.108384736 -0.13895921 -0.042404704 -0.13492307 -0.020816687
-0.12779325 -0.07261883 -0.08468667 -0.024123253 -0.1196829 -0.12381541 -0.05047387 -0.061021186
-0.08948211 -0.00053341605 -0.045545835 -0.0383371 -0.11686093 -0.15559602 -0.0076698903 -0.14618573
00000000: 94e8 193d 51f4 ba3c 677b d4bd b0a6 cfbd
00000010: 467b 94bd 00b3 babd 7d74 84bd d8ec adbd
00000020: a6b9 04bd bd31 bbbd 9a77 0dbe f4e0 95bd
00000030: 4fb0 97bd 78ce e4bd 503a 353d 2a2a abbd
00000040: b036 67bd 3a7c c5bd 4eca 5a3c 1e11 9ebd
00000050: 5ce9 a7bd e194 80bd 1351 11be 9282 ee3c
00000060: feee 00bd 60be a43b 49d1 f4bb 1873 babd
00000070: 2e41 98bd 2d62 5fbd 2919 dbbc 5965 aebd
00000080: c6bc 173d 5d3a 92bd f333 c6bd 599c 96bd
00000090: 163a 94bd f98b 67bc eb1d 8cbd 8c9f 07be
000000a0: bccb 2ebe dc18 87bd 3881 8bbd d1f8 ddbd
000000b0: 534b 0ebe 8eb0 2dbd 4629 0abe c287 aabc
000000c0: 3cdc 02be 2eb9 94bd 3470 adbd 219e c5bc
000000d0: 4f1c f5bd ef92 fdbd b0bd 4ebd 5af1 79bd
000000e0: 6642 b7bd f2d4 0bba 458e 3abd 5d07 1dbd
000000f0: c954 efbd 9054 1fbe b453 fbbb b6b1 15be

network.5.running_mean f4 [64]
0.21633932 -0.231577 -0.09459317 -0.37988624 -0.2092872 -0.64523304 0.2867825 0.013934204
-0.0847855 -0.60040367 -0.040779278 -1.099178 -0.06809888 -0.02219468 -0.12556398 0.14165053
0.07651586 -0.2378172 0.21476884 -0.34033608 -0.91510844 -0.19559129 -0.3328724 -0.4275528
-0.1524927 -0.34775504 -0.08423825 0.20720617 -0.29872742 -0.17180878 -0.24363461 -0.72657865
0.31415182 -0.12827526 -0.92986196 0.023982294 -0.114725135 0.0058903983 -0.43428382 -0.40407664
-0.41547793 -0.6301501 -0.41931072 -0.26922122 -0.0944255 -0.24486828 -0.51215005 0.08046374
-0.39102042 -0.28084582 -0.35441393 0.00706752 -0.5016258 -0.46275875 -0.41473404 0.18709642
-0.25470448 0.56503546 -0.31577346 0.06370612 -0.39554825 0.10550676 -0.07858961 0.18028413
00000000: 0e88 5d3e 8522 6dbe 10ba c1bd 7380 c2be
00000010: 624f 56be fe2d 25bf 28d5 923e 4a4c 643c
00000020: 05a4 adbd 0eb4 19bf 2c08 27bd ddb1 8cbf
00000030: 6d77 8bbd 9ed1 b5bc d893 00be d60c 113e
00000040: 59b4 9c3d 5a86 73be 5dec 5b3e 8840 aebe
00000050: 8c44 6abf 1549 48be 406e aabe 33e8 dabe
00000060: 0c27 1cbe f30c b2be 1b85 acbd db2d 543e
00000070: cdf2 98be a4ee 2fbe 5a7b 79be 0f01 3abf
00000080: 82d8 a03e 975a 03be 6f0b 6ebf 8476 c43c
00000090: 03f5 eabd 3e04 c13b 735a debe 22e3 cebe
000000a0: 86b9 d4be 8451 21bf e5af d6be 5dd7 89be
000000b0: 2862 c1bd c0be 7abe 441c 03bf 2cca a43d
000000c0: d433 c8be 06cb 8fbe be75 b5be a896 e73b
000000d0: 8c6a 00bf b7ee ecbe 0558 d4be 3496 3f3e
000000e0: a068 82be 2aa6 103f 0fad a1be 5b78 823d
000000f0: 4d85 cabe ee13 d83d 97f3 a0bd 679c 383e

network.5.running_var f4 [64]
0.51328254 0.69881546 0.41362363 0.3196463 0.44479412 0.4678046 0.26602378 0.45159516
0.59169054 0.41187084 0.3027632 0.6022913 0.53948826 0.55223817 0.95189446 0.3969291
0.45451638 0.27290845 0.49092162 0.6107686 0.43941954 0.3257234 0.56955373 0.46254766
0.56880426 0.78157026 0.5908834 0.5452562 0.3608599 0.6285565 0.4355899 0.38727018
0.434688 0.3544086 0.6813832 0.44428128 0.6042695 0.5566142 0.636569 0.25958303
0.23100193 0.5501983 0.4301624 0.3284678 0.29476592 0.40541142 0.4023434 0.37094155
0.44250023 0.36379 0.56379455 0.55823725 0.47604367 0.51220024 0.5424676 0.54080665
0.35438967 0.38480398 0.6452247 0.42894524 0.36088005 0.5892211 0.48174524 0.32323125
00000000: 7c66 033f 92e5 323f 7ac6 d33e aea8 a33e
00000010: 0ebc e33e 1684 ef3e 4534 883e 7b37 e73e
00000020: 0879 173f bce0 d23e c703 9b3e c32f 1a3f
00000030: e71b 0a3f 7b5f 0d3f 5baf 733f 4a3a cb3e
00000040: 5fb6 e83e a8ba 8b3e 145a fb3e 555b 1c3f
00000050: 99fb e03e 38c5 a63e 46ce 113f 0cd3 ec3e
00000060: 289d 113f fd14 483f 2244 173f e995 0b3f
00000070: a1c2 b83e 14e9 203f a405 df3e 4748 c63e
00000080: 6d8f de3e 0b75 b53e 216f 2e3f d678 e33e
00000090: 68b1 1a3f 457e 0e3f 30f6 223f 11e8 843e
000000a0: c58b 6c3e ccd9 0c3f 3f3e dc3e ee2c a83e
000000b0: 8feb 963e 1692 cf3e f4ff cd3e 0dec bd3e
000000c0: 648f e23e af42 ba3e d754 103f a3e8 0e3f
000000d0: ffbb f33e 8e1f 033f 28df 0a3f 4e72 0a3f
000000e0: 9072 b53e 0705 c53e 722d 253f b69e db3e
000000f0: 45c5 b83e 32d7 163f 50a7 f63e 917e a53e

network.8.weight f4 [32, 64]
0.056169268 -0.06607674 0.1319285 -0.016732207 0.012939712 -0.027890218 -0.021677725 0.08294026
0.045841955 0.0060382276 0.0053272173 0.025741471 0.08503311 -0.08757091 0.14189625 -0.118262276
-0.10644454 -0.03672991 0.008699367 -0.0010542298 -0.017365685 0.017120434 -0.007619446 0.08616049
-0.020237723 0.023077955 0.16514954 0.15444672 -0.026553731 0.022916434 0.10846593 -0.10492931
-0.006422182 0.056609195 -0.100492045 0.17655274 0.0006080768 0.07324136 -0.11945149 -0.096205465
-0.046555135 0.020049276 -0.030414466 -0.02380625 -0.055345587 -0.14136313 -0.02923098 -0.07501973
-0.0137103805 0.053149056 0.05758032 0.07135809 0.01849551 -0.020151192 -0.023387466 -0.07185294
-0.05251631 0.08473457 -0.0563036 -0.0588409 0.0719257 -0.062180653 0.005500661 -0.07721113
-0.11941363 -0.03186407 -0.10704952 0.09380337 0.0381298 -0.012642996 -0.0024488787 0.07377743
-0.12058995 0.09681347 0.02177945 0.07910249 -0.015931563 0.08936461 0.05976162 -0.022865351
0.0919329 -0.006482999 -0.0023231825 -0.07507648 0.11005815 -0.057906024 0.0043360037 0.067531615
0.06669126 0.1430126 0.05575458 0.108579785 -0.107576996 0.040171556 -0.037233848 -0.04976224
0.007655131 -0.043373477 -0.031429306 -0.04088297 0.110952966 0.12287433 0.096639276 -0.057197068
-0.10061132 0.0393969 -0.08366825 -0.003782063 -0.054563988 0.047622748 0.02167659 -0.075260796
-0.04854677 0.017773563 0.0017067959 -0.059768558 0.0013393731 -0.09780834 0.024138296 -0.007937811
-0.13113813 0.014459166 0.052323792 0.009788812 0.015057775 0.031510513 0.13163288 -0.01506163
0.045867156 0.0425751 0.011283924 0.06735862 -0.13962823 0.032151513 0.08373065 -0.13791159
0.10997039 0.03120306 0.11465181 -0.054488108 0.11286602 -0.104608506 -0.05765102 0.0129021285
0.03911251 0.075709 0.019222684 0.09317358 0.005644231 0.09117741 -0.07798314 -0.04309148
0.0048508225 0.03070203 -0.028547734 0.046731584 -0.14396606 -0.010288609 0.013501223 0.029180422
0.1621109 -0.06400232 0.017200503 -0.1112886 0.055153757 -0.021164708 -0.065070525 -0.072854385
0.011198239 -0.029771198 0.10988782 -0.034533415 0.0014252168 0.11687658 -0.08256442 0.10875108
-0.009041873 -0.004397826 0.013770516 0.08986686 -0.14520516 -0.024995413 0.045245484 -0.017552156
-0.045906384 0.08608182 -0.12888752 0.011471755 -0.11680685 -0.01586391 -0.14134444 -0.0783617
0.14219776 0.00069622113 0.1212233 -0.019148756 0.04441694 0.012890993 -0.07298981 -0.09934053
0.072143614 -0.016987782 -0.041963615 -0.09165748 0.111818895 -0.028759828 -0.0059370794 -0.07517872
-0.07374905 -0.038120367 0.09408007 0.12558159 -0.10790363 -0.07409935 0.019837743 -0.04602864
-0.05830469 0.084124885 -0.006810348 0.010400019 -0.12550388 0.16104472 0.005643329 -0.014746198
-0.06497192 -0.050761748 -0.13295354 -0.052645676 0.034456484 0.048123192 0.0058132424 0.108758986
0.11288688 -0.11439594 0.05584712 0.0897474 -0.03719133 0.020489141 0.08221236 -0.026583534
-0.016538858 -0.096428886 -0.13852257 0.06427711 -0.040029824 0.0017343157 0.0019261115 -0.08633706
-0.09788208 -0.010688112 0.021643003 0.07406425 -0.083098255 0.11251438 -0.03973749 -0.08645792
00000000: bf11 663d 3e53 87bd 4418 073e fb11 89bc
00000010: 1601 543c 077a e4bc 7c95 b1bc 95dc a93d
00000020: c6c4 3b3d 53dc c53b f08f ae3b c7df d23c
00000030: d725 ae3d 6158 b3bd 404d 113e 7e33 f2bd
00000040: 98ff d9bd 1a72 16bd ca87 0e3c 152e 8aba
00000050: 7b42 8ebc 2740 8c3c 8cac f9bb e974 b03d
00000060: 95c9 a5bc fb0d bd3c f61c 293e 4827 1e3e
00000070: 3687 d9bc 3fbb bb3c 6323 de3d 2ee5 d6bd
00000080: 2b71 d2bb 0bdf 673d c6ce cdbd 3eca 343e
00000090: 5867 1f3a 91ff 953d fca2 f4bd 5f07 c5bd
000000a0: 99b0 3ebd 613e a43c c227 f9bc 5305 c3bc
000000b0: 0eb2 62bd 7fc1 10be cf75 efbc f2a3 99bd
000000c0: 81a1 60bc d3b2 593d 57d9 6b3d 3124 923d
000000d0: e583 973c 1d14 a5bc 1297 bfbc a227 93bd
000000e0: 581b 57bd 5189 ad3d 9b9e 66bd 2803 71bd
000000f0: c84d 933d 24b1 7ebd e43e b43b de20 9ebd
00000100: 228f f4bd e683 02bd c73c dbbd fb1b c03d
00000110: fe2d 1c3d 9224 4fbc 5e7d 20bb 9f18 973d
00000120: ddf7 f6bd 2446 c63d d16a b23c 7c00 a23d
00000130: e982 82bc cb04 b73d 9ac8 743d 1e50 bbbc
00000140: 5147 bc3d 566f d4bb 8940 18bb b3c1 99bd
00000150: 2b66 e13d de2e 6dbd 0915 8e3b 044e 8a3d
00000160: 6d95 883d e571 123e ea5e 643d 145f de3d
00000170: 5451 dcbd ee8a 243d 8582 18bd 7ed3 4bbd
00000180: e5d7 fa3b 63a8 31bd 04bc 00bd e774 27bd
00000190: 4f3b e33d 89a5 fb3d d0ea c53d 7947 6abd
000001a0: 4f0d cebd a55e 213d 425a abbd 7ddc 77bb
000001b0: 7d7e 5fbd 1210 433d 1b93 b13c 5522 9abd
000001c0: fad8 46bd dd99 913c 91b6 df3a e0cf 74bd
000001d0: e78d af3a bd4f c8bd adbd c53c 980d 02bc
000001e0: 1349 06be 23e6 6c3c 7951 563d 4161 203c
000001f0: e3b4 763c 2b11 013d c5ca 063e 0ec5 76bc
00000200: 33df 3b3d 3a63 2e3d 35e0 383c 51f3 893d
00000210: b4fa 0ebe 4eb1 033d fa7a ab3d b238 0dbe
00000220: 2838 e13d 8f9d ff3c 91ce ea3d ec2e 5fbd
00000230: 4d26 e73d fc3c d6bd 7a23 6cbd 7363 533c
00000240: 7034 203d 520d 9b3d e478 9d3c cad1 be3d
00000250: 3ef3 b83b 39bb ba3d a0b5 9fbd b180 30bd
00000260: a6f3 9e3b d382 fb3c f0dc e9bc 9e69 3f3d
00000270: d76b 13be 8e91 28bc 3c34 5d3c c80b ef3c
00000280: 6600 263e a613 83bd 12e8 8c3c 47eb e3bd
00000290: e8e8 613d 9c61 adbc b243 85bd ae34 95bd
000002a0: d278 373c bae2 f3bc de0c e13d e972 0dbd
000002b0: 57ce ba3a fd5c ef3d 8917 a9bd e3b8 de3d
000002c0: 5d24 14bc a31b 90bb bb9d 613c 1e0c b83d
000002d0: a9b0 14be 2ec3 ccbc 5453 393d 8ac9 8fbc
000002e0: 5508 3cbd aa4b b03d 17fb 03be 07f4 3b3c
000002f0: 6e38 efbd 08f5 81bc 99bc 10be 197c a0bd
00000300: 4a9c 113e 9c82 363a ec43 f83d dadd 9cbc
00000310: 8aee 353d be34 533c ae7b 95bd 0c73 cbbd
00000320: 08c0 933d f629 8bbc 0ae2 2bbd ebb6 bbbd
00000330: 4e01 e53d bb99 ebbc d58b c2bb 4df7 99bd
00000340: be09 97bd 1a24 1cbd 0dad c03d 7698 003e
00000350: 94fc dcbd 66c1 97bd c382 a23c 8788 3cbd
00000360: e6d0 6ebd ab49 ac3d 5729 dfbb d764 2a3c
00000370: 1784 00be e8e8 243e adeb b83b 0a9a 71bc
00000380: ff0f 85bd 8deb 4fbd f924 08be fea2 57bd
00000390: 3e22 0d3d d31c 453d 037d be3b 08bd de3d
000003a0: 3d31 e73d 6b48 eabd f3bf 643d 7ccd b73d
000003b0: f055 18bd d8d8 a73c f45e a83d b6c5 d9bc
000003c0: 807c 87bc 827c c5bd dcd8 0dbe b8a3 833d
000003d0: 50f6 23bd fa51 e33a 9475 fc3a 7cd1 b0bd
000003e0: 6676 c8bd 311d 2fbc ab4c b13c ffae 973d
000003f0: 6b2f aabd f06d e63d c7c3 22bd da10 b1bd

network.8.bias f4 [32]
9.494811e-07 -2.1166866e-06 1.6160977e-06 1.5773378e-05 -3.0287263e-06 2.5306251e-06 3.184903e-06 4.298343e-07
-1.1105652e-05 -2.0445825e-06 -8.767164e-06 -1.3961335e-07 -6.604682e-06 -3.5972173e-06 -5.569573e-07 1.9681368e-06
-3.656194e-06 -3.0710962e-06 -1.5288635e-06 2.758966e-06 -2.6779364e-06 3.2177995e-06 5.129738e-06 -1.468364e-05
-1.9018427e-06 -6.792168e-06 -1.7343879e-06 -3.3137733e-06 -7.5771372e-06 5.826052e-06 -3.883456e-06 -3.7845816e-06
00000000: d8df 7e35 660c 0eb6 b2e8 d835 1251 8437
00000010: 1f41 4bb6 cfd3 2936 38bc 5536 fac3 e634
00000020: 6a52 3ab7 a935 09b6 af16 13b7 a0e8 15b4
00000030: c99d ddb6 b967 71b6 d081 15b5 5514 0436
00000040: ef5c 75b6 0819 4eb6 5a33 cdb5 ad26 3936
00000050: 99b6 33b6 60f1 5736 1d20 ac36 c159 76b7
00000060: d142 ffb5 47e8 e3b6 1dc9 e8b5 3162 5eb6
00000070: 1d3f feb6 687d c336 a24e 82b6 9efa 7db6

network.9.weight f4 [32]
1.422877 1.355439 1.3969429 1.3882096 1.3888576 1.3157905 1.3969179 1.4989079
1.2858596 1.3783952 1.4917936 1.402945 1.3656001 1.4536482 1.330414 1.3439058
1.3990873 1.3831526 1.4585402 1.379523 1.3279415 1.4090706 1.3200834 1.4178058
1.3949221 1.3321502 1.3783666 1.3946913 1.3570828 1.4374744 1.3667254 1.35204
00000000: d520 b63f 067f ad3f 06cf b23f dab0 b13f
00000010: 16c6 b13f d36b a83f 35ce b23f 37dc bf3f
00000020: 0c97 a43f 416f b03f 18f3 be3f b493 b33f
00000030: fccb ae3f 2511 ba3f 024b aa3f 1b05 ac3f
00000040: 4b15 b33f 250b b13f 72b1 ba3f 3694 b03f
00000050: fdf9 a93f 6d5c b43f 7ef8 a83f a97a b53f
00000060: cf8c b23f e683 aa3f 516e b03f 3f85 b23f
00000070: e4b4 ad3f 29ff b73f dcf0 ae3f a60f ad3f

network.9.bias f4 [32]
0.28484926 0.21933596 0.2457947 0.21520413 0.23528285 0.19936204 0.28071675 0.34814358
0.1875944 0.27974343 0.32778296 0.27318472 0.22539966 0.32475507 0.19849436 0.1620966
0.2676585 0.2483354 0.23180845 0.16864838 0.22899304 0.31864974 0.20570344 0.2966032
0.29117113 0.22187653 0.2418185 0.30907196 0.29231742 0.32481954 0.16401412 0.26925996
00000000: c3d7 913e 9b99 603e 9bb1 7b3e 795e 5c3e
00000010: fded 703e 9025 4c3e 1bba 8f3e e03f b23e
00000020: bf18 403e 883a 8f3e 2bd3 a73e dede 8b3e
00000030: 2bcf 663e 4c46 a63e 1b42 4b3e a7fc 253e
00000040: 890a 893e a34b 7e3e 325f 6d3e 29b2 2c3e
00000050: 277d 6a3e 0f26 a33e eca3 523e 60dc 973e
00000060: 6214 953e 9a33 633e 459f 773e ae3e 9e3e
00000070: a1aa 953e bf4e a63e 51f3 273e 71dc 893e

network.9.running_mean f4 [32]
0.030706333 0.118023165 -0.0076989345 -0.14732869 -0.42520833 0.048779048 -0.13453485 -0.2811323
-0.100988485 -0.17318413 -0.45377728 0.24005423 0.09961124 -0.16406743 -0.118030235 -0.26277897
0.0731448 -0.0128266215 -0.12547874 -0.14943705 0.026962271 -0.4085737 -0.28023502 0.044102333
-0.2059564 -0.112560876 -0.26439378 -0.30558133 -0.0038635673 -0.32284063 -0.02000011 -0.3157804
00000000: d98b fb3c 21b6 f13d 5847 fcbb 55dd 16be
00000010: e8b4 d9be 8acc 473d 81c3 09be 93f0 8fbe
00000020: 0dd3 cebd 2e57 31be 7f55 e8be c7d0 753e
00000030: fa00 cc3d 4b01 28be d6b9 f1bd f78a 86be
00000040: f1cc 953d c026 52bc 807d 00be 0706 19be
00000050: fbdf dc3c 9230 d1be f77a 8fbe a6a4 343d
00000060: 3ce6 52be 5186 e6bd 9f5e 87be 2875 9cbe
00000070: e733 7dbb 5e4b a5be 45d7 a3bc f8ad a1be

network.9.running_var f4 [32]
0.73572737 0.57640624 0.5515198 0.5953585 0.58636814 0.29034844 0.68261176 0.8412147
0.4243914 0.5344225 0.57079136 0.47531024 0.7232805 0.5585963 0.51235896 0.62267464
0.6313489 0.37925076 0.52566516 0.5849892 0.53733426 0.4728038 0.61730003 0.6872898
0.71154404 0.69112957 0.47027168 0.51244086 0.3912583 0.41077185 0.48082522 0.6062279
00000000: a158 3c3f 5c8f 133f 6730 0d3f 6a69 183f
00000010: 391c 163f 8da8 943e a5bf 2e3f d959 573f
00000020: d449 d93e eacf 083f 621f 123f dd5b f33e
00000030: e928 393f 2b00 0f3f f529 033f 9b67 1f3f
00000040: 15a0 213f 282d c23e fe91 063f dac1 153f
00000050: bd8e 093f 5713 f23e 6007 1e3f 39f2 2f3f
00000060: c027 363f deed 303f 73c7 f03e 532f 033f
00000070: 0253 c83e b050 d23e b92e f63e c031 1b3f
